models/other/model24168.pth (torch, 95403 bytes, 16 tensors)

conv2d_1.weight f4 [8, 1, 2, 2]
0	0xbdec2738	-0.11530918
1	0x3c02c9c9	0.00798268
2	0xbe7c7f7a	-0.24658003
3	0xbd0182c5	-0.031618852
4	0xbe07de9c	-0.13268512
5	0x3bfaa6db	0.0076492853
6	0xbebdcc40	-0.37069893
7	0xbdb0b6f0	-0.086286426
8	0x3de14d33	0.11001053
9	0xbd8cb810	-0.06871045
10	0xbdd4aa3d	-0.10384033
11	0x3f48d410	0.7844858
12	0x3f238bfe	0.63885486
13	0x3c218da1	0.009860427
14	0xbd868172	-0.065676585
15	0x3c80cd28	0.015722826
16	0x3f07ad15	0.5299848
17	0xbd4281e7	-0.047487166
18	0x3eddb905	0.4330522
19	0xbc2459e4	-0.010031197
20	0xbcf5eef4	-0.030021168
21	0xbd29fe82	-0.041502483
22	0x3f1d1616	0.61361825
23	0x3ef16e21	0.47154334
24	0xbe21042f	-0.15724252
25	0xbb8c301d	-0.0042781965
26	0x3f4320bd	0.7622183
27	0x3cb75ea3	0.022383993
28	0xbc2fbcb2	-0.010726141
29	0x3f27cf36	0.65550554
30	0x3ddf4a90	0.109028935
31	0xbe1fa3e2	-0.1558986

conv2d_1.bias f4 [8]
0	0xbe1b3e04	-0.15160376
1	0x3d715226	0.058916233
2	0xbe73d907	-0.23813258
3	0xbe95b94d	-0.29242936
4	0xbe8f9eba	-0.28050786
5	0xbe336395	-0.17518456
6	0xbe702d3d	-0.23454757
7	0xbeacd09b	-0.33752903

conv2d_2.weight f4 [16, 8, 3, 3]
0	0x3d9ebc6b	0.077507816
1	0xbf715d8f	-0.94283384
2	0x3b0e49a2	0.002171137
3	0x3e16c475	0.1472338
4	0xbff0ba55	-1.8806864
5	0x3cde8a83	0.027165657
6	0x3e162995	0.146643
7	0xbebd1d2d	-0.36936322
8	0x3d8569f0	0.065143466
9	0x3d0f5bb0	0.03499955
10	0xbf2e4cd2	-0.6808597
11	0xba66a7ac	-0.0008798789
12	0x3d9db8fb	0.07701298
13	0xbf52ecbe	-0.8239249
14	0x3d15f803	0.036613476
15	0x3db96b2e	0.09053646
16	0xbefae3cc	-0.4900192
17	0x3d3e9742	0.04653097
18	0x3f1ceba5	0.61297065
19	0x3e1c617f	0.15271567
20	0x3d986bdc	0.074424475
21	0x3d938431	0.07202948
22	0xbf8d4ace	-1.1038454
23	0x3e6b950c	0.23006076
24	0xbece4d74	-0.40293467
25	0xbfc642f9	-1.5489188
26	0x3d10f86f	0.035393175
27	0x3f2bb216	0.6706861
28	0x3ecdb9aa	0.40180713
29	0x3ed571bf	0.41688344
30	0x3eacd372	0.3375507
31	0x3f22e845	0.63635665
32	0x3f219c7f	0.6312942
33	0xbdbebaff	-0.093130104
34	0xbf113750	-0.56725025
35	0xc001bc7c	-2.0271292
36	0xbd98f2fb	-0.0746822
37	0x3e60c10e	0.21948645
38	0x3b1494f4	0.002267179
39	0xbe312b56	-0.17301688
40	0x3de619a9	0.11235363
41	0xbd1386c7	-0.036017206
42	0xbe97ba5c	-0.29634368
43	0x3d16e62e	0.03684061
44	0xc0867c67	-4.202686
45	0x3d88c657	0.06678455
46	0x3e8ae167	0.27125093
47	0x3bae08ad	0.005311093
48	0xbd502686	-0.05081799
49	0xbe93911e	-0.28821653
50	0xbef96d17	-0.4871604
51	0xbe4969d5	-0.19669278
52	0xbf6d171f	-0.92613405
53	0xc0120b28	-2.281931
54	0xbe0a5f8e	-0.13513014
55	0x3f2a6e4a	0.6657454
56	0x3da243f6	0.07923119
57	0xbb3a8b61	-0.0028464424
58	0xbe3333f1	-0.17500283
59	0xbf4c41eb	-0.7978808
60	0xbd83e3cb	-0.064399324
61	0xbf66028f	-0.89847654
62	0x3e1593d7	0.14607178
63	0x3d83874e	0.06422292
64	0x3ead66f1	0.338676
65	0xbd21ed4a	-0.039532937
66	0x3f74de8a	0.9565207
67	0x3f3e9909	0.74452263
68	0xbd7e8251	-0.062136
69	0x3ed80409	0.4219058
70	0xbf3a1fac	-0.7270458
71	0x3f23401b	0.6376969
72	0x3d5052ca	0.050860204
73	0x3d1a7575	0.037709672
74	0xbc68eef3	-0.014217126
75	0xbdb71489	-0.08939464
76	0x3c277019	0.010219597
77	0xbc946d23	-0.018118447
78	0xbe743981	-0.23850061
79	0x3c32074e	0.010865999
80	0xbc32dc3f	-0.010916769
81	0x3cc483dc	0.023988657
82	0x3c5f2b2e	0.013621135
83	0xbb9fb4b2	-0.0048738355
84	0xbcc479fd	-0.02398395
85	0xbcddd92c	-0.027081095
86	0xbc37dfa3	-0.011222753
87	0xbe0e8acf	-0.13920139
88	0xbc8e5adf	-0.017377315
89	0xbc9c2d63	-0.01906461
90	0x3e3456d2	0.17611244
91	0xc000e651	-2.0140574
92	0x3e550ffb	0.20806877
93	0x3d8de860	0.06929088
94	0xc0501a14	-3.2515917
95	0xbcfda0b2	-0.030960415
96	0xbdf1fb98	-0.11815566
97	0xbf8ba58f	-1.09099
98	0xbde68616	-0.112560436
99	0x3d55255c	0.05203758
100	0xbd4de1c8	-0.05026415
101	0x40165a30	2.3492546
102	0x3e206ea6	0.15667209
103	0x3e4e7bf3	0.2016447
104	0xc0b40282	-5.625306
105	0xbd612b1e	-0.05497276
106	0x3dd4a801	0.10383607
107	0xc02dca92	-2.715489
108	0x3d05e6d6	0.032690845
109	0x3cfb560a	0.030680675
110	0xbee59b4f	-0.44845054
111	0x3cd8cacf	0.026463894
112	0x3dbf1536	0.093302175
113	0xc08fb10e	-4.490363
114	0x3d6b5754	0.05745633
115	0x3d3ea741	0.046546225
116	0xc09966a9	-4.7937818
117	0x3dd8aa3d	0.105793454
118	0x3cdf9345	0.027291903
119	0xbe8e805b	-0.27832302
120	0x3d3210bc	0.04347299
121	0xbde8221d	-0.113346316
122	0xc0a7f8dc	-5.2491283
123	0x3caab86b	0.02083989
124	0xbe99cb9d	-0.30038157
125	0xc09a8e42	-4.8298655
126	0x3e61abe5	0.22038229
127	0x3ddbe03b	0.10736128
128	0xc0b7a596	-5.738963
129	0x3e38c470	0.18043685
130	0x3da7eb30	0.08199155
131	0x3ed21417	0.41030952
132	0x3e2095af	0.156821
133	0xbe37c9cd	-0.17948075
134	0x3e802718	0.25029826
135	0x3da196fc	0.07890126
136	0x3f73cbb0	0.9523268
137	0xbdfb146e	-0.12259756
138	0x3f1ff803	0.6248781
139	0xc080a3f9	-4.020016
140	0x3dcb5a51	0.09929336
141	0x3ef365c8	0.4753859
142	0x3f15aac6	0.58463705
143	0x3e998154	0.29981482
144	0x3da23af4	0.07921401
145	0xbcd1bac2	-0.025601748
146	0x3cd85d26	0.026411604
147	0x3dfde013	0.123962544
148	0x3c8f5429	0.017496185
149	0x3cf28fdf	0.029609619
150	0x3d5b9bc9	0.053615365
151	0xbd89389e	-0.06700252
152	0xbe4f77e5	-0.2026058
153	0x3d379961	0.044824008
154	0xbbb63e4c	-0.0055616256
155	0x3d451a25	0.048120636
156	0x3d4a1b8b	0.049342673
157	0xbb54aa92	-0.00324503
158	0x3c7af015	0.015316029
159	0x3cc2ae69	0.023764806
160	0xbd4d076c	-0.050055906
161	0xbdc763d9	-0.09735841
162	0x3e10b17f	0.1413021
163	0x3e8aab95	0.27084032
164	0x3df8a3fd	0.12140653
165	0xbfdf6636	-1.7453067
166	0xbe598dc7	-0.2124549
167	0xbd1b69cf	-0.037942704
168	0xc0092b18	-2.1432552
169	0xbf68a39c	-0.9087465
170	0xbfb9ed73	-1.4525589
171	0x3edae721	0.42754462
172	0x3eeafff3	0.458984
173	0x3e2f54ce	0.17122194
174	0x3e869a2b	0.26289496
175	0x3f0f3f66	0.55956113
176	0x3f5cde63	0.86276835
177	0x3ec71a2d	0.38887158
178	0xc0268d77	-2.6023843
179	0xbf2dedf7	-0.6794123
180	0xbdc99f88	-0.09844881
181	0xbe2534a4	-0.16133362
182	0x3d3a3c3f	0.04546761
183	0x3d68dd0c	0.05685143
184	0xbb6619cf	-0.0035110598
185	0x3e00f6bc	0.12594122
186	0xbe78eeda	-0.24309865
187	0xbffbf377	-1.9683675
188	0xbee0ccbd	-0.43906203
189	0x3d7c54ed	0.06160443
190	0xc07b250f	-3.9241369
191	0xbcb39a2e	-0.021924105
192	0xbe5db101	-0.21649553
193	0xc032cbd8	-2.7936916
194	0xbe13c9a3	-0.14432387
195	0xbe9bec81	-0.30453876
196	0xc03cf146	-2.9522262
197	0xbf7505fd	-0.9571226
198	0x3e1ac072	0.15112475
199	0x3e76ea35	0.2411278
200	0x3e79f56b	0.24410026
201	0xbe996127	-0.29956934
202	0x3e250f97	0.16119228
203	0x3de8054e	0.11329137
204	0x3ec6943b	0.38784966
205	0x3f19928b	0.5998923
206	0x3d5f072d	0.054450203
207	0xbd5e2211	-0.054231707
208	0x3d007f31	0.0313713
209	0x3f26d1a4	0.65163636
210	0x3f1d0746	0.61339223
211	0x3f395a9a	0.7240387
212	0x3e64d45f	0.22346638
213	0xbff62826	-1.9231002
214	0x3eb728c1	0.3577328
215	0x3f776418	0.96637106
216	0x3c039605	0.008031373
217	0x3b2e837d	0.0026628666
218	0xbd00eff4	-0.031478837
219	0xbdca67aa	-0.098830536
220	0x3b97b552	0.0046297694
221	0xbf377cfc	-0.71675086
222	0xbdcc6652	-0.099804536
223	0xbd6e21f8	-0.058137864
224	0xbd3a0586	-0.045415424
225	0x3d0cb211	0.034349505
226	0xbc1de91c	-0.009638097
227	0xbce3b8e2	-0.02779812
228	0xbd1c0d61	-0.038098697
229	0x3bb0df47	0.0053977105
230	0xbe4096e0	-0.18807554
231	0xbcf4c579	-0.029879319
232	0xbd0ba4c6	-0.034092687
233	0xbc8b8d27	-0.01703508
234	0x3b8cdc7e	0.0042987457
235	0x3e50ab6d	0.20377894
236	0x3bb44e8b	0.005502527
237	0xbafde652	-0.0019371009
238	0x3e8850f3	0.2662426
239	0xbde673d3	-0.112525605
240	0xbcbecb74	-0.023290373
241	0xbd25646d	-0.040378977
242	0xbc450ed1	-0.012027458
243	0xbe0938da	-0.13400593
244	0xbe2c10e1	-0.16803314
245	0x3eee7ad1	0.46578076
246	0xbecc8876	-0.3994786
247	0xbe156f39	-0.1459321
248	0x3f949ca2	1.16103
249	0xbf4f984f	-0.8109178
250	0xbe940708	-0.28911614
251	0x3fb0e516	1.3819911
252	0xbdd94487	-0.10608774
253	0xbbfa78ed	-0.00764381
254	0x3ce64b9a	0.028112222
255	0xbdf0609a	-0.11737175

conv2d_2.bias f4 [16]
0	0x3d8235de	0.063579306
1	0x3e0b6f23	0.13616614
2	0x3e1801f7	0.148445
3	0xbb32f53c	-0.0027306816
4	0x3c40a28d	0.011757505
5	0x3adbec7c	0.0016778852
6	0x3a7bc439	0.00096041296
7	0x3cbfab04	0.023396976
8	0xbe9b60b1	-0.30347207
9	0x3e0b9eef	0.13634847
10	0xbd44331e	-0.04790031
11	0x3ea3df78	0.3200643
12	0x3e96d5c6	0.2945997
13	0xbd1417ec	-0.036155626
14	0x3e3576ab	0.1772105
15	0x3e69d384	0.22834593

conv2d_3.weight f4 [32, 16, 4, 4]
0	0xbe708506	-0.23488244
1	0xbd3a2675	-0.04544683
2	0x3d2ef300	0.04271221
3	0xbe0a2421	-0.13490345
4	0xbe11e63e	-0.14247987
5	0x3cc28eb5	0.023749689
6	0xbea6c735	-0.32573858
7	0xbde1dbf4	-0.11028281
8	0x3e84cec6	0.25939006
9	0xbc3dfea0	-0.011596352
10	0xbead12ab	-0.33803305
11	0xbdb81882	-0.089890495
12	0x3cdf37e8	0.027248338
13	0xbd23da83	-0.04000331
14	0x39664626	0.00021960642
15	0xbeeb51f3	-0.4596096
16	0xbeadb96b	-0.33930525
17	0xbe92f6c5	-0.28703895
18	0x3ee1608a	0.44018966
19	0xbe90b14a	-0.2826026
20	0xbe5f050e	-0.21779272
21	0xbd2b8525	-0.041875023
22	0x3d9bbc8d	0.076043226
23	0xbe074e10	-0.13213372
24	0x3e21c609	0.157982
25	0x3d73f05c	0.059555396
26	0xbca8a105	-0.020584593
27	0xbe0ccbcb	-0.13749616
28	0x3e7d07da	0.24710026
29	0xbe39a777	-0.18130289
30	0xbd47dd90	-0.048795283
31	0xbe21abb5	-0.15788157
32	0x3e495406	0.19660959
33	0xbeee7c5c	-0.46579254
34	0xbee8b710	-0.45452166
35	0x3e36d080	0.17852974
36	0x3dcc2bdf	0.09969305
37	0xbb9267c1	-0.004467935
38	0xbe78bc36	-0.24290547
39	0xbdbf8b2e	-0.09352718
40	0x3e988ef8	0.29796576
41	0x3eb629f0	0.3557887
42	0xbe89e215	-0.269303
43	0x3cd8b7fa	0.026454914
44	0x3f348066	0.7050842
45	0x3ebd23b8	0.36941314
46	0xbe2c579a	-0.16830292
47	0x3bf424e4	0.007450687
48	0xbd859cd3	-0.065240525
49	0x3e1e405e	0.15454242
50	0x3dc1942f	0.09452092
51	0xbbbb9405	-0.0057244324
52	0x3d8ce291	0.068791516
53	0xbce5a511	-0.028032811
54	0x3d8dc332	0.06921996
55	0xbce3413b	-0.027741065
56	0x3cea8c7d	0.028631443
57	0xbb819a90	-0.003955193
58	0x3d9dfbe3	0.07714059
59	0xbb074876	-0.0020642555
60	0xbda7b73f	-0.08189248
61	0x3e066f62	0.13128427
62	0x3dc4d1a9	0.09610302
63	0xbcd2b4cd	-0.025720978
64	0xbecdf0a2	-0.4022265
65	0xbd8f6008	-0.070007384
66	0x3e403ce0	0.18773222
67	0xbd50eb91	-0.051005904
68	0xbeb14503	-0.34622964
69	0x3c663552	0.0140507985
70	0xbd42a98a	-0.047524966
71	0x3e072420	0.13197374
72	0xbe42249a	-0.18959275
73	0xbe6c80fe	-0.23096082
74	0xbda74b48	-0.08168656
75	0x3d085188	0.03328088
76	0xbe68ffdc	-0.22753853
77	0xbebdc186	-0.3706171
78	0x3dde7d2c	0.108637184
79	0x3e1967cd	0.14981003
80	0xbe0a50d3	-0.13507394
81	0x3e9560b5	0.29175344
82	0x3e9f54aa	0.3111928
83	0xbe31c817	-0.17361484
84	0xbe7d06ef	-0.24709676
85	0x3eac2663	0.33623037
86	0x3e38c50b	0.18043916
87	0xbe938ed5	-0.2881991
88	0xbd224783	-0.03961898
89	0x3ed3a962	0.41340166
90	0x3ee27612	0.44230705
91	0xbe81cca5	-0.25351444
92	0x3c8df12c	0.017326914
93	0x3eeb2b56	0.459315
94	0x3f03d223	0.5149252
95	0xbe6e6a96	-0.23282847
96	0x3df49d94	0.11944118
97	0x3d817ce2	0.06322648
98	0x3e204212	0.15650204
99	0x3e87ed46	0.26548213
100	0x3e466ae3	0.19376712
101	0xbd7edf67	-0.06222477
102	0x3db11fe6	0.08648662
103	0x3ccf8af2	0.025334809
104	0x3e34e3fa	0.17665091
105	0xbd365388	-0.044513255
106	0x3d36196b	0.044457834
107	0x3c8fec55	0.017568747
108	0x3d90febb	0.07079836
109	0xbcd3201b	-0.025772145
110	0x3c506b48	0.01272089
111	0x3cd1cf02	0.025611404
112	0x3da45682	0.080243126
113	0x3eab9359	0.33510855
114	0x3d5e08a8	0.054207474
115	0x3e2ea1c7	0.170539
116	0x3d1728c6	0.03690412
117	0x3e84a487	0.25906774
118	0xbd0849ac	-0.033273384
119	0x3e004711	0.1252711
120	0xbd3536d0	-0.044241726
121	0x3e744833	0.23855667
122	0xbbaf289c	-0.005345417
123	0x3dcfc8e5	0.101457395
124	0xbe7d76cc	-0.24752349
125	0x3e95c6ef	0.29253337
126	0x3ce95cda	0.028486658
127	0x3dbbe694	0.09174839
128	0x3e256b37	0.1615418
129	0x3e1b2475	0.15150626
130	0x3e6bc40a	0.23024002
131	0x3e679ce7	0.22618447
132	0x3e33efd1	0.17571951
133	0xbc1d6ce3	-0.00960848
134	0xbd12f409	-0.03587726
135	0x3dd46855	0.10371462
136	0xbd0d8047	-0.034546163
137	0xbc0b7b27	-0.0085132485
138	0xbe4e2710	-0.20132089
139	0x3db82d78	0.089930475
140	0xbdf43103	-0.11923411
141	0x3ea7dfd1	0.32787946
142	0xbe49d742	-0.1971102
143	0x3e4e19ec	0.20127076
144	0x3e37c265	0.1794525
145	0xbe13abca	-0.14421001
146	0x3e7070d3	0.23480539
147	0xbe8a474e	-0.27007526
148	0x3e2cc276	0.16871056
149	0xbe2a5ac9	-0.16636194
150	0x3e78ae1d	0.24285169
151	0xbe82ba1b	-0.25532612
152	0x3dda778c	0.10667333
153	0xbdd21374	-0.10257617
154	0x3e396ddd	0.18108316
155	0xbe01cb81	-0.12675287
156	0xbd43b02a	-0.047775425
157	0xbd8fc9e5	-0.0702093
158	0x3d6a0deb	0.05714218
159	0xbd446392	-0.04794652
160	0x3e8fb7ef	0.28070018
161	0x3ed8577f	0.42254254
162	0xbeaa9e04	-0.3332368
163	0x3df21ca1	0.11821867
164	0x3e4fd9e0	0.20297956
165	0x3e33598b	0.17514627
166	0xbeafb60a	-0.34318572
167	0x3cc984c7	0.024599446
168	0x3e4d5e29	0.2005545
169	0x3ec8b042	0.39196974
170	0xbf078085	-0.5293048
171	0xbe20e9a7	-0.15714131
172	0x3dec25f7	0.11530679
173	0x3ef5117d	0.47864905
174	0xbe919af1	-0.28438523
175	0xbe6d25eb	-0.23158996
176	0xbe0f6cab	-0.14006297
177	0x3e32b70a	0.17452636
178	0x3ea5bdc7	0.3237135
179	0xbefeb5ec	-0.4974817
180	0xbe840909	-0.25788143
181	0x3d0d1174	0.034440473
182	0x3ec2f648	0.38078523
183	0xbe89c1fb	-0.26905808
184	0xbed5a57f	-0.41727826
185	0x3de1d59f	0.11027073
186	0x3e069a38	0.13144767
187	0xbe56d316	-0.2097896
188	0xbe22d682	-0.1590214
189	0x3dc453bb	0.09586283
190	0xbe93d2e6	-0.2887184
191	0xbeb6da70	-0.3571353
192	0x3e216497	0.15761028
193	0xbdd03f9d	-0.10168383
194	0xbe776123	-0.24158148
195	0x3df06255	0.11737505
196	0xbdfb8f7e	-0.12283228
197	0xbc74d546	-0.0149434265
198	0x3defb015	0.11703507
199	0xbde0db81	-0.10979367
200	0x3e3b8e5d	0.18316026
201	0xbc546ad4	-0.012964923
202	0x3e8de49f	0.27713487
203	0xbf053c0c	-0.5204475
204	0x3eaa9c8e	0.33322567
205	0xbe172c88	-0.14763081
206	0x3ddb6f74	0.10714617
207	0xbe97d82e	-0.2965712
208	0x3f12db0f	0.57365507
209	0x3ed1b06a	0.40954906
210	0xbe581d0f	-0.21104835
211	0xbe8fbe63	-0.2807494
212	0x3f3d5a30	0.7396574
213	0xbf208e87	-0.6271748
214	0x3e031525	0.12801035
215	0x3db39430	0.08768499
216	0x3f50b044	0.8151896
217	0xbde16dee	-0.110072955
218	0xbd837676	-0.06419079
219	0xbeaa5bb5	-0.33273092
220	0x3f512788	0.81700945
221	0x3ec2fc16	0.3808295
222	0xbe9718df	-0.29511163
223	0x3e0b81da	0.13623753
224	0x3e6c3bcf	0.2306969
225	0xbdd638f8	-0.10460085
226	0x3ecbba71	0.3979068
227	0xbe0a5a09	-0.13510908
228	0x3e635546	0.22200498
229	0xbeaaaaf0	-0.3333354
230	0x3f05fd14	0.5233929
231	0xbd668c8d	-0.056286383
232	0x3e840112	0.25782067
233	0xbe822094	-0.2541548
234	0x3e9e3ec3	0.30907258
235	0x3e4f5f80	0.20251274
236	0x3d7fd134	0.06245537
237	0xbe3cb06e	-0.18426678
238	0xba99a6dd	-0.0011722703
239	0x3e9221b6	0.28541344
240	0x3dce9c63	0.10088422
241	0x3b22546f	0.0024769565
242	0x3df903dc	0.12158939
243	0xbebecd3c	-0.37265956
244	0xbdd6304a	-0.10458429
245	0xbe1c6149	-0.15271486
246	0xbd6fc45f	-0.058536883
247	0xbee24d31	-0.44199517
248	0x3e2bd93d	0.16782089
249	0x3c7dfa8a	0.015501628
250	0xbe07bf4c	-0.13256568
251	0xbe2089d6	-0.1567758
252	0x3ec254b0	0.37955236
253	0x3ca2b7a3	0.019862955
254	0xbe0aa0c1	-0.13537885
255	0xbeb2f75a	-0.3495434

conv2d_3.bias f4 [32]
0	0x3e9200e0	0.28516293
1	0x3f14adc8	0.5807767
2	0xbd180813	-0.037117075
3	0x3e661c83	0.22471814
4	0xbd51d609	-0.05122951
5	0x3edbd087	0.4293253
6	0x3cbda9df	0.02315229
7	0x3c33bdc8	0.01097054
8	0x3ec56ff6	0.38561982
9	0x3d63f98b	0.055657905
10	0xbd735f9a	-0.059417345
11	0x3ed42ce9	0.41440514
12	0x3e96212f	0.29322192
13	0x3e51387d	0.20431705
14	0xbe62ed11	-0.22160746
15	0x3ee389a2	0.44440943
16	0x3f1f0e69	0.62131363
17	0xbd5ba54b	-0.053624433
18	0x3eb277cd	0.34857026
19	0x3ebee8e5	0.3728706
20	0x3e7c3731	0.24630429
21	0xbd64f273	-0.05589528
22	0x3e0933fe	0.1339874
23	0xbcaff54d	-0.021479273
24	0x3e467690	0.19381166
25	0x3ee0f9c1	0.43940547
26	0x3e4bde1f	0.19908951
27	0x3ee52f8b	0.44762835
28	0x3eabb3dc	0.3353566
29	0x3f3a691d	0.7281664
30	0xbc82e434	-0.015977956
31	0x3efca6f1	0.49346116

lstm.weight_ih_l0 f4 [64, 128]
0	0x3e9adef6	0.3024823
1	0x3d01bd6f	0.0316748
2	0x3cc686fb	0.024234286
3	0x3e54e220	0.20789385
4	0x3dbc63e2	0.09198739
5	0x3d2e39ff	0.042535778
6	0x3dcccd2c	0.10000071
7	0x3e70b19b	0.23505251
8	0xbdc04eab	-0.09390005
9	0xbc9c4a85	-0.019078502
10	0x3e8dbbc0	0.27682304
11	0x3ea110eb	0.3145822
12	0xbe22e1e1	-0.15906478
13	0xbd885536	-0.06656878
14	0x3db2d85f	0.08732676
15	0x3ef03d82	0.46921927
16	0xbe0c814b	-0.13721196
17	0xbd4c7a22	-0.049921162
18	0x3df9933f	0.12186288
19	0x3ee13f1e	0.43993467
20	0xbddc253d	-0.1074929
21	0xbdbb0750	-0.09132254
22	0x3e07044a	0.1318523
23	0x3ea89625	0.3292705
24	0xbe04d3c6	-0.1297141
25	0xbe452700	-0.19253159
26	0x3e143972	0.14475039
27	0x3e2a52ae	0.16633102
28	0xbe993dae	-0.2992987
29	0xbd277270	-0.04088062
30	0x3e87f8eb	0.26557097
31	0xbe6357a9	-0.22201408
32	0xbc9a1275	-0.01880763
33	0x3e8d6007	0.27612326
34	0x3e682350	0.2266972
35	0x3e20f155	0.15717061
36	0xbe03f257	-0.12885414
37	0x3df7a2a0	0.12091565
38	0xbc4643bf	-0.012101113
39	0x3d3d25f2	0.046178766
40	0x3ddc3371	0.10751999
41	0x3c4c7517	0.012479088
42	0xbe171bb7	-0.14756666
43	0x3e04ab85	0.12956055
44	0x3d9b5209	0.07584006
45	0xbe121eef	-0.14269613
46	0xbe8b4193	-0.27198467
47	0x3b51eacb	0.0032030817
48	0xbdc71237	-0.09720271
49	0xbe194067	-0.14965974
50	0xbd523062	-0.051315673
51	0xbc8b1c56	-0.016981285
52	0x3da40586	0.08008866
53	0x3df534e8	0.11972982
54	0xbe1210dc	-0.14264244
55	0x3c0ada20	0.008474857
56	0x3e4d6596	0.20058283
57	0x3e58269c	0.21108478
58	0xbe8156ac	-0.25261438
59	0x3ec7af51	0.39000943
60	0x3d5b7d4f	0.0535863
61	0xbeb6d1d6	-0.35706967
62	0xbe9e8638	-0.30961776
63	0xbef3759d	-0.4755067
64	0xbdacc276	-0.08435528
65	0x3d414657	0.047186222
66	0xbe979295	-0.2960402
67	0xbd4643b2	-0.048404403
68	0xbe96fdb5	-0.29490438
69	0x3bf9245d	0.007603212
70	0xbe0a3971	-0.13498475
71	0xbeae73f2	-0.34072834
72	0x3d5db93e	0.05413174
73	0x3d105e61	0.035246257
74	0x3e1765ea	0.14784971
75	0xbd9a49f5	-0.075336374
76	0xbeaf5769	-0.34246376
77	0xbd8238e4	-0.06358507
78	0xbd5fdb07	-0.05465224
79	0xbc903227	-0.01760204
80	0x3cd5bbb5	0.026090482
81	0xbdcafe40	-0.099117756
82	0xbc6de05e	-0.014518825
83	0xbe844a55	-0.2583796
84	0xbe54ef04	-0.20794302
85	0xbe1f9677	-0.15584742
86	0xbc8ee0ae	-0.01744112
87	0xbde3590b	-0.11100968
88	0xbdbc084d	-0.09181271
89	0xbe6a62ea	-0.22889295
90	0x3d3d9839	0.04628775
91	0xbd3fcf83	-0.046828758
92	0x3cdd3e07	0.027007116
93	0x3e7794cc	0.24177855
94	0xbc09b120	-0.008404046
95	0x3e60bf65	0.21948011
96	0xbccab7ee	-0.024745908
97	0xbd8d64f9	-0.06904025
98	0x3dbc54b2	0.09195842
99	0xbe0caa5c	-0.13736862
100	0x3cbf1e03	0.02332974
101	0xbc7648e7	-0.01503203
102	0x3d95c2c2	0.07312538
103	0xbe2c6393	-0.1683486
104	0xbd964b65	-0.07338599
105	0xbe3f0885	-0.18655594
106	0x3dda5f6f	0.10662734
107	0xbe2bcdc2	-0.16777709
108	0x3b469ae0	0.0030304715
109	0xbceaafb5	-0.028648237
110	0x3e1e287a	0.15445128
111	0xbea190f9	-0.31555918
112	0xbe051c65	-0.12999113
113	0xbe04fdc7	-0.12987433
114	0x3e4b0511	0.19826151
115	0xbc951a45	-0.018201003
116	0xbd2b3f0f	-0.041808184
117	0xbaf61151	-0.0018773471
118	0x3d840c76	0.06447689
119	0xbdce9f77	-0.10089009
120	0x3e3f736d	0.18696375
121	0x3d830259	0.06396932
122	0xbcf75db1	-0.030196043
123	0xbe3351ba	-0.17511645
124	0xbe222ac5	-0.15836628
125	0x3e59c977	0.21268259
126	0x3ee0f1ee	0.43934578
127	0xbed577fa	-0.41693097
128	0xbf08d9f1	-0.5345755
129	0xbdf0dd91	-0.117610104
130	0x3e8ef9b5	0.27924886
131	0x3f69662a	0.91171515
132	0xbe2d85de	-0.16945598
133	0xbe662ffa	-0.22479239
134	0x3eac0b58	0.33602405
135	0x3e04bfbe	0.12963769
136	0x3c08c68d	0.008348119
137	0xba6eac92	-0.00091046945
138	0x3eb76bb1	0.3582435
139	0x3e617e64	0.2202087
140	0x3daafd12	0.083490506
141	0x3de5b45a	0.1121604
142	0x3f0546ce	0.52061164
143	0x3ee1a9f6	0.44074982
144	0x3d9bdbf2	0.076103106
145	0x3e238698	0.15969312
146	0x3eb723d9	0.35769537
147	0x3e92680e	0.28595012
148	0xbe138374	-0.14405614
149	0x3c485453	0.012227136
150	0x3eda457e	0.42631143
151	0x3e074507	0.13209926
152	0xbe80df50	-0.25170374
153	0xbe1530a4	-0.14569336
154	0x3ec6d5a6	0.38834876
155	0x3ec330c3	0.3812314
156	0x3eaa95b7	0.33317348
157	0xbd402959	-0.046914432
158	0x3f1ec127	0.6201348
159	0xbbca4a2c	-0.0061733928
160	0x3eb6a702	0.35674292
161	0x3e4dff9a	0.20117036
162	0xbe1e5aaf	-0.1546428
163	0xbe52f08f	-0.20599578
164	0x3e241546	0.1602374
165	0x3e0dbd59	0.13841762
166	0xbc47ec11	-0.012202279
167	0xbf00f3c7	-0.50371975
168	0x3d5cbe6c	0.053892538
169	0xbd2fd3c8	-0.04292658
170	0xbcd2be12	-0.025725398
171	0xbec0776c	-0.37591112
172	0xbd3bc430	-0.045841396
173	0xbd8c8d90	-0.068629384
174	0xbe20cbc3	-0.15702729
175	0xbe9f093e	-0.3106174
176	0x3c53e4c1	0.012932957
177	0x3d9270cf	0.07150423
178	0x3ca96b67	0.020681096
179	0xbd7f99d2	-0.062402554
180	0xbd94e665	-0.07270507
181	0x3c7dec78	0.015498273
182	0x3e1dd3b7	0.15412794
183	0x3d0c94ea	0.034321703
184	0x3bf64011	0.0075149615
185	0x3c1d06f1	0.0095841745
186	0x3e1ee8e4	0.15518528
187	0x3d4ed389	0.050494704
188	0xbe7e6e62	-0.24846795
189	0xbdb197b3	-0.086715125
190	0x3e5d540b	0.21614091
191	0x3e7919a4	0.24326187
192	0xbdb8ade6	-0.090175435
193	0xbe818068	-0.2529328
194	0xbcb71cfb	-0.022352686
195	0xbde77219	-0.11301059
196	0xbe8603a0	-0.2617464
197	0xbf080d30	-0.5314512
198	0x3e146715	0.14492448
199	0x3df48f3a	0.11941381
200	0xbe98d859	-0.2985256
201	0xbe72f21d	-0.23725171
202	0x3de70a13	0.112812184
203	0x3e7a48eb	0.24441878
204	0xbe92aba2	-0.2864657
205	0x3c8a270e	0.016864326
206	0x3e999890	0.29999208
207	0x3f0a2746	0.53966177
208	0xbe7bc70b	-0.24587648
209	0x3dada1ee	0.08478151
210	0x3da235e4	0.07920435
211	0x3f38cb6c	0.721854
212	0xbe3a3ed5	-0.18188031
213	0xbba4cc4b	-0.0050292364
214	0x3d1f5da9	0.03890768
215	0x3f1998cd	0.5999878
216	0xbdb36b53	-0.08760705
217	0x3e0c8a77	0.13724695
218	0x3e85a2d0	0.2610078
219	0x3f29fde4	0.6640303
220	0xbeb22a3c	-0.34797847
221	0x3dc7ef16	0.09762399
222	0xbdf6bd45	-0.12047819
223	0x3f41cb9c	0.7570131
224	0xbee73ca0	-0.4516344
225	0x3d3ffc06	0.046871208
226	0xbdd1227f	-0.10211658
227	0xbeaf51e8	-0.34242177
228	0xbe5f32dc	-0.21796745
229	0xbd9f8304	-0.07788661
230	0xbe516bfa	-0.20451346
231	0xbe6ab833	-0.22921829
232	0xbcc12dd9	-0.023581432
233	0xbe382f88	-0.17986882
234	0xbd992dc3	-0.074794315
235	0xbe9c39ea	-0.30512935
236	0xbd873041	-0.066010006
237	0xbec2df43	-0.3806096
238	0xbd791634	-0.06081219
239	0xbf00bcd8	-0.5028815
240	0xbd153a5e	-0.036432616
241	0xbdb02a90	-0.08601868
242	0xbd8ba4d7	-0.0681855
243	0x3e7c8fe8	0.24664271
244	0xbe4ede2f	-0.20201944
245	0x3cdfed70	0.027334899
246	0xbe177cd9	-0.1479372
247	0xbd516214	-0.051118925
248	0xbeae9675	-0.34099165
249	0xbd821292	-0.06351198
250	0xbec4d92b	-0.38446936
251	0x3e13cf90	0.14434648
252	0x3ecf4220	0.40480137
253	0x3dfb3cdd	0.12267468
254	0x3e6f4c54	0.2336896
255	0x3e78df49	0.24303927

lstm.weight_hh_l0 f4 [64, 16]
0	0x3f4912b8	0.7854419
1	0x3e91bc76	0.28464097
2	0xbef4edec	-0.4783777
3	0xbf933071	-1.1499158
4	0xbf6600a0	-0.89844704
5	0x3f63000e	0.8867196
6	0x3db4db24	0.0883086
7	0x3eb811d9	0.35951117
8	0x3e793465	0.24336393
9	0x3f6b4b1f	0.919115
10	0x3f8468bf	1.0344466
11	0xbe3a3706	-0.18185052
12	0xbfa0699c	-1.253223
13	0x3f6adc91	0.9174281
14	0xbfb0689e	-1.3781927
15	0x3f912811	1.1340352
16	0xbf8e2718	-1.110568
17	0xbf2eb9b2	-0.682521
18	0xbec1dce3	-0.37863836
19	0xbd8f622b	-0.07001146
20	0x3ece7d4c	0.4032997
21	0x3e844a03	0.25837716
22	0xbdcc9592	-0.09989466
23	0xbeb0574b	-0.344416
24	0x3f1ab7c8	0.6043668
25	0x3fb68cd2	1.4261725
26	0xbe181ed2	-0.14855507
27	0xbd71c294	-0.059023455
28	0x3f08c1f5	0.53420955
29	0x3eaed84b	0.34149393
30	0xbf1d722e	-0.6150235
31	0x3eb03d72	0.3442188
32	0x3f71f4d9	0.9451423
33	0xbdebd002	-0.11514284
34	0x3e1af48f	0.15132354
35	0x3e397196	0.18109736
36	0x3f1632e5	0.5867141
37	0x3e72af19	0.23699607
38	0x3f95a993	1.1692375
39	0x3e57d024	0.21075493
40	0x3f665188	0.89968157
41	0xbeba2817	-0.3635871
42	0xbf508522	-0.81453145
43	0x3d490a8e	0.04908233
44	0xbdbf38ee	-0.0933703
45	0xbd68f4aa	-0.056873955
46	0xbf3d09b4	-0.7384293
47	0x3f4e50d1	0.80592066
48	0xbf02b965	-0.5106414
49	0xbf5b100a	-0.8557135
50	0x3ece6efd	0.40319052
51	0x3ef37a2a	0.4755414
52	0x3ec61f8c	0.38695943
53	0x3f0d07cb	0.55090016
54	0xbf4d9a9f	-0.8031406
55	0xbdec5fb7	-0.11541694
56	0x3ea85ef0	0.32884932
57	0x3f53d8cc	0.8275268
58	0xbf403fc1	-0.7509728
59	0xbea52258	-0.32252765
60	0x3f541c19	0.82855374
61	0x3f27fcad	0.6561993
62	0x3ded1f35	0.11578218
63	0x3caad7cf	0.020854859
64	0x3f9f547e	1.244766
65	0x3f411553	0.75423163
66	0xbf4c35d9	-0.79769665
67	0x3f2e6035	0.6811555
68	0xbbb8db22	-0.005641357
69	0x3edd72ab	0.43251547
70	0x3c0a8d17	0.00845649
71	0xbdc73d58	-0.09728497
72	0xbf78fb76	-0.972587
73	0xbf1004d8	-0.5625739
74	0xbebf4a6d	-0.3736147
75	0xbc6064bb	-0.013695891
76	0xbf4a9b7f	-0.7914352
77	0xbfa18785	-1.2619482
78	0xbd725832	-0.05916614
79	0x3f283122	0.6569997
80	0xbf01cce3	-0.5070326
81	0xbedcc082	-0.43115622
82	0x3f9815f6	1.1881702
83	0xbecb2ffd	-0.3968505
84	0xbf3cad9f	-0.73702425
85	0x3f0aa329	0.5415521
86	0x3e8487d7	0.25884888
87	0x3fa1251b	1.2589449
88	0xbf6f4ffd	-0.9348143
89	0x3f831aaf	1.0242518
90	0xbf5f7518	-0.87288046
91	0xbed35c4a	-0.41281348
92	0xbf80355c	-1.0016284
93	0xbe228a8a	-0.15873161
94	0x3f23a75f	0.63927263
95	0xbe5d26fd	-0.21596904
96	0xbfc8d12f	-1.5688838
97	0x3e08097d	0.1328487
98	0x3edf0437	0.43557903
99	0x3fb1650f	1.3858966
100	0xbf52c7d2	-0.8233615
101	0x3ca7b414	0.02047161
102	0x3f58884f	0.8458299
103	0x3d71d2f6	0.05903908
104	0x3ebf0826	0.37310904
105	0xbef8c986	-0.4859125
106	0xbf3e0724	-0.74229646
107	0xbddfd82b	-0.10929903
108	0xbe4efc96	-0.20213541
109	0xbe00f2cc	-0.1259262
110	0x3f655192	0.8957759
111	0xbf1d8f57	-0.61546844
112	0x3e2a02a0	0.16602564
113	0x3f4b001c	0.7929704
114	0xbe263a12	-0.1623309
115	0xbdb9e538	-0.09076923
116	0xbeb5c3c2	-0.35500914
117	0x3f80aeef	1.0053385
118	0xbe5d0605	-0.21584328
119	0xbd924a95	-0.07143132
120	0xbeea9c56	-0.458224
121	0x3ecbb06a	0.3978303
122	0x3e2db580	0.16963768
123	0x3f441d8d	0.7660759
124	0xbf69791f	-0.9120044
125	0x3f594f42	0.8488656
126	0x3e87f727	0.2655575
127	0x3ed0123a	0.40638906
128	0xbf17e65f	-0.59335893
129	0x3c88d3aa	0.016702492
130	0xbf381831	-0.71911913
131	0xbd98be42	-0.07458164
132	0xbec66929	-0.38752106
133	0xbe8332db	-0.25624737
134	0x3f0a4007	0.5400395
135	0x3e5f040e	0.2177889
136	0xbcd6aeb4	-0.026206352
137	0x3f05a212	0.52200425
138	0x3df8bcc9	0.12145383
139	0xbf1cb0a7	-0.6120705
140	0xbed5e1a2	-0.41773707
141	0x3f4dec37	0.8043856
142	0x3fb5c9a6	1.4202163
143	0xbf6807f8	-0.9063716
144	0xbdde6faf	-0.10861146
145	0x3f570cbb	0.840038
146	0xbd997f1e	-0.07494949
147	0xbe18b84a	-0.1491405
148	0xbe6ae8d4	-0.2294038
149	0xbf476147	-0.7788281
150	0xbf7e4858	-0.9932914
151	0x3f575a42	0.841221
152	0x3e9e9397	0.30971977
153	0x3e819c81	0.25314716
154	0x3ed2427b	0.41066346
155	0xbdb3eaf0	-0.08785045
156	0x3f5bdc47	0.8588299
157	0xbeaeb355	-0.34121194
158	0xbf6d02b7	-0.9258227
159	0x3da80b66	0.08205299
160	0x3f06b999	0.5262695
161	0xbff4b710	-1.9118366
162	0xbd58832a	-0.052859463
163	0x3ea7d12b	0.3277677
164	0xbf07dbad	-0.53069574
165	0x3eaddec3	0.33959016
166	0xbf3d412a	-0.7392756
167	0x3ef26cfb	0.4734877
168	0x3d6ec5f3	0.058294248
169	0x3f95c787	1.1701516
170	0x3f4f8b95	0.8107236
171	0xbe606581	-0.2191372
172	0xbe9cbeab	-0.30614218
173	0xbe8e2b0a	-0.2776721
174	0x3e6b0093	0.22949438
175	0xbe8c9876	-0.27460068
176	0x3ee6ccc2	0.45078093
177	0x3e90ed53	0.28306064
178	0xbf0ffde8	-0.56246805
179	0x3f357340	0.7087898
180	0xbe0e93f6	-0.1392363
181	0x3f244795	0.64171726
182	0xbfac9fc9	-1.3486263
183	0x3c864783	0.016391521
184	0xbe03468f	-0.12819885
185	0x3f806daa	1.0033467
186	0x3e74317e	0.23847005
187	0xbf50c5a0	-0.8155155
188	0xbd9dd9bb	-0.077075444
189	0x3dce0fa6	0.100615785
190	0xbfc03040	-1.5014725
191	0x3eea4f4f	0.45763633
192	0xbefc9ca3	-0.49338254
193	0xbedc8c1c	-0.43075645
194	0xbf566c7a	-0.8375927
195	0xbf8952e9	-1.0728427
196	0xbe853986	-0.2602045
197	0x3ea635bb	0.32462868
198	0x3e9d0b35	0.30672613
199	0x3e258b49	0.16166414
200	0xbf1daeeb	-0.6159503
201	0x3f9fa04f	1.2470797
202	0xbfb94293	-1.4473442
203	0x3e947659	0.28996542
204	0x3f4c043e	0.79693973
205	0x3f10fc34	0.5663483
206	0x3f02689d	0.5094088
207	0x3d15641e	0.036472432
208	0xbec12b39	-0.3772829
209	0x3f1c8734	0.61143804
210	0x3e50db33	0.20396118
211	0xbd59c7e2	-0.05316914
212	0x3db83e70	0.08996284
213	0x3fd8030b	1.6875929
214	0x3f60bc17	0.87787
215	0x3f0874d3	0.5330326
216	0xbee943d2	-0.45559555
217	0x3ebf1b60	0.37325573
218	0x3f5847d3	0.84484595
219	0x3e40bf9e	0.18823096
220	0xbebc3a4e	-0.36763233
221	0xbe582620	-0.21108294
222	0x3f4f60e9	0.8100725
223	0x3c8ce8e3	0.017200893
224	0x3e776001	0.24157716
225	0xbf92493e	-1.1428602
226	0xbf3f6ac6	-0.747723
227	0xbefa51fb	-0.4889067
228	0xbf074348	-0.5283704
229	0xbea67971	-0.32514527
230	0x3f023dec	0.50875735
231	0x3e974a63	0.2954894
232	0x3f4859a9	0.7826181
233	0x3f2c38d4	0.6727421
234	0x3ce9d52c	0.028544031
235	0xbf83a534	-1.0284791
236	0xbf1a6a89	-0.6031881
237	0x3dea4663	0.114392065
238	0x3ed6c459	0.41946676
239	0x3c6a8316	0.01431348
240	0xbf0223cc	-0.5083587
241	0x3b666429	0.0035154915
242	0xbe12173e	-0.14266679
243	0xbf04ec45	-0.5192302
244	0xbf2822bd	-0.65678006
245	0x3f4a6932	0.79066765
246	0xbf3ea125	-0.7446464
247	0xbed7a601	-0.42118838
248	0x3fa4416d	1.2832466
249	0x3f3842cf	0.7197694
250	0xbf4357de	-0.7630595
251	0xbee4313c	-0.44568813
252	0x3dabcfe9	0.08389265
253	0x3fc4a62b	1.536321
254	0xbf5b6d33	-0.857135
255	0x3f1485df	0.5801677

lstm.bias_ih_l0 f4 [64]
0	0x3f13f2a4	0.57792115
1	0xbd702303	-0.05862714
2	0x3e320240	0.17383671
3	0x3e0dbcb6	0.13841519
4	0x3dd0ea2c	0.10200915
5	0x3d3d3a7a	0.046198346
6	0x3f34c276	0.70609224
7	0x3e44bb70	0.19212127
8	0x3f175439	0.5911289
9	0xbe0643fc	-0.13111871
10	0x3e0e94bb	0.13923924
11	0x3e2c14aa	0.16804758
12	0x3dcf2386	0.101141974
13	0x3e970ffe	0.2950439
14	0x3ef46f52	0.4774118
15	0x3eb327c2	0.3499127
16	0xbeda5fdc	-0.4265126
17	0xbd5fb02a	-0.054611363
18	0xbdb35945	-0.08757261
19	0x3d2034e6	0.039112948
20	0x3d488ec3	0.048964273
21	0x3d737ef3	0.05944724
22	0xbdf833fe	-0.12119292
23	0x3e0ccd56	0.13750204
24	0xbe829d13	-0.25510463
25	0xbc9654b4	-0.018350936
26	0x3dc6839e	0.09693073
27	0x3d492b47	0.049113538
28	0x3db77c1b	0.08959218
29	0xbe767def	-0.24071477
30	0x3ed216cf	0.41033027
31	0x3d423fb9	0.047424052
32	0xbe83c6bc	-0.2573756
33	0x3e9ec177	0.31006977
34	0x3ea1fc89	0.31637982
35	0xbf11f9bf	-0.5702171
36	0x3eaecb1a	0.3413933
37	0xbe1da0bd	-0.15393348
38	0xbe28c48b	-0.16481225
39	0xbdb77791	-0.08958352
40	0xbdc1d8a4	-0.09465149
41	0xbe982c97	-0.2972152
42	0x3d672924	0.05643572
43	0x3d234044	0.03985621
44	0xbe02be0a	-0.12767807
45	0xbe88e592	-0.26737648
46	0x3da0a316	0.07843606
47	0xbe5e5d7e	-0.21715352
48	0x3d778717	0.060431566
49	0xbead6b76	-0.3387105
50	0xbd0770a3	-0.033066403
51	0x3eea4f02	0.45763403
52	0x3f026c80	0.5094681
53	0x3eaa3d5b	0.33249936
54	0x3ecb3eff	0.396965
55	0x3e32ded0	0.17467809
56	0xbeb3c89d	-0.35113993
57	0xbebf992d	-0.3742155
58	0x3cfa9457	0.030588312
59	0x3edc2a78	0.4300115
60	0x3f2eec3a	0.68329203
61	0xbe68d546	-0.22737607
62	0x3ee71e48	0.4514029
63	0xbde0ec81	-0.109826095

lstm.bias_hh_l0 f4 [64]
0	0x3f12b8f0	0.5731344
1	0xbb2f504f	-0.0026750749
2	0x3e13879d	0.14407201
3	0x3e394f9f	0.1809678
4	0x3d8e3a59	0.06944723
5	0x3be5b7e3	0.0070104464
6	0x3f327e1b	0.6972367
7	0x3e38c49d	0.18043752
8	0x3f0b9daf	0.5453748
9	0xbdd5f284	-0.10446647
10	0x3db24c8e	0.08706008
11	0x3e244798	0.16042936
12	0x3d134bc0	0.035960913
13	0x3e9a3ee3	0.30126104
14	0x3f087b50	0.5331316
15	0x3ea26d12	0.3172384
16	0xbec7cfdf	-0.3902578
17	0xbd84240e	-0.064521894
18	0xbd7daecd	-0.06193428
19	0x3c8a46e1	0.0168795
20	0x3df8abaf	0.12142121
21	0x3c966652	0.018359337
22	0xbd6e70ec	-0.05821316
23	0x3dfddfb8	0.123961866
24	0xbe7e1873	-0.24814014
25	0xbd7ecad3	-0.062205147
26	0x3da28685	0.07935814
27	0x3ca15c52	0.019697342
28	0x3e380a0a	0.1797258
29	0xbe9200a5	-0.28516117
30	0x3eb99a98	0.36250758
31	0x3d3924db	0.045201164
32	0xbe99c3c3	-0.30032167
33	0x3e9fc3e7	0.3120415
34	0x3e9c8ac8	0.30574632
35	0xbf097a51	-0.53702265
36	0x3ea601c9	0.32423237
37	0xbe40c278	-0.18824184
38	0xbe08e142	-0.13367179
39	0xbdc488ba	-0.09596391
40	0xbe4560bb	-0.19275181
41	0xbe8f9f75	-0.28051344
42	0xbc7cf08b	-0.015438209
43	0x3db73e20	0.08947396
44	0xbd6a10ce	-0.057144932
45	0xbe86efe4	-0.26354897
46	0x3dbbff7a	0.09179588
47	0xbe659fb8	-0.22424209
48	0x3d475814	0.048667982
49	0xbeca125c	-0.39467132
50	0xbd335fdb	-0.043792587
51	0x3efae0c2	0.48999602
52	0x3ee341cb	0.44386134
53	0x3eb56d8d	0.35435143
54	0x3ec469c2	0.38361937
55	0x3e715180	0.23566246
56	0xbe93c7d2	-0.28863388
57	0xbed4f71a	-0.41594774
58	0x3d01aa76	0.031656705
59	0x3ef0cc7e	0.47031015
60	0x3f2e0e29	0.67990357
61	0xbe3acbd7	-0.18241821
62	0x3ef63a15	0.48091188
63	0xbdad9cec	-0.08477196

lstm.weight_ih_l1 f4 [64, 16]
0	0xbd9484bc	-0.072518796
1	0xbe58716a	-0.21137014
2	0x3eae9cb3	0.34103927
3	0xbecd9747	-0.40154478
4	0x3ece7534	0.40323794
5	0x3e862d2e	0.26206344
6	0x3f10f110	0.5661783
7	0xbd11bae4	-0.035578623
8	0x3d2f122f	0.04274195
9	0xbf06cda7	-0.5265755
10	0x3e540c69	0.20707859
11	0xbdca41cb	-0.0987583
12	0xbe5e4aec	-0.21708268
13	0xbe8db752	-0.27678925
14	0x3db66f9b	0.08908006
15	0xbe246413	-0.160538
16	0x3d1bfbda	0.03808198
17	0x3e3a2c49	0.18180956
18	0x3e824d35	0.2544953
19	0xbf33d1d1	-0.7024203
20	0x3b854e48	0.0040681697
21	0xbdc2d76e	-0.09513746
22	0xbe533933	-0.20627289
23	0x3eca8c36	0.39560097
24	0x3ee0999e	0.438672
25	0xbeff218d	-0.49830285
26	0x3ea4d3ae	0.3219275
27	0xbcb7921f	-0.022408543
28	0x3f16cb15	0.5890363
29	0x3e6e9b54	0.2330144
30	0xbdef8f8c	-0.11697301
31	0xbe98e1c5	-0.29859748
32	0x3d9ebca9	0.07750828
33	0x3e11460b	0.14186876
34	0xbe84fa06	-0.25972003
35	0x3e106c4c	0.14103812
36	0x3f42160b	0.75814885
37	0x3ec6a1ff	0.38795468
38	0xbe667048	-0.2250377
39	0xbef5b2ec	-0.4798807
40	0x3d94e053	0.07269349
41	0x3e7916c2	0.24325088
42	0x3e9d21d5	0.30689874
43	0xbe1d88f9	-0.15384282
44	0x3e3e4d46	0.18584165
45	0x3f6e5288	0.9309468
46	0x3e15584a	0.14584461
47	0x3f069338	0.5256839
48	0x3f30062d	0.68759423
49	0xbf3b4de6	-0.7316574
50	0x3f018b11	0.50602823
51	0xbed711a7	-0.42005655
52	0x3f154d41	0.58321005
53	0xbe355706	-0.17708978
54	0x3d6f04e0	0.05835426
55	0x3dcd5566	0.10026054
56	0xbe2b266c	-0.16713876
57	0xbf2d104b	-0.67602986
58	0x3e8ae62e	0.27128738
59	0x3db817de	0.08988927
60	0xbe924f31	-0.28576043
61	0xbe0b5c7e	-0.13609502
62	0x3e053397	0.13007961
63	0x3f4fe024	0.81201386
64	0x3f3aebb9	0.73015934
65	0xbeaa05b9	-0.3320749
66	0x3eb3baec	0.35103548
67	0xbf1c86d6	-0.61143243
68	0x3dba09ae	0.090838775
69	0x3e998bbd	0.29989424
70	0xbdcf5b21	-0.10124803
71	0xbdd9a9f9	-0.10628123
72	0x3da847c9	0.08216817
73	0x3bc4c917	0.006005417
74	0x3ecf85f8	0.40531898
75	0x3f4a6aa4	0.7906897
76	0xbe7121e8	-0.2354809
77	0xbe511ac3	-0.20420365
78	0x3cf42290	0.029801637
79	0xbebe5d16	-0.37180394
80	0x3ed536cb	0.41643366
81	0xbf03eef0	-0.51536465
82	0x3e13ecce	0.14445803
83	0xbf0cdac9	-0.5502134
84	0xbf3e6c1e	-0.74383724
85	0x3e8f57f3	0.27996787
86	0xbe1b2d38	-0.15153968
87	0x3e424211	0.18970515
88	0x3ee78dcd	0.45225373
89	0x3e13d5dc	0.1443705
90	0xbf06dee2	-0.5268384
91	0xbf0c4fc7	-0.5480923
92	0x3eaa856c	0.33304918
93	0x3d420e2b	0.047376793
94	0x3ec2def8	0.38060737
95	0xbe9ca4f5	-0.30594602
96	0xbd3383e0	-0.043826938
97	0xbdfcb0a7	-0.12338381
98	0x3df8234a	0.12116106
99	0xbeae08a4	-0.33990967
100	0x3d8303d5	0.06397215
101	0xbd583810	-0.05278784
102	0x3da56e12	0.08077635
103	0x3e11e4df	0.14247464
104	0x3daae783	0.083449386
105	0xbcdbbf49	-0.02682461
106	0x3e73eb64	0.23820263
107	0x3e94dc9b	0.2907456
108	0x3ecfca72	0.4058414
109	0x3dc0a4da	0.09406443
110	0x3daba0d5	0.08380286
111	0xbd8dc5de	-0.06922506
112	0xbf3535f2	-0.7078544
113	0x3f4577e3	0.7713606
114	0x3dfc0fa0	0.12307668
115	0x3f0063da	0.5015236
116	0xbe289a85	-0.16465195
117	0x3eefaca4	0.46811402
118	0xbecc1477	-0.39859363
119	0xbef80fd6	-0.48449582
120	0x3e0745c3	0.13210206
121	0xbe4f2941	-0.20230581
122	0x3ec9e889	0.39435223
123	0xbf0649fa	-0.5245663
124	0xbceca0aa	-0.028885204
125	0x3e8a43f2	0.27004963
126	0x3d04e0cc	0.032440946
127	0x3d9847fd	0.07435606
128	0x3ebf03ce	0.3730759
129	0xbd445173	-0.04792924
130	0x3e7c2906	0.24625024
131	0xbdc8fcc3	-0.098138355
132	0x3e35afc9	0.17742838
133	0x3e82118a	0.25404006
134	0xbd231ba9	-0.0398213
135	0x3ec945f1	0.39311174
136	0xbddec182	-0.108767524
137	0xbd42b677	-0.047537293
138	0x3ee4d906	0.44696826
139	0x3db43120	0.08798432
140	0xbe929981	-0.2863274
141	0x3e9b15dd	0.30290118
142	0xbe34fe4e	-0.17675135
143	0xbe2bc07e	-0.16772649
144	0x3ea371df	0.31922814
145	0xbed68299	-0.41896513
146	0x3eb62700	0.3557663
147	0x3da00a57	0.07814472
148	0xbe7d9c4b	-0.24766652
149	0xbe2845d3	-0.16432886
150	0x3e7da700	0.24770737
151	0xbd685cdd	-0.056729186
152	0x3da12aa6	0.07869463
153	0xbe967b4d	-0.29390946
154	0xbd1772b6	-0.03697463
155	0xbef373a8	-0.47549176
156	0x3d1d0f0e	0.038344435
157	0xbec81399	-0.39077452
158	0xbd3bd60c	-0.045858428
159	0xbda4ebde	-0.080528006
160	0x3f4e3cbc	0.80561423
161	0xbed5b66a	-0.41740733
162	0x3de27033	0.110565566
163	0x3e9dc7d9	0.30816534
164	0xbe91d78a	-0.28484756
165	0x3db4fa80	0.088368416
166	0x3d18f858	0.037346214
167	0x3e934202	0.28761297
168	0xbeabd123	-0.33557996
169	0x3dcffdcf	0.10155832
170	0xbec0ca0d	-0.37654153
171	0xbdfab588	-0.122416556
172	0xbf01adfc	-0.50656104
173	0xbef5652a	-0.47928745
174	0xbea89778	-0.3292806
175	0xbf53f62f	-0.8279752
176	0x3e723522	0.23653081
177	0xbe9682c8	-0.29396653
178	0x3e984766	0.29741973
179	0xbd866a0f	-0.06563198
180	0x3f79282a	0.9732691
181	0x3d01c048	0.031677514
182	0xbd7334d1	-0.05937654
183	0x3b8566f3	0.0040711104
184	0x3eb00192	0.34376198
185	0x3e884e15	0.26622072
186	0x3f05090d	0.51966935
187	0xbe49795f	-0.19675206
188	0xbe6863ca	-0.22694317
189	0xbe390722	-0.18069127
190	0x3e04d4ac	0.12971753
191	0xbc72be73	-0.014815914
192	0xbf6e4840	-0.93078995
193	0xbf2f12cf	-0.68388075
194	0xbd8bc18e	-0.06824027
195	0x3d227c46	0.039669298
196	0x3e43e998	0.19132078
197	0xbe608915	-0.21927293
198	0xbe1b1b82	-0.15147212
199	0xbf207df2	-0.6269218
200	0x3f177003	0.5915529
201	0xbd2f303a	-0.0427706
202	0x3e85b173	0.26111946
203	0x3edcf99a	0.4315918
204	0x3daec325	0.085333146
205	0x3edf64ef	0.43631694
206	0x3ddb436e	0.107062206
207	0xbea93470	-0.3304782
208	0x3dc0206f	0.09381186
209	0xbdcf79d5	-0.101306595
210	0x3eff586c	0.49872148
211	0xbcea3c3f	-0.02859318
212	0x3e214fb0	0.15753055
213	0xbf329173	-0.6975319
214	0xbebd412e	-0.3696379
215	0xbecd0a82	-0.4004708
216	0xbd31c6ed	-0.0434026
217	0xbe70e155	-0.23523457
218	0x3ee75ad1	0.45186475
219	0x3f1b7a70	0.607337
220	0x3ea871f3	0.32899436
221	0xbf30536b	-0.68877286
222	0x3eed2f98	0.46325374
223	0xbeacc14f	-0.33741233
224	0xbf00f588	-0.5037465
225	0x3ecb123d	0.39662352
226	0x3e4499f2	0.1919935
227	0xbef561bf	-0.47926137
228	0x3f09903d	0.53735715
229	0xbeadf432	-0.3397537
230	0x3f188e6e	0.5959233
231	0x3df083a2	0.11743857
232	0x3ef7785c	0.48334014
233	0x3d895149	0.06704957
234	0x3f8d1f24	1.1025128
235	0x3f4c2d47	0.7975659
236	0xbec86611	-0.3914037
237	0x3ec7f591	0.3905454
238	0x3e632e44	0.22185618
239	0x3f2fca30	0.6866789
240	0x3d929ad0	0.071584344
241	0xbf1c0c66	-0.6095642
242	0xbf959f7c	-1.1689296
243	0xbc9d666c	-0.019213878
244	0xbe1730dd	-0.14764734
245	0x3e728358	0.23682916
246	0x3de76292	0.11298098
247	0x3db2cba2	0.08730246
248	0x3efe0532	0.4961334
249	0x3d94701b	0.07247945
250	0x3e878e8e	0.26475948
251	0x3ddd92d3	0.1081902
252	0x3f1d441d	0.6143206
253	0x3ef1d81e	0.47235197
254	0x3f8b3f2b	1.0878652
255	0xbbe76e1d	-0.007062687

lstm.weight_hh_l1 f4 [64, 16]
0	0x3eac17e5	0.3361198
1	0xbd0666bc	-0.03281282
2	0x3e2a0424	0.16603142
3	0x3d2d5459	0.04231677
4	0x3e13f4d4	0.14448863
5	0x3e842e1f	0.25816438
6	0x3e9ad9ab	0.30244192
7	0xbe89e9f0	-0.26936293
8	0xbf7943a3	-0.9736883
9	0x3f0b479d	0.5440615
10	0xbf02a557	-0.5103354
11	0xbed2577a	-0.41082364
12	0xbdc3ff2a	-0.09570153
13	0xbe7c328f	-0.24628662
14	0xbe9d5a7a	-0.3073309
15	0xbb3f7c17	-0.002921825
16	0xbf06d6c3	-0.5267145
17	0xbf1ed5cf	-0.62044996
18	0xbe0f8892	-0.14016941
19	0x3e437686	0.19088182
20	0x3ee8b3b7	0.45449612
21	0xbe2ca0d1	-0.16858222
22	0xbe307f1d	-0.1723599
23	0xbde8eb9b	-0.11373063
24	0xbd2e5611	-0.042562548
25	0xbe509c86	-0.20372209
26	0x3ea26734	0.31719363
27	0xbeb1f62b	-0.34758124
28	0xbd3daf2c	-0.046309635
29	0x3eb05a99	0.3444412
30	0xbe379347	-0.17927276
31	0x3e86a29c	0.26295936
32	0xbea425a7	-0.32059976
33	0x3cde32db	0.02712386
34	0xbd656b58	-0.056010574
35	0xbbd15a20	-0.0063889176
36	0x3edb71dd	0.42860308
37	0x3d4007c3	0.046882402
38	0xbe163c56	-0.14671454
39	0x3eb2aeca	0.34898978
40	0x3eb82799	0.3596771
41	0xbc749efb	-0.014930482
42	0xbec40cd8	-0.3829105
43	0x3cd98fed	0.026557887
44	0xbf0b2f5a	-0.5436913
45	0xbf3aab74	-0.72917867
46	0xbeb75e23	-0.35814008
47	0x3f2cc9b6	0.67495286
48	0x3f80b04d	1.0053803
49	0x3dcd6755	0.10029475
50	0xbf5dc9cd	-0.8663605
51	0x3e92be7f	0.28660962
52	0xbe6e9623	-0.2329946
53	0x3eaf427a	0.34230405
54	0xbf1211ce	-0.5705842
55	0x3bbd888e	0.005784101
56	0xbf9889f7	-1.1917104
57	0xbee11d1b	-0.43967518
58	0xbece1234	-0.40248263
59	0xbe3d05b1	-0.18459202
60	0x3e10ed70	0.14153075
61	0x3d3bf049	0.04588345
62	0xbd5069f8	-0.05088231
63	0x3dccdbff	0.100028984
64	0x3e7e04b8	0.24806488
65	0x3e74d12d	0.23907919
66	0x3d765bcf	0.06014615
67	0x3f84e58a	1.038255
68	0xbf28d180	-0.6594467
69	0xbe264989	-0.16238989
70	0x3ea0a3ac	0.31374872
71	0x3d03dec0	0.032194853
72	0x3df04171	0.11731232
73	0x3de63522	0.11240603
74	0xbe99e6b4	-0.30058825
75	0xbe5a4be1	-0.21318008
76	0x3f6445c2	0.8916894
77	0xbe9c3408	-0.30508447
78	0xbe32515d	-0.1741385
79	0x3e8b42ed	0.27199498
80	0xbe3544fb	-0.17702095
81	0xbed4746b	-0.4149507
82	0x3db63236	0.08896296
83	0x3ef92898	0.48663783
84	0x3f8e2ff1	1.110838
85	0x3e9e24eb	0.3088754
86	0xbf4e9b01	-0.8070527
87	0x3d8eb710	0.0696851
88	0x3e6d767b	0.23189728
89	0x3e604de0	0.21904707
90	0xbded2c28	-0.11580688
91	0x3ddf8af1	0.10915173
92	0x3f3c384e	0.73523414
93	0x3eb46259	0.35231283
94	0x3eeb26de	0.4592809
95	0x3d54857f	0.051885124
96	0xbe678237	-0.22608267
97	0x3e43c18e	0.19116804
98	0x3e3162b2	0.17322806
99	0xbf05c4a5	-0.5225318
100	0x3e855907	0.26044485
101	0xbed16453	-0.40896854
102	0xbc952bd4	-0.018209375
103	0xbdb52f20	-0.08846879
104	0xbeb62144	-0.35572255
105	0x3ed986de	0.42485708
106	0xbec96de1	-0.39341643
107	0x3c61187a	0.013738746
108	0x3e2fe2ab	0.1717631
109	0x3d0444a9	0.032292042
110	0x3e7a8a44	0.24466807
111	0x3e9d5f19	0.30736616
112	0xbf055500	-0.52082825
113	0xbde280f4	-0.11059752
114	0x3e9e4499	0.3091171
115	0xbdae4a69	-0.08510286
116	0x3e6ac5b0	0.22926974
117	0xbe42b446	-0.19014081
118	0xbec0aec0	-0.37633324
119	0xbeecbcee	-0.46237892
120	0x3f08841e	0.53326595
121	0xbee71d3b	-0.4513949
122	0xbe8124a5	-0.2522327
123	0xbf6e39a1	-0.93056685
124	0xbba336f3	-0.0049809157
125	0x3ae6ac41	0.0017598943
126	0xbeb1f55f	-0.34757516
127	0x3e41192f	0.18857263
128	0xbd706b32	-0.05869598
129	0xbe24321d	-0.16034742
130	0xbf27996c	-0.6546848
131	0x3eebb25b	0.46034512
132	0x3da2b9e5	0.07945613
133	0x3dfe55d5	0.12418715
134	0x3f0bf0fb	0.5466458
135	0x3d76e7d1	0.06027967
136	0xbe9c82fc	-0.30568683
137	0x3e7b8f31	0.24566342
138	0xbc036bef	-0.008021339
139	0x3e18b094	0.14911109
140	0xbdbf49e6	-0.09340267
141	0x3f2529c5	0.6451686
142	0xbf2153e2	-0.6301862
143	0x3dfce712	0.12348761
144	0xbdbaebef	-0.09127032
145	0xbd31be71	-0.04339451
146	0x3e802291	0.25026372
147	0xbeac30f6	-0.33631104
148	0x3d00fe25	0.03149237
149	0xbe1ade26	-0.15123805
150	0xbdbc25f3	-0.09186926
151	0x3e966d80	0.29380417
152	0x3dd4a25a	0.103825286
153	0xbe27180a	-0.16317764
154	0x3d84fd40	0.06493616
155	0x3d9fe25d	0.07806847
156	0xbe4bb80f	-0.19894432
157	0xbdbe8dfa	-0.09304424
158	0xbec485eb	-0.3838342
159	0x3ecf1a2d	0.40449658
160	0xbce455a2	-0.027872864
161	0x3d8fe9e4	0.07027033
162	0x3ea3437d	0.31887427
163	0xbed13a46	-0.40864772
164	0xbeb32c81	-0.3499489
165	0xbe18cee7	-0.14922677
166	0xbedac0a0	-0.42725086
167	0x3e461b29	0.19346298
168	0xbe0131dd	-0.12616678
169	0xbe53d06f	-0.2068498
170	0xbed669e0	-0.4187765
171	0x3d997542	0.07493068
172	0xbe92ba48	-0.28657746
173	0xbe95fbd1	-0.29293683
174	0xbe1b85f4	-0.15187818
175	0x3e9bc63d	0.3042468
176	0xbd938210	-0.07202542
177	0x3f48306f	0.78198904
178	0x3c5ed032	0.013599442
179	0xbe8b2e55	-0.27183786
180	0x3d1eabe5	0.03873815
181	0xbc482f61	-0.012218327
182	0xbdca0cfa	-0.09865756
183	0xbe83580c	-0.25653112
184	0xbe99bf11	-0.30028585
185	0xbeb77a55	-0.3583552
186	0x3dd5c2b4	0.10437527
187	0xbf11cd91	-0.56954294
188	0xbebc0723	-0.36724195
189	0x3c2954f4	0.010335196
190	0x3aa97a7c	0.001293018
191	0xbdf65310	-0.12027562
192	0xbf26e4e7	-0.6519303
193	0xbe9af7e4	-0.3026725
194	0x3dc2e3e1	0.09516121
195	0xbe1b6955	-0.151769
196	0xbe3748fd	-0.17898937
197	0xbe967e6f	-0.29393336
198	0x3eec0424	0.4609691
199	0xbe0adeb7	-0.13561521
200	0xbe5712d8	-0.21003282
201	0x3e7608cd	0.24026795
202	0xbd4b9ad1	-0.04970819
203	0x3ee7d87e	0.45282358
204	0x3f2a39bb	0.6649434
205	0xbec9a551	-0.3938394
206	0xbd0458ee	-0.032311372
207	0x3f18a58d	0.5962761
208	0x3f2c223e	0.6723975
209	0xbe48a852	-0.19595459
210	0x3eb99338	0.36245131
211	0xbe423ef6	-0.1896933
212	0x3d96c0be	0.073609814
213	0x3eb2d4e5	0.3492805
214	0x3f6891a6	0.9084724
215	0x3ea7e377	0.3279073
216	0x3e944a67	0.28963014
217	0x3e4d186f	0.20028852
218	0xbecc167b	-0.398609
219	0xbf213ba7	-0.6298165
220	0x3fa7e550	1.3116856
221	0x3e620202	0.22071078
222	0x3de72a26	0.11287336
223	0xbdb0f222	-0.08639933
224	0x3f3ed545	0.74544173
225	0x3e809b58	0.25118518
226	0x3dba270c	0.09089479
227	0xbdfe27bf	-0.12409925
228	0x3e437639	0.19088067
229	0xbdba30b4	-0.09091321
230	0xbece621b	-0.40309224
231	0x3cf96b07	0.030446542
232	0x3ee70067	0.45117494
233	0xbedde926	-0.4334194
234	0xbeaa61d6	-0.33277768
235	0xbe28b7fe	-0.16476437
236	0x3d8c9239	0.06863827
237	0xbe82ba09	-0.2553256
238	0x3ebd0f67	0.36925814
239	0x3e0b34ac	0.13594311
240	0x3f32d1e8	0.6985154
241	0x3dada18f	0.084780805
242	0xbeab4c2f	-0.3345656
243	0x3d9e9e6d	0.07745061
244	0x3df280f3	0.11841001
245	0x3dba212a	0.09088357
246	0x3ecfe3d2	0.406035
247	0xbe943ca8	-0.28952527
248	0x3f1b4401	0.6065064
249	0xbe36bd39	-0.1784562
250	0xbd842b21	-0.06453539
251	0xbdb48928	-0.08815223
252	0xbeb543ca	-0.3540328
253	0xbe8019c7	-0.25019667
254	0xbe95a66e	-0.29228538
255	0x3c01def1	0.0079266885

lstm.bias_ih_l1 f4 [64]
0	0xbcf62449	-0.030046599
1	0x3de23f5a	0.110472396
2	0x3e4304a3	0.19044738
3	0x3ca2c053	0.019867098
4	0x3db60bc4	0.08888963
5	0x3ea48512	0.32132775
6	0x3e2efb30	0.17088008
7	0xbc64cfb7	-0.013965539
8	0x3cb51c50	0.022108227
9	0xbe4755f8	-0.19466388
10	0x3d8d19c3	0.06889679
11	0xbe13c782	-0.14431575
12	0x3e7ff4c2	0.24995711
13	0xbd82c35b	-0.06384917
14	0x3e0d77f8	0.13815296
15	0x3eebb893	0.46039256
16	0x3ec10504	0.3769914
17	0x3e53a9c6	0.20670232
18	0x3f02a12d	0.51027185
19	0x3e5829de	0.21109721
20	0x3e90a2c2	0.28249174
21	0x3e88e7b4	0.26739275
22	0x3ea18022	0.3154307
23	0x3e8a95dd	0.27067462
24	0x3e8c9c13	0.27462825
25	0x3ea8df17	0.32982704
26	0x3ebdfeb8	0.37108397
27	0x3e39d7ba	0.181487
28	0x3e4cbd54	0.19994098
29	0x3e1a7592	0.15083912
30	0x3eae4393	0.3403593
31	0x3ec027b0	0.3753028
32	0x3dcac792	0.09901346
33	0xbe805935	-0.2506806
34	0xbea7b444	-0.3275472
35	0xbdb4b89b	-0.08824273
36	0x3d857ff8	0.06518549
37	0x3e279b71	0.1636789
38	0x3de917b6	0.113814756
39	0xbe0f30bd	-0.13983436
40	0xbb2c8c33	-0.0026328682
41	0xbcba1288	-0.022713915
42	0xbe3e0416	-0.18556246
43	0xbd21eb99	-0.039531324
44	0xbe00488a	-0.12527671
45	0x3d0c7062	0.034286864
46	0x3bbd4aa6	0.005776721
47	0x3d92626d	0.071476795
48	0x3edd1e9a	0.4318741
49	0x3ea48bcb	0.32137904
50	0x3e188c6d	0.14897318
51	0x3e847c2f	0.25875995
52	0x3e2ec6ef	0.17068075
53	0x3f065e58	0.5248771
54	0x3eebdac4	0.46065342
55	0x3e8f6e49	0.28013828
56	0x3ed601ad	0.41798154
57	0xbdc2f727	-0.09519797
58	0x3ee8197b	0.4533194
59	0x3e0e1d1e	0.13878295
60	0x3eac0e32	0.3360458
61	0x3ed49008	0.41516137
62	0x3e9f2007	0.31079122
63	0x3efe3b3e	0.49654573

lstm.bias_hh_l1 f4 [64]
0	0xbb802378	-0.003910478
1	0x3cef16e8	0.029185727
2	0x3e5c011b	0.21484797
3	0xbd7273a0	-0.0591923
4	0x3d9b23a3	0.075751565
5	0x3eb48a58	0.35261798
6	0x3e0ce85d	0.13760515
7	0x3c591f82	0.013252141
8	0x3d7b8696	0.061407648
9	0xbe68c122	-0.22729924
10	0x3d762b28	0.06009975
11	0xbe3a6196	-0.18201289
12	0x3e82148f	0.2540631
13	0xbd863175	-0.06552402
14	0x3e5a1c77	0.21299921
15	0x3ef5e6f1	0.48027757
16	0x3ebb33e7	0.36563036
17	0x3e923f11	0.2856374
18	0x3f0d500a	0.55200255
19	0x3e30ceb0	0.17266345
20	0x3e8c0d72	0.27354008
21	0x3e8c20e3	0.2736884
22	0x3e9c0464	0.304721
23	0x3e91c167	0.28467867
24	0x3eb748e1	0.3579779
25	0x3ea6838f	0.32522246
26	0x3ee1a0ba	0.44067937
27	0x3e55e75b	0.20889036
28	0x3e913d4b	0.28367075
29	0x3e272590	0.16322923
30	0x3eba278b	0.36358294
31	0x3ea06d46	0.3133337
32	0x3df0dae7	0.11760502
33	0xbe51f1bd	-0.20502372
34	0xbebcfd83	-0.36912164
35	0xbd07bf51	-0.033141438
36	0x3c9043b8	0.017610416
37	0x3e522997	0.20523678
38	0x3dc99e97	0.09844702
39	0xbdd0631b	-0.10175153
40	0x3cf879d5	0.030331532
41	0xbc7329c0	-0.014841497
42	0xbe23ad88	-0.15984166
43	0xbd4f21d9	-0.05056939
44	0xbdcc1a90	-0.09966004
45	0x3c5a8aa9	0.013338723
46	0x3bbdc32e	0.0057910895
47	0x3cf266b4	0.029589988
48	0x3ee33383	0.44375238
49	0x3eb8b278	0.3607366
50	0x3e610d1c	0.21977657
51	0x3e89887e	0.26861948
52	0x3e6adb0a	0.2293512
53	0x3ee2045a	0.44143945
54	0x3ee05ea8	0.43822217
55	0x3ea02d29	0.31284454
56	0x3ef127d2	0.47100693
57	0xbd9377f7	-0.07200616
58	0x3f026fd4	0.50951886
59	0x3e22b76f	0.15890287
60	0x3eabeb13	0.33577785
61	0x3eef798f	0.4677243
62	0x3ea801e7	0.3281395
63	0x3ed77c2d	0.42086926
