models/other/model80648.pth (torch, 399979 bytes, 16 tensors)

conv2d_1.weight f4 [8, 1, 2, 2]
0	0xbed06af8	-0.4070661
1	0xbeb824b7	-0.3596551
2	0x3e6aff55	0.22948964
3	0x3e7e78b2	0.24850729
4	0x3d671a91	0.05642182
5	0x3c4f00e3	0.012634489
6	0x3ebd4ae8	0.3697121
7	0x3ee9b239	0.45643786
8	0xbdea099d	-0.11427615
9	0x3bd5e1e9	0.0065271747
10	0xbe8158f0	-0.25263166
11	0xbef5467d	-0.4790534
12	0x3ec02f70	0.37536192
13	0x3ea0d13c	0.31409633
14	0xbec36d23	-0.38169202
15	0xbeabea18	-0.33577037
16	0x3e67c930	0.2263534
17	0x3deb09a5	0.11476449
18	0xbecdecf1	-0.40219834
19	0xbe973885	-0.29535308
20	0x3e4597f8	0.19296253
21	0xbd697416	-0.056995474
22	0xbed4870f	-0.41509292
23	0xbe0cb6c0	-0.13741589
24	0x3a58339a	0.00082474353
25	0x3f116b5d	0.5680445
26	0x3d025221	0.031816605
27	0x3e0ebb29	0.13938583
28	0x3eab07a7	0.33404276
29	0xbe36b20d	-0.17841358
30	0xbefbc70c	-0.49175298
31	0x3e2258b8	0.15854156

conv2d_1.bias f4 [8]
0	0xbe510a3b	-0.20414059
1	0xbebf7bea	-0.37399226
2	0xbe15ab51	-0.14616133
3	0x3c19ad82	0.009379746
4	0xbe045976	-0.12924752
5	0xbda76b33	-0.081747435
6	0xbe856c3a	-0.26059133
7	0xbdf33f34	-0.118772894

conv2d_2.weight f4 [16, 8, 3, 3]
0	0x3914c8eb	0.00014189228
1	0xbdf64ad7	-0.12025993
2	0x3ccea998	0.025227353
3	0xbe5c4765	-0.2151161
4	0xbd9e2a68	-0.07722932
5	0xbe104f64	-0.14092785
6	0x3f48a640	0.7837868
7	0x3e8ab807	0.27093527
8	0xbcd7267c	-0.026263468
9	0xbf0081bd	-0.50197965
10	0xbd8d1a5f	-0.068897955
11	0x3e3cba3e	0.18430421
12	0xbf0f6e5f	-0.5602779
13	0xbe200dfd	-0.15630336
14	0x3ead7350	0.3387704
15	0xbeacb0ba	-0.33728582
16	0xbdad9707	-0.08476072
17	0x3e325ddb	0.17418616
18	0xbcd03cd8	-0.025419638
19	0x3c1edb39	0.009695821
20	0x3dc90ec9	0.09817273
21	0xbd120d44	-0.035657182
22	0xbd31de2a	-0.043424763
23	0xbd1a2883	-0.03763629
24	0x3c6704dc	0.01410028
25	0xbd0b93a0	-0.034076333
26	0xbda40d0b	-0.080103
27	0x3e85163e	0.25993532
28	0x3ef2029d	0.4726762
29	0xbcebccb1	-0.028784128
30	0x3d11a291	0.035555426
31	0xbefb0e8d	-0.4903454
32	0x3de1004e	0.10986386
33	0xbf1c845f	-0.6113948
34	0xbd95bbb8	-0.07311195
35	0x3d91b36e	0.071143016
36	0x3e9e3f52	0.30907685
37	0x3d22bf2c	0.039733097
38	0xbcee38b2	-0.029079769
39	0x3e83dd2b	0.25754675
40	0x3da1c0df	0.07898115
41	0x3d84f411	0.064918645
42	0x3d752fad	0.05985992
43	0x3bdd086e	0.0067453897
44	0xbdb67cc7	-0.08910518
45	0x3e62b5a0	0.22139597
46	0x3e048abc	0.12943548
47	0x3aaf926a	0.0013395075
48	0x3e7eecc2	0.24895003
49	0x3dcd4328	0.10022575
50	0x3e083ee3	0.1330524
51	0x3e0b1101	0.13580705
52	0x3c35661f	0.011071711
53	0xbd89edb5	-0.06734792
54	0x3c9164a6	0.017748188
55	0xbca4e727	-0.020129753
56	0xbe2acfdb	-0.16680853
57	0xbca3684f	-0.0199472
58	0xbd7a0c15	-0.06104668
59	0x3d694d3a	0.056958415
60	0xbb890357	-0.0041813063
61	0x3d9beead	0.07613883
62	0x3e0ab0af	0.13543962
63	0x3ea57457	0.32315323
64	0x3e550533	0.20802765
65	0xbe353167	-0.17694627
66	0x3e9637e7	0.29339525
67	0x3d97f77a	0.07420249
68	0x3e7ce4e4	0.2469669
69	0x3ed10f4c	0.40831983
70	0x3db9adc4	0.09066346
71	0x3db66895	0.08906666
72	0xbc2f2827	-0.010690725
73	0x3adabad4	0.0016687759
74	0xbda885f4	-0.082286745
75	0xbd006fdb	-0.031356674
76	0xbcc33374	-0.023828246
77	0x3c88b147	0.016686095
78	0x3e76b73f	0.2409334
79	0x3d522de3	0.051313292
80	0xbd6c5a7a	-0.057703473
81	0xbf251e69	-0.6449953
82	0xbe7e4490	-0.24830842
83	0x3d950540	0.07276392
84	0xbf91ac98	-1.1380796
85	0xbe56cf68	-0.20977557
86	0x3da4c8e2	0.08046128
87	0xbee9024b	-0.45509562
88	0xbe6234a5	-0.22090395
89	0x3d996e5e	0.07491754
90	0x3d70dfb7	0.0588071
91	0x3bcbdf41	0.0062216823
92	0xbc2d22ba	-0.0105673615
93	0x3d1e174f	0.038596448
94	0x3cb436a5	0.021998713
95	0xbc38086b	-0.011232476
96	0x3c660f85	0.014041786
97	0xbba8f6c7	-0.0051563713
98	0xbb2e08da	-0.002655557
99	0xbb8af937	-0.0042411345
100	0x3ca42bd4	0.02004043
101	0x3cbb11cb	0.022835633
102	0x3d435500	0.047688484
103	0xbda4e0ad	-0.08050666
104	0xbd393533	-0.04521675
105	0x3decd326	0.11563711
106	0xbd96330e	-0.07333957
107	0xbc52ecb9	-0.012873822
108	0x3e91839f	0.2842073
109	0x3d561658	0.052267402
110	0xbc9c2de3	-0.01906485
111	0x3e5e56a8	0.21712744
112	0xbce20ccf	-0.027593998
113	0x3b7fd144	0.0039034644
114	0x3e2076f4	0.15670377
115	0xbdcf8b88	-0.10134035
116	0xbd40f423	-0.047107827
117	0x3e20879b	0.1567673
118	0x3d87b32d	0.06625972
119	0xbcbbeda4	-0.022940464
120	0x3e367e17	0.17821537
121	0xbc475154	-0.012165386
122	0xbba0f19f	-0.004911616
123	0x3de57e2b	0.11205705
124	0xbd21a448	-0.03946331
125	0xbd1f469b	-0.038885694
126	0xc027c6a6	-2.6214995
127	0x3de5aa97	0.11214178
128	0x3d9865ab	0.074412666
129	0xc0af62c0	-5.4808044
130	0x3dc2eee4	0.09518221
131	0x3d91050b	0.0708104
132	0xc0b0cb33	-5.5248046
133	0x3da23541	0.079203136
134	0x3d8360d4	0.06414953
135	0x3d99f4ce	0.07517396
136	0x3e46ad05	0.19401939
137	0x3c84896f	0.016178815
138	0x3d49e84b	0.049293797
139	0x3c68311f	0.014171868
140	0x3bea60d6	0.007152657
141	0x3e458dd7	0.19292389
142	0xbcf85bbc	-0.03031718
143	0xbdb5aa3a	-0.08870359
144	0x3e87184f	0.26385733
145	0x3ddaa3ae	0.10675751
146	0x3e02a630	0.12758708
147	0x3e48b912	0.19601849
148	0x3da74d90	0.08169091
149	0xbfac0f15	-1.3442103
150	0x3ec31260	0.38099957
151	0xbf57c753	-0.8428852
152	0xbe64350c	-0.22285861
153	0x3e9366e4	0.28789437
154	0xbe818aef	-0.2530131
155	0xc0221037	-2.5322397
156	0x3e8e643c	0.27810848
157	0xbe7a21f8	-0.2442702
158	0xc05e7794	-3.4760485
159	0x3e95de0d	0.29270974
160	0xbec33e40	-0.3813343
161	0xbfcf57f3	-1.6198715
162	0x3d8a3acc	0.06749496
163	0x3cb58c48	0.022161618
164	0xbe2121b1	-0.15735509
165	0xbde96b96	-0.113974735
166	0xbf3bdf8a	-0.7338797
167	0xbff089b1	-1.879202
168	0xbe15e0a4	-0.14636475
169	0xc0177b83	-2.3669136
170	0xbea3d1c7	-0.31995985
171	0xbd87585b	-0.06608649
172	0x3e9592c8	0.29213548
173	0x3f62567e	0.88413227
174	0xbd2f4dac	-0.042798683
175	0xbb5b573f	-0.003346875
176	0xbe113416	-0.14180025
177	0x3d327875	0.043571908
178	0x3d0e1e94	0.03469713
179	0xbd1c7ac4	-0.038203016
180	0x3bd6f658	0.006560128
181	0xbda6704d	-0.081268884
182	0xbf95ff13	-1.1718467
183	0xbdf853a8	-0.12125331
184	0xbee827bf	-0.45342824
185	0xc05dcfac	-3.4658003
186	0xbe680452	-0.22657898
187	0xbe03d376	-0.12873635
188	0xc003a576	-2.056974
189	0x3d8e93bf	0.06961774
190	0xbc065fad	-0.008201522
191	0xbf7bf3c1	-0.98418814
192	0xbd727764	-0.05919589
193	0xbfa9e86f	-1.3274058
194	0xbf926c8c	-1.1439376
195	0xbe48b9dd	-0.19602151
196	0xbf514c8d	-0.8175743
197	0xbf68ec6b	-0.90985745
198	0x3d5e58e1	0.05428398
199	0xbeca8df6	-0.39561433
200	0xbd47f533	-0.048817825
201	0xbcdc9940	-0.026928544
202	0xbf10e4a0	-0.56598854
203	0xbe009dc5	-0.12560184
204	0x3cd740f9	0.026276099
205	0xbf19b0f0	-0.6003561
206	0xbe0120bf	-0.12610148
207	0x3dbb92a1	0.091588266
208	0xb848c30c	-4.7865367e-05
209	0xba835f37	-0.0010022883
210	0x3d7b57aa	0.0613629
211	0xbf0a8646	-0.54111135
212	0xbf3496c7	-0.7054257
213	0xbe4baa61	-0.19889213
214	0xbe178f24	-0.14800698
215	0xbf3bda13	-0.7337963
216	0xbe5470d3	-0.20746164
217	0x3d7d0bcc	0.06177883
218	0xbcd38b9f	-0.025823412
219	0xbee301fa	-0.44337445
220	0x3e145d64	0.1448875
221	0x3e0093a8	0.12556326
222	0x3ea09009	0.3135989
223	0x3e70c423	0.2351232
224	0xbe202d54	-0.15642291
225	0x3e661ba6	0.22471485
226	0x3c2f1eb3	0.010688472
227	0x3ea6cef1	0.3257976
228	0xbdb740fe	-0.08947943
229	0x3d854315	0.065069355
230	0x3e21c97b	0.15799515
231	0xbd972fe7	-0.073821835
232	0xbd216cc2	-0.03941036
233	0x3e021494	0.12703162
234	0x3d2883ee	0.041141443
235	0x3c1489b4	0.009066034
236	0x3c35cd30	0.011096284
237	0xbd564fe5	-0.052322287
238	0xbc905984	-0.01762081
239	0xbc6dbd8e	-0.014510525
240	0xbca73b05	-0.020413885
241	0xbbe73c3a	-0.00705674
242	0xbd2b0946	-0.04175689
243	0x3efb26f3	0.49053153
244	0x3dfd7890	0.12376511
245	0xbc82ce9b	-0.015967658
246	0x3d8e9bf2	0.06963338
247	0xbd33a67a	-0.043859936
248	0x3d30008e	0.04296928
249	0xbe19e396	-0.15028223
250	0xbce81bb2	-0.028333519
251	0x3e01623b	0.12635128
252	0x3e6d2419	0.23158301
253	0x3e0948b8	0.13406646
254	0xba2c6333	-0.0006576061
255	0x3e61550b	0.22005098

conv2d_2.bias f4 [16]
0	0xbba1889c	-0.004929615
1	0x3d6ba191	0.05752713
2	0x3df3fb62	0.11913182
3	0xbcbef9b8	-0.023312435
4	0xbd5a4494	-0.053288057
5	0xb901305c	-0.00012320414
6	0xbba318a5	-0.004977303
7	0x3ded0493	0.11573138
8	0x3e07a0dd	0.13244958
9	0x3cf1f158	0.029534027
10	0x3d9dba95	0.07701603
11	0x3a9fc0ba	0.0012188174
12	0x3d0e0453	0.034672093
13	0xbdb3a3f5	-0.08771507
14	0xbd1df569	-0.03856412
15	0xbb94708a	-0.0045300173

conv2d_3.weight f4 [32, 16, 4, 4]
0	0xbe140a3e	-0.14457032
1	0xbe053da6	-0.13011798
2	0xbe218f81	-0.15777399
3	0x3d3198f6	0.043358766
4	0xbdbca894	-0.09211841
5	0xbe164c36	-0.1467751
6	0xbd86b497	-0.065774135
7	0x3d43ec36	0.04783269
8	0xbdfaa902	-0.12239267
9	0xbe7df92d	-0.24802084
10	0xbe35cdb3	-0.1775425
11	0xbd8d23e0	-0.06891608
12	0xbe5157cd	-0.2044365
13	0xbe8ab11d	-0.27088252
14	0xbe289449	-0.16462816
15	0xbe343e19	-0.17601813
16	0xbe19042c	-0.14942998
17	0xbd81e427	-0.06342345
18	0xbe29e7c6	-0.16592321
19	0xbc912f82	-0.017722849
20	0xbdfa3f07	-0.12219053
21	0xbdb26e8d	-0.08712492
22	0xbe02e885	-0.12784012
23	0xbe0cda4b	-0.13755147
24	0xbe2ed18c	-0.17072123
25	0xbe04f010	-0.12982202
26	0xbe122765	-0.1427284
27	0xbdd449cf	-0.1036564
28	0xbe1f2dab	-0.15544765
29	0xbd9c4640	-0.076305866
30	0xbd67b883	-0.05657245
31	0xbddae8b1	-0.106889136
32	0xbd25265f	-0.040319797
33	0xbd293bcf	-0.041316804
34	0xbd84d317	-0.06485575
35	0xbe529da3	-0.20567946
36	0xbdab267d	-0.083569504
37	0x3bd16695	0.0063904026
38	0xbd6e5d3f	-0.058194395
39	0xbe2a42aa	-0.16626993
40	0xbdc8e7bf	-0.09809827
41	0xbd670273	-0.05639882
42	0xbc4d10fc	-0.012516256
43	0xbe228a55	-0.15873082
44	0xbd4bd0a1	-0.04975951
45	0x3e00ce53	0.12578706
46	0xbd79d70a	-0.060996093
47	0xbe5d4448	-0.21608078
48	0xbd9da405	-0.076973
49	0xbe2eaa63	-0.17057185
50	0xbe3ca5c8	-0.18422616
51	0xbae919fd	-0.0017784234
52	0xbddbb77d	-0.10728357
53	0xbe40661a	-0.18788949
54	0xbe76bc08	-0.24095166
55	0xbe2d3c02	-0.16917422
56	0xbdfb1172	-0.12259187
57	0xbe4f3f80	-0.20239067
58	0xbe60f4a8	-0.21968329
59	0xbe7b7545	-0.24556454
60	0xbe1056fb	-0.1409568
61	0xbe74e229	-0.23914398
62	0xbe460e24	-0.19341332
63	0xbdb849f9	-0.08998484
64	0xbe180ef3	-0.14849453
65	0xbdb1f9a4	-0.08690193
66	0xbdb17668	-0.08665162
67	0xbddc6866	-0.107621
68	0xbdc7882f	-0.09742772
69	0xbe21a30e	-0.15784857
70	0xbd59a0b7	-0.053131785
71	0xbe078bfa	-0.1323699
72	0xbe3c17e8	-0.18368495
73	0xbe57512c	-0.21027058
74	0xbe91ba08	-0.28462243
75	0xbddfbb82	-0.10924436
76	0xbdef4389	-0.11682803
77	0xbdf3fdac	-0.119136184
78	0xbe736ec7	-0.23772727
79	0xbe3a372d	-0.1818511
80	0xbd568e9d	-0.0523821
81	0xbe6161fe	-0.22010037
82	0xbe0104c8	-0.1259948
83	0xbc9467ab	-0.018115839
84	0xbccc387a	-0.024929274
85	0xbe5721d7	-0.21009003
86	0xbe0da406	-0.13832101
87	0x3bb7c717	0.00560845
88	0xbe25a4a3	-0.16176085
89	0xbe4ce5a3	-0.20009474
90	0xbb9bd802	-0.0047559747
91	0xbe078f52	-0.13238266
92	0xbde6ba23	-0.112659715
93	0xbe24490b	-0.16043489
94	0xbd91737b	-0.07102104
95	0xbdcf0259	-0.1010787
96	0xbd268b06	-0.040659927
97	0xbe6d678e	-0.23184034
98	0xbd86c490	-0.0658046
99	0xbd43bd93	-0.047788214
100	0xbe10c6d0	-0.14138341
101	0xbe33591b	-0.1751446
102	0xbe1710d0	-0.14752507
103	0xbda70a50	-0.08156264
104	0xbe09b688	-0.13448536
105	0xbe424142	-0.18970206
106	0xbddfad1f	-0.10921692
107	0xbe20887e	-0.15677068
108	0xbd8b4370	-0.06799972
109	0xbe235b80	-0.15952873
110	0xbd9adb2f	-0.07561337
111	0xbdfd1f7c	-0.12359521
112	0xbe0cfc4f	-0.13768123
113	0x3e232dd6	0.15935454
114	0xbdd45dd1	-0.103694566
115	0xbdffcf9a	-0.12490769
116	0xbe0438c8	-0.12912285
117	0x3d5bd40b	0.053669017
118	0xbe043585	-0.12911041
119	0xbde631a8	-0.1123994
120	0xbdb8ae6d	-0.09017644
121	0x3e2429cc	0.16031569
122	0xbd1b3f15	-0.037901957
123	0xbdcdba15	-0.10045258
124	0xbbce3b9d	-0.0062937276
125	0x3e785102	0.24249652
126	0xbd3040e1	-0.043030623
127	0xbe0332df	-0.12812375
128	0xbdeb41ad	-0.11487136
129	0xbbcc4340	-0.0062336028
130	0xbdd3d329	-0.1034301
131	0xbd9899a4	-0.074511796
132	0xbded9795	-0.116011776
133	0xbc64c723	-0.0139634935
134	0xbd11ae57	-0.035566654
135	0xbda694f3	-0.081338786
136	0xbe1a172b	-0.150479
137	0x3d53f0e8	0.051743418
138	0xbd6ae162	-0.057343848
139	0xbda72f65	-0.08163337
140	0xbdb9efdc	-0.09078953
141	0x3e128b7d	0.14311023
142	0xbda56f9d	-0.08077929
143	0xbdbaf929	-0.09129555
144	0xbe36b612	-0.17842892
145	0xbc52c4d2	-0.012864308
146	0xbd27bf34	-0.04095383
147	0xbe9bd283	-0.30434045
148	0xbdcde010	-0.10052502
149	0xbd4da0a4	-0.050202027
150	0xbd0b5037	-0.034012046
151	0xbdd0cdbd	-0.101954915
152	0xbd15efe6	-0.036605738
153	0xbd97d4c2	-0.07413627
154	0x3c137f0d	0.009002459
155	0xbd88f3b3	-0.06687107
156	0x3d14c7bd	0.036323298
157	0xbd1a4f56	-0.037673317
158	0xbcccb9a5	-0.024990866
159	0xbe63edef	-0.22258733
160	0xbe4c5d5b	-0.19957487
161	0x3dc837cc	0.097762674
162	0xbdf4f136	-0.1196007
163	0xbdb9ab8c	-0.09065923
164	0xbe4474ac	-0.19185132
165	0x3d8304b9	0.06397385
166	0xbc663bd6	-0.014052352
167	0xbe001777	-0.12508951
168	0xbdb2aced	-0.08724389
169	0x3e032c4c	0.12809867
170	0xbe27e3f8	-0.16395557
171	0xbe840c32	-0.25790554
172	0xbd56f414	-0.052478865
173	0x3e09dfce	0.13464281
174	0xbda3dfb8	-0.08001655
175	0xbdc5ab7b	-0.09651848
176	0xbd914e03	-0.07094958
177	0xbdad302f	-0.08456456
178	0xbdf8d333	-0.12149658
179	0x3d2a103a	0.04151938
180	0xbe148348	-0.14503205
181	0xbdee285d	-0.116287924
182	0xbdf71ecf	-0.12066423
183	0xbd172664	-0.036901847
184	0xbddedf5c	-0.10882446
185	0xbe7e9d5a	-0.24864712
186	0xbe128ccf	-0.14311527
187	0xbe07f57b	-0.13277237
188	0xbe4c5971	-0.19955994
189	0xbe700e7c	-0.23443025
190	0xbdf18b63	-0.11794164
191	0xbd922b85	-0.07137207
192	0xbdf2925b	-0.11844321
193	0xbe3c8aad	-0.18412276
194	0xbe37b909	-0.17941679
195	0x3dd43b7a	0.10362907
196	0xbe0648cb	-0.13113706
197	0xbe35dccf	-0.17760013
198	0xbe143c5c	-0.1447615
199	0xbd6b8ece	-0.057509236
200	0xbe2446cf	-0.16042636
201	0xbe616896	-0.22012553
202	0xbe55894a	-0.20853153
203	0xbe262d19	-0.16228141
204	0xbe2a04c9	-0.16603388
205	0xbe4ec6b3	-0.20192985
206	0xbdb0af56	-0.08627193
207	0xbe595049	-0.21222033
208	0xbe3a5534	-0.18196565
209	0x3d88ea06	0.066852614
210	0xbd4ac961	-0.049508456
211	0x39d23d97	0.0004010021
212	0xbe2ad650	-0.16683316
213	0xbcd435f3	-0.025904631
214	0xbd3cb3ca	-0.046069898
215	0xbbe4fdb1	-0.00698825
216	0xbe1087de	-0.14114329
217	0xbd999c77	-0.075005464
218	0xbd64f706	-0.055899642
219	0xbd27c97d	-0.04096364
220	0xbe3add9c	-0.182486
221	0xbdc3036e	-0.095221385
222	0xbd896fec	-0.067108005
223	0x3c42f29b	0.011898662
224	0x3db19336	0.086706564
225	0xbd0255fc	-0.031820282
226	0xbdf59364	-0.11991003
227	0xbdce3e41	-0.10070468
228	0xbe0bb109	-0.13641752
229	0xbdeae107	-0.11468702
230	0xbe083e6b	-0.1330506
231	0xbca3c5cd	-0.01999178
232	0xbe043e31	-0.12914349
233	0xbdee9a82	-0.11650564
234	0xbd8ba3a3	-0.068183206
235	0x3df8c19b	0.12146302
236	0xbce421ba	-0.027848113
237	0xbdb1c6ff	-0.086805336
238	0xbd88af80	-0.06674099
239	0x3e1a4dc6	0.1506873
240	0xbd0f31af	-0.03495949
241	0xbe4a5431	-0.19758679
242	0xbe4cbb80	-0.199934
243	0xbd39d309	-0.045367274
244	0xbd96a245	-0.07355169
245	0xbe1b9108	-0.15192044
246	0xbdced7e1	-0.100997694
247	0xbd26f341	-0.04075933
248	0xbdb9b925	-0.09068517
249	0xbe02b99f	-0.12766121
250	0xbe581c85	-0.2110463
251	0xbb933b49	-0.0044931513
252	0xbdb1a421	-0.08673883
253	0xbe2b8ef2	-0.16753748
254	0xbe49919f	-0.19684456
255	0xbda66fc4	-0.08126786

conv2d_3.bias f4 [32]
0	0xbdeb18fe	-0.11479376
1	0x3d7c0a51	0.061533276
2	0xbcd1af97	-0.025596423
3	0xbdb4d91f	-0.08830475
4	0x3e0566d3	0.13027506
5	0xbdf7f2ad	-0.121068336
6	0xbcdcf354	-0.026971497
7	0xbd688343	-0.056765806
8	0x3e0538c4	0.13009936
9	0xbcff216c	-0.031143866
10	0xbe0b18e0	-0.13583708
11	0x3dd95a25	0.10612897
12	0xbdb5f93e	-0.0888543
13	0x3cea25ae	0.02858242
14	0x3dbf55b8	0.093425214
15	0xbe58e6b7	-0.2118176
16	0x3e20ba78	0.15696132
17	0x3e13c4f7	0.14430605
18	0x3e94aa4c	0.29036176
19	0x3d6fd4c3	0.058552515
20	0x3dbcc8fb	0.092180215
21	0xbcd29ce6	-0.02570958
22	0xbd05b84e	-0.03264647
23	0x3e01e5d2	0.12685326
24	0x3e6338c9	0.2218963
25	0x3e12becf	0.143306
26	0x3d94cbbc	0.07265422
27	0x3e7b73ab	0.24555843
28	0x3eb42fa6	0.35192603
29	0x3e6a6e3d	0.22893615
30	0x3e7983f2	0.2436674
31	0x3f399936	0.72499406

lstm.weight_ih_l0 f4 [256, 128]
0	0x3e287487	0.16450702
1	0xbd8e6c80	-0.069542885
2	0xbec80f05	-0.3907396
3	0xbeaa4b42	-0.33260542
4	0x3d0ffeb6	0.03515502
5	0x3e4ca501	0.19984819
6	0xbea05739	-0.31316546
7	0xbe543896	-0.20724711
8	0x3ea4695f	0.32111642
9	0x3e8e7882	0.27826315
10	0xbea115cd	-0.31461945
11	0xbe54ed72	-0.20793703
12	0x3e226faa	0.15862909
13	0xbd265204	-0.04060556
14	0xbd0ccbf1	-0.03437418
15	0xbd439b46	-0.047755502
16	0x3eeb04cd	0.459021
17	0x3cf24de2	0.029578153
18	0xbdac9426	-0.084266946
19	0xbd86224f	-0.065495126
20	0x3e65b6be	0.22432992
21	0xbb88193b	-0.0041533983
22	0xbc8a23ab	-0.016862711
23	0xbca2756e	-0.019831385
24	0x3ea82860	0.32843304
25	0x3d389217	0.045061197
26	0xbcadd431	-0.021219345
27	0xbcb8eee9	-0.022574859
28	0x3e776867	0.2416092
29	0x3e5f83ad	0.21827574
30	0x3d2d07f1	0.0422439
31	0x3d16c6c2	0.036810644
32	0xbe04812b	-0.12939899
33	0x3e2eb5bd	0.17061515
34	0xbe9fc781	-0.31206897
35	0xbe046a41	-0.12931158
36	0xbe207bc8	-0.15672219
37	0x3d7d649a	0.06186352
38	0xbec370a9	-0.3817189
39	0xbdb3cb11	-0.08778966
40	0xbd9a1cfc	-0.075250596
41	0x3e798b2e	0.24369499
42	0xbe0ac514	-0.13551742
43	0xbdcc31ed	-0.0997046
44	0xbdbfed0b	-0.09371384
45	0x3eaf8841	0.3428364
46	0xbe06d3f2	-0.13166788
47	0xbdc20ea4	-0.09475449
48	0xbcc594b9	-0.024118768
49	0x3d0c3868	0.03423348
50	0xbe328991	-0.1743529
51	0x3ca6329c	0.020287804
52	0x3dfc43f6	0.1231765
53	0x3d0ad32d	0.0338928
54	0xbe89e24d	-0.26930466
55	0x3c68b04d	0.01420219
56	0xbe8400fe	-0.25782007
57	0xbefd2ec3	-0.4944974
58	0xbf48e887	-0.7847981
59	0xbe2f7993	-0.1713622
60	0xbe4a4d98	-0.19756162
61	0xbeec05ed	-0.4609827
62	0xbf53ce4b	-0.82736653
63	0xbe9675ab	-0.2938665
64	0x3f18258b	0.59432286
65	0x3d14b90b	0.036309283
66	0xbd9b4ecc	-0.07583389
67	0x3d07ca91	0.033152167
68	0x3ee0b48e	0.43887752
69	0x3cf49f80	0.029861212
70	0xbd8a6250	-0.06757033
71	0x3d96583f	0.0734105
72	0x3e587fe6	0.2114254
73	0x3d919153	0.071077965
74	0xbd5a84cb	-0.053349297
75	0xbd9e722d	-0.07736621
76	0x3e3e082f	0.1855781
77	0x3e71fc9c	0.23631519
78	0xbd57f25c	-0.052721366
79	0xbe0eb2fc	-0.13935465
80	0x3e5bc911	0.2146342
81	0x3d2c3429	0.04204193
82	0xbd80d792	-0.06291117
83	0xbc4f24dd	-0.012643066
84	0x3e059be8	0.13047755
85	0x3d835000	0.06411743
86	0xbddbc802	-0.10731508
87	0xbc8497e1	-0.016185703
88	0x3ead3763	0.3383132
89	0xbd9f12d8	-0.07767266
90	0xbb0e776e	-0.0021738666
91	0xbc36db16	-0.011160633
92	0x3e9724f4	0.2952038
93	0x3ba33165	0.0049802535
94	0xbc47586d	-0.012167078
95	0x3d346299	0.044039343
96	0x3e498d3d	0.19682784
97	0xbc5d9680	-0.0135246515
98	0xbe017d3e	-0.12645432
99	0xbc3f27fd	-0.011667249
100	0x3df29928	0.118456185
101	0xbd9674bb	-0.07346483
102	0x3d541ad2	0.05178339
103	0xbbe8a270	-0.007099442
104	0x3bcf7d4c	0.006332075
105	0xbc742b5b	-0.014902915
106	0x3ccad470	0.024759501
107	0xbd808265	-0.06274871
108	0xbe08256f	-0.1329553
109	0x3b33fa8a	0.0027462565
110	0x3e2fa1b8	0.17151535
111	0xbdf6e267	-0.120549016
112	0x3d9d74b6	0.076882765
113	0xbdabb1c1	-0.08383513
114	0x3d35fd8f	0.044431265
115	0xbd86277b	-0.06550499
116	0x3e700649	0.23439898
117	0xbdcea3b5	-0.100898184
118	0x3d6bcd1e	0.057568662
119	0xbe04b62d	-0.1296012
120	0x3ec0d425	0.37661853
121	0xbd017efb	-0.03161524
122	0xbcb1823a	-0.021668542
123	0xbd8277e0	-0.063705206
124	0x3ef4ce16	0.4781348
125	0xbe763129	-0.2404219
126	0x3db5af78	0.08871359
127	0xbd4b671d	-0.049658883
128	0x3e1591b9	0.1460637
129	0x3ec43eb4	0.3832909
130	0xbd991f7d	-0.07476709
131	0x3e2cdcd6	0.16881117
132	0x3dd764ef	0.105172984
133	0x3f4fe93f	0.8121528
134	0x3df36a19	0.11885471
135	0x3d928035	0.0715336
136	0xbacb45ff	-0.0015508531
137	0x3cf72f9b	0.030174067
138	0xbf3aeb71	-0.73015505
139	0xbdb6ab3e	-0.089193806
140	0x3d232412	0.03982932
141	0x3db96e9b	0.090542994
142	0xbf017254	-0.50565076
143	0xbe60f411	-0.21968104
144	0x3e5c208a	0.21496788
145	0x3ec73a6a	0.38911754
146	0xbe1215e9	-0.1426617
147	0xbcc26e8b	-0.023734352
148	0x3e06624a	0.13123432
149	0x3eac672c	0.33672464
150	0xbdf3fe4b	-0.11913737
151	0x3dae02b4	0.08496609
152	0x3c3083c2	0.010773601
153	0x3f014987	0.5050282
154	0xbd897b67	-0.0671299
155	0xbcb538c3	-0.022121793
156	0x3d50b3ea	0.05095283
157	0x3f07cbc8	0.5304532
158	0x3cf8d22d	0.030373657
159	0xbdbda391	-0.092597134
160	0xbb87a36b	-0.004139354
161	0x3ec3055c	0.38090026
162	0xbe8abcca	-0.2709716
163	0xbd5ceb2c	-0.053935215
164	0xbd9d3ccd	-0.076776125
165	0x3e86ab5c	0.26302612
166	0xbe0b1ba2	-0.1358476
167	0xbd9efb5d	-0.077627875
168	0x3bd694c0	0.006548494
169	0x3e91c879	0.2847326
170	0x3e7028dc	0.23453087
171	0xbd8bb7b6	-0.068221495
172	0xbe14dab3	-0.14536552
173	0x3f163a8c	0.58683085
174	0x3e717411	0.23579432
175	0xbdf77c0a	-0.120842054
176	0xbe06b7ab	-0.13156001
177	0x3ecedbd1	0.40402082
178	0x3d85f032	0.06539954
179	0xbdd0bbe0	-0.10192084
180	0xbdd1c200	-0.10242081
181	0x3e78d662	0.2430053
182	0x3e1ceeef	0.15325521
183	0x3d55e8f1	0.052224103
184	0xbe329b4f	-0.17442058
185	0x3c730d38	0.014834695
186	0xb9634533	-0.00021674186
187	0x3cfc9309	0.03083183
188	0x3ce0a5a9	0.027422743
189	0xbdc0cbf1	-0.09413899
190	0x3d09c6db	0.03363691
191	0x3d5f616c	0.054536268
192	0x3d8486c8	0.0647102
193	0x3bcc59f7	0.0062363106
194	0x3f334fe3	0.7004377
195	0x3e3ef02c	0.18646306
196	0x3e1d8b53	0.15385179
197	0xbe24a91a	-0.16080132
198	0x3f22d1c3	0.6360132
199	0x3db899eb	0.090137325
200	0x3da5a035	0.08087198
201	0xbe5375f0	-0.20650458
202	0x3e70c958	0.23514307
203	0x3e4ab510	0.19795632
204	0x3e961fa5	0.29321018
205	0xbdc76867	-0.0973671
206	0x3f1e9b89	0.6195608
207	0xbcb6de27	-0.022322727
208	0x3e68856a	0.22707143
209	0xbcc96795	-0.024585525
210	0x3f8c37fe	1.0954587
211	0x3cd9ab38	0.026570901
212	0x3e0ca0ae	0.1373317
213	0x3e2b1d34	0.16710359
214	0x3f80e482	1.0069735
215	0x3d733902	0.05938054
216	0x3d6dae73	0.058027696
217	0xbdc15ab2	-0.09441127
218	0x3eaed18c	0.34144247
219	0x3d72a508	0.059239417
220	0xbe41897c	-0.18900102
221	0xbeaf3e59	-0.34227255
222	0x3f2099f2	0.627349
223	0x3d5596f1	0.052145902
224	0xbe925525	-0.28580585
225	0xbf0b7f71	-0.54491335
226	0xbe0c9477	-0.1372851
227	0xbd3daadd	-0.046305526
228	0xbdd3733b	-0.10324713
229	0xbeef4c47	-0.46737882
230	0xbd92d9eb	-0.07170471
231	0x3dabc7f0	0.083877444
232	0xbe0a4fb5	-0.13506968
233	0xbe213d92	-0.15746143
234	0x3f3e4457	0.7432303
235	0x3e16d0ad	0.14728041
236	0xbe41a254	-0.1890958
237	0x3d72c490	0.059269488
238	0x3f987008	1.1909189
239	0x3e3a0fc8	0.18170083
240	0xbed19f4a	-0.4094184
241	0xbd84f221	-0.06491495
242	0x3f983bc1	1.1893235
243	0x3e54d39a	0.20783845
244	0xbf091247	-0.53543514
245	0x3dd245a1	0.10267187
246	0x3f9a6e9f	1.2065009
247	0x3db253fd	0.08707426
248	0xbe9116ab	-0.28337607
249	0x3d55962e	0.052145176
250	0xbd539613	-0.051656794
251	0x3e3588c8	0.17727959
252	0x3e2a796a	0.16647878
253	0xbdd2c5fe	-0.1029167
254	0x3dd62d17	0.10457819
255	0x3e507f38	0.2036103

lstm.weight_hh_l0 f4 [256, 64]
0	0xbe2005da	-0.15627232
1	0xbc04fe43	-0.008117261
2	0xbef3a357	-0.47585556
3	0x3f03e64a	0.5152327
4	0xbe846310	-0.2585683
5	0xbe8ea170	-0.27857542
6	0xbeb4dc98	-0.3532455
7	0xbe8f1185	-0.27943054
8	0xbef088e5	-0.46979442
9	0xbe97d1d7	-0.29652283
10	0x3dcf7bfb	0.10131069
11	0x3d59965c	0.05312191
12	0x3ec9c38e	0.3940701
13	0xbf41622e	-0.75540435
14	0x3df05ca4	0.1173642
15	0x3f0eb7c0	0.5574913
16	0x3e8f5dba	0.28001195
17	0x3ef63c1f	0.48092744
18	0x3e2ef990	0.17087388
19	0xbede68d7	-0.4343936
20	0x3f59c4e3	0.8506605
21	0xbe0f34b2	-0.13984945
22	0xbe0bfa57	-0.13669716
23	0xbf463588	-0.7742543
24	0x3f0650bb	0.52466935
25	0xbf43ea5f	-0.76529497
26	0x3eac94e3	0.33707342
27	0xbea35868	-0.31903386
28	0x3e3d8b95	0.18510278
29	0xbe693a6e	-0.22776195
30	0x3f06bb38	0.52629423
31	0xbe995522	-0.29947764
32	0xbd32cebf	-0.0436542
33	0x3e0e4031	0.13891675
34	0xbee7cc76	-0.4527318
35	0xbdfe06d6	-0.124036476
36	0xbf13ffc3	-0.57812136
37	0xbe49ba53	-0.19699983
38	0xbf18e7ff	-0.59729
39	0xbe3b20ca	-0.18274227
40	0xbe5e8c65	-0.21733244
41	0xbda04374	-0.07825366
42	0x3dfd4b6e	0.12367903
43	0x3dd5f98d	0.10447989
44	0xbf94dc0c	-1.1629653
45	0xbf7d1eee	-0.9887532
46	0xbee12450	-0.43973017
47	0xbed665ed	-0.41874638
48	0xbe57f986	-0.2109128
49	0xbf682bb6	-0.906917
50	0x3f1ec87c	0.62024665
51	0x3f8994ce	1.0748537
52	0xbf1406cf	-0.5782289
53	0x3e267869	0.1625687
54	0xbe1b77d7	-0.15182434
55	0xbe019536	-0.12654576
56	0xbe3b337e	-0.18281361
57	0xbeaa6430	-0.33279562
58	0xbe1e04c0	-0.154315
59	0x3f65f091	0.898202
60	0xbec84c43	-0.39120683
61	0xbf386d38	-0.72041655
62	0xbefcc22d	-0.49366894
63	0xbf09d372	-0.53838265
64	0xbe51d0fb	-0.20489876
65	0x3db1d1ef	0.0868262
66	0xbe498825	-0.19680841
67	0xbe5e779c	-0.21725315
68	0xbeac1fbf	-0.3361797
69	0xbe9d7ae9	-0.30757836
70	0xbce554f0	-0.027994603
71	0x3f8c923c	1.0982127
72	0xbe6c236c	-0.23060387
73	0x3f17634b	0.59135884
74	0xbe72e7df	-0.23721264
75	0x3e9ec3ff	0.31008908
76	0xbf137550	-0.5760088
77	0x3ee778b5	0.4520928
78	0xbe7da217	-0.24768864
79	0xbd01a00d	-0.031646777
80	0x3f7ee287	0.99564403
81	0xbdd49ea7	-0.10381823
82	0x3f51d4d4	0.81965375
83	0x3e88fc7e	0.26755136
84	0x3d6f4aeb	0.058421057
85	0xbeff74d1	-0.4989381
86	0x3f9a61bf	1.206108
87	0x3e9ac7ef	0.30230662
88	0x3e1e69dd	0.15470071
89	0xbece3f56	-0.40282696
90	0xbe222ebb	-0.15838139
91	0x3da4f4a9	0.08054478
92	0xbcad145c	-0.021127872
93	0x3ee27ceb	0.4423593
94	0x3e68857a	0.22707167
95	0x3db75309	0.089513846
96	0xbe2d2e85	-0.16912277
97	0xbf31bbc4	-0.6942713
98	0xbe4368ea	-0.1908299
99	0x3f0cbb6e	0.54973495
100	0xbef3e682	-0.476368
101	0x3d7d7107	0.06187537
102	0x3dacb863	0.084336065
103	0xbeb6ad26	-0.35678977
104	0x3f6fcd9f	0.9367313
105	0xbf49b5be	-0.7879294
106	0xbf13d65a	-0.5774895
107	0xbf3a44b0	-0.7276106
108	0x3ecb818b	0.3974727
109	0x3ec25891	0.37958196
110	0xbd2ede53	-0.042692494
111	0x3eaa82e1	0.33302978
112	0xbd9294ff	-0.07157325
113	0x3e4934d4	0.19649059
114	0x3d4250af	0.047440227
115	0x3f5dd80c	0.86657786
116	0x3ed73fee	0.42040962
117	0x3ca7e926	0.020496916
118	0xbf0d6044	-0.55225015
119	0x3f327031	0.6970244
120	0xbe9dec55	-0.3084437
121	0x3f307617	0.6893019
122	0xbf10deab	-0.56589764
123	0x3f1b914a	0.6076857
124	0xbe946466	-0.28982848
125	0xbf02230c	-0.5083473
126	0xbe920ae1	-0.28523925
127	0xbe95b516	-0.2923972
128	0x3f0596f8	0.52183485
129	0xbd0cda62	-0.034387954
130	0x3e3a785b	0.18209974
131	0xbf412c6e	-0.7545842
132	0xbed73ae4	-0.42037117
133	0xbe47eb8b	-0.19523446
134	0xbed4325b	-0.41444668
135	0xbecfcccd	-0.40585938
136	0x3e517fb2	0.20458868
137	0xbe09b456	-0.13447699
138	0x3e0f623f	0.14002322
139	0xbe36e16c	-0.17859429
140	0x3dcde1c1	0.10052825
141	0xbf43ceeb	-0.76487607
142	0x3e3aeddb	0.18254797
143	0x3ee173ae	0.4403357
144	0x3ef67823	0.48138532
145	0xbe82602c	-0.25463998
146	0xbe3c8500	-0.1841011
147	0xbea03dbb	-0.31297097
148	0xbe509c7f	-0.20372199
149	0xbefc5645	-0.49284568
150	0xbf37d720	-0.7181263
151	0x3f0587ac	0.52160144
152	0xbe5f3b41	-0.21799947
153	0xbf81a099	-1.0127136
154	0xbdd0ea00	-0.10200882
155	0xbf33875f	-0.70128435
156	0xbe3bbff8	-0.18334949
157	0x3e40915f	0.18805455
158	0x3e25852e	0.16164085
159	0x3dadf1b8	0.0849337
160	0x3e066c93	0.13127355
161	0x3ecd1ea6	0.40062445
162	0xbec589bb	-0.38581643
163	0x3e4dc0dd	0.20093103
164	0xbea3a1c9	-0.3195937
165	0xbe846ca1	-0.25864127
166	0xbef43635	-0.47697607
167	0xbc8e6b82	-0.017385248
168	0x3e0ab50f	0.13545631
169	0xbd8a9b30	-0.06767881
170	0xbd8fc05f	-0.07019114
171	0xbd0fd458	-0.035114616
172	0xbed3f8d4	-0.41400778
173	0x3f250f3a	0.6447636
174	0x3ea3cf6c	0.31994188
175	0xbda320a8	-0.07965213
176	0xbf84eb5e	-1.0384328
177	0xbe71e04c	-0.23620719
178	0xbdf22fe1	-0.118255384
179	0x3e5e0393	0.21681051
180	0xbec30ea0	-0.38097095
181	0xbcdd44a8	-0.027010277
182	0xbe01e13e	-0.1268358
183	0x3f181f14	0.5942242
184	0xbdfe5a95	-0.12419621
185	0x3e072bdd	0.13200326
186	0xbfd7cc7b	-1.6859277
187	0xbf06faf3	-0.5272667
188	0xbf1a2faf	-0.6022901
189	0xbe2f4cb9	-0.17119111
190	0x3f14a867	0.5806946
191	0xbeb6ae05	-0.3567964
192	0x3d4368d6	0.0477074
193	0xbecacf67	-0.3961136
194	0xbe18f1f9	-0.14936055
195	0x3f453aaf	0.7704267
196	0x3e8dc6f8	0.27690864
197	0xbf221423	-0.63311976
198	0xbc3ed4fd	-0.01164746
199	0x3f32076f	0.6954259
200	0xbdf0a21f	-0.11749672
201	0x3c76895a	0.015047396
202	0x3e7877fa	0.24264517
203	0x3f1c3e36	0.61032426
204	0x3e6c617d	0.23084064
205	0x3fb78233	1.4336609
206	0x3dd4fc1c	0.103996485
207	0xbd029072	-0.031876035
208	0xbe5dab9d	-0.21647497
209	0xbedf9ad1	-0.43672803
210	0x3e18e2f4	0.14930326
211	0x3f48fedf	0.785139
212	0x3efe874a	0.49712592
213	0xbe9f0dcd	-0.31065217
214	0xbd8ad684	-0.06779197
215	0x3ecbe79e	0.39825147
216	0x3faf4958	1.3694258
217	0x3f1d3895	0.6141446
218	0xbd6145e6	-0.0549983
219	0xbdd55741	-0.10417033
220	0xbea1b828	-0.31585813
221	0xbe48c077	-0.1960467
222	0xbd76cb40	-0.060252428
223	0xbf1b51b7	-0.6067156
224	0xbf289d6d	-0.6586521
225	0x3e1d4958	0.1536001
226	0x3da88e4d	0.08230267
227	0x3e5b9474	0.21443349
228	0x3f3471ec	0.7048633
229	0xbef0c342	-0.4702397
230	0x3e9aa04d	0.30200425
231	0xbf80a45b	-1.0050157
232	0xbf0a7895	-0.54090244
233	0x3d81220a	0.063053206
234	0x3f3dda48	0.74161196
235	0xbf10369c	-0.5633333
236	0x3f00393f	0.5008735
237	0xbed39c4b	-0.4133018
238	0xbf7d6040	-0.9897499
239	0xbf7d093a	-0.98842204
240	0x3e10e13b	0.14148419
241	0x3e60de70	0.21959853
242	0x3e490937	0.19632421
243	0x3e17f7aa	0.1484057
244	0xbda99394	-0.082801014
245	0x3e0d6c55	0.13810857
246	0x3e7eba69	0.24875797
247	0x3f1b67f9	0.60705525
248	0x3ea9f71a	0.33196336
249	0xbfca96ae	-1.5827234
250	0x3de18c95	0.11013142
251	0xbd030aee	-0.031992845
252	0x3e39a07a	0.18127623
253	0xbe35f1f1	-0.17768075
254	0x3f074a0f	0.5284738
255	0x3ebe8684	0.37212002

lstm.bias_ih_l0 f4 [256]
0	0x3e80b20c	0.2513584
1	0xbe08e0e0	-0.13367033
2	0x3d217d04	0.039425865
3	0x3de06e5a	0.10958548
4	0x3ded5f5f	0.11590456
5	0x3e2209fa	0.15824118
6	0x3eeff994	0.468701
7	0x3dc18fe3	0.09451272
8	0x3d2fc393	0.042911123
9	0xbb7d9d2b	-0.0038698416
10	0x3ebbee54	0.36705267
11	0x3d889f64	0.06671026
12	0xbdff6335	-0.12470094
13	0x3e8f3814	0.27972472
14	0xbe1d5fc1	-0.15368558
15	0xbd8f5c43	-0.070000194
16	0x3e90469a	0.28178865
17	0x3e3efefa	0.18651953
18	0x3eb32fba	0.3499735
19	0x3c7a5904	0.015280012
20	0xbe919a69	-0.28438118
21	0x3d7ea63d	0.062170256
22	0x3d02d4a2	0.031941064
23	0x3e647a9a	0.22312394
24	0x3e6c880c	0.23098773
25	0x3e7bef76	0.24603066
26	0xbdc011b4	-0.093783766
27	0xbdf26bd2	-0.11836971
28	0x3cd8960e	0.02643874
29	0x3dd56988	0.10420519
30	0x3ca8e1a2	0.020615403
31	0x3db10a49	0.0864454
32	0x3d4ef8a6	0.0505301
33	0x3e339bce	0.17539904
34	0x3dff27b6	0.12458746
35	0x3e258610	0.16164422
36	0xbe434e67	-0.19072877
37	0x3ddc3627	0.10752516
38	0x3d3ba876	0.045814954
39	0x3e9b611c	0.30347526
40	0xbe36b8e7	-0.17843972
41	0x3e56cf96	0.20977625
42	0x3e1518f9	0.14560308
43	0xbdb97102	-0.09054758
44	0x3dcc04d0	0.099618554
45	0x3e2437f5	0.16036971
46	0xbe4ed994	-0.20200187
47	0x3f192d2a	0.5983454
48	0xbe23e8d3	-0.16006784
49	0x3e5abc28	0.21360838
50	0xbdd494b4	-0.10379925
51	0x3e016fa5	0.12640245
52	0x3e74097f	0.23831747
53	0x3ecb2e65	0.39683834
54	0x3ea798d6	0.32733792
55	0x3e45bdae	0.19310638
56	0x3ebe2e26	0.37144583
57	0x3e530655	0.20607884
58	0x3e14c03a	0.14526454
59	0x3e12b7b5	0.14327891
60	0xbdad578c	-0.08463964
61	0x3dfc2e05	0.12313465
62	0x3e891dfe	0.26780695
63	0x3e78579e	0.24252173
64	0xbc3aa3fd	-0.011391637
65	0xbe60cb9b	-0.2195267
66	0x3d90a284	0.070622474
67	0xbe3b865a	-0.1831297
68	0x3d6dc27f	0.058046814
69	0x3d43664d	0.047704984
70	0xbe0bf543	-0.13667779
71	0xbe9b7c52	-0.30368286
72	0x3e4d37ac	0.20040768
73	0x3d705bf4	0.058681443
74	0xbd2ccc12	-0.042186804
75	0x3e6237ec	0.22091645
76	0x3e237a05	0.15964516
77	0xbe076e80	-0.13225746
78	0x3c61ee3e	0.0137897115
79	0x3e2658b1	0.1624477
80	0x3d35ae31	0.044355575
81	0x3db6e9ff	0.0893135
82	0x3d434a1b	0.047678094
83	0xbe1436ed	-0.14474078
84	0xbd03f764	-0.032218352
85	0x3e3d74ad	0.1850154
86	0x3e510b08	0.20414364
87	0x3ef9d6fe	0.4879684
88	0xbe4beae3	-0.19913821
89	0xbe36e36c	-0.17860192
90	0x3e343dba	0.17601672
91	0xbda24f57	-0.07925289
92	0xbe3d9348	-0.18513215
93	0x3e813e89	0.25243023
94	0xbca02293	-0.019547736
95	0xbd316a66	-0.04331436
96	0xbe3cd825	-0.18441828
97	0xbd4b1461	-0.04957998
98	0x3e2fd039	0.17169274
99	0xbe8fae89	-0.28062847
100	0x3e785879	0.242525
101	0x3e1496ce	0.14510652
102	0x3d927a55	0.07152239
103	0xbd90a346	-0.07062392
104	0xbc886301	-0.016648771
105	0xbe177fb8	-0.14794815
106	0x3e2aab09	0.16666807
107	0xbd2a3b5b	-0.041560512
108	0x3dbca609	0.09211356
109	0xbb40e4cc	-0.0029433249
110	0xbe33758a	-0.17525306
111	0xbe17cde1	-0.1482463
112	0x3cb05bc7	0.021528138
113	0x3de329e6	0.11091976
114	0x3c3f0dbb	0.011660988
115	0x3dd0eefd	0.102018334
116	0x3d2118bd	0.039330233
117	0xbe6fa771	-0.23403718
118	0xbd54546a	-0.051838316
119	0xbdeff09c	-0.117158145
120	0x3d42feeb	0.04760639
121	0x3c2f0e54	0.010684568
122	0x3e65a0dc	0.22424644
123	0x3ce70fe9	0.028205829
124	0x3df4dfd2	0.11956753
125	0xbcb83e19	-0.022490548
126	0xbe13ecff	-0.14445876
127	0x3e676742	0.22597983
128	0xbd5217b6	-0.051292144
129	0xbde92486	-0.113839194
130	0xbc3985a7	-0.011323369
131	0xbe23718a	-0.1596128
132	0xbdf3631b	-0.11884137
133	0x3bcf83d4	0.006332854
134	0x3d8c5799	0.068526454
135	0xbaef9ce9	-0.0018281016
136	0xbc3e4596	-0.01161327
137	0xbe63b2ba	-0.22236148
138	0xbdc11e7a	-0.09429641
139	0xbdb5d7ac	-0.08879027
140	0x3d37bcda	0.044857837
141	0xbd2519b1	-0.040307704
142	0xbd1b9c21	-0.037990693
143	0x3d06fe24	0.03295721
144	0x3cdb9ec8	0.026809111
145	0xbdaded11	-0.084924825
146	0x3c651e9d	0.01398435
147	0xbc5bd051	-0.013416366
148	0xbda506c6	-0.080579326
149	0xbd9a6483	-0.07538702
150	0x3d417ece	0.04724007
151	0x3db63406	0.088966414
152	0x3dc20c6f	0.09475028
153	0x3e368b7b	0.17826645
154	0xbdadf311	-0.08493627
155	0xbdc9de56	-0.0985686
156	0x3d24db18	0.040248007
157	0x3d54eec4	0.051985517
158	0xbd090cce	-0.033459477
159	0x3c63b0d1	0.013897137
160	0xbd666189	-0.05624536
161	0xbca4d762	-0.020122234
162	0x3d16a8dc	0.03678213
163	0x3e1695a1	0.14705516
164	0xbd5b99c4	-0.05361344
165	0x3cb70930	0.022343248
166	0xbd037aaa	-0.032099403
167	0xbaee0480	-0.00181593
168	0x3decc746	0.11561446
169	0x3e13dad6	0.14438948
170	0x3de3b7d5	0.111190476
171	0x3e0a3b81	0.13499261
172	0xbcc03315	-0.023461858
173	0xbd5ae855	-0.053444225
174	0xbd901729	-0.070356674
175	0xbe1a57e2	-0.15072587
176	0x3e1cad1c	0.15300411
177	0x3ca9908b	0.020698806
178	0x3c5a5329	0.013325491
179	0xbdcab999	-0.09898681
180	0xbe54a439	-0.20765771
181	0x3e40d013	0.18829374
182	0xbdd7dcf0	-0.10540187
183	0x3dbff524	0.09372929
184	0x3e0f0784	0.1396771
185	0xbe2233b5	-0.15840037
186	0xbdbe95b1	-0.09305895
187	0x3d4d2dd8	0.050092548
188	0xbd802aca	-0.06258161
189	0x3d4141b6	0.047181807
190	0x3dc86e43	0.09786656
191	0x3e766881	0.24063303
192	0xbe1d9e21	-0.15392353
193	0x3f1022d2	0.5630313
194	0x3ecf3040	0.404665
195	0x3f04bb16	0.5184797
196	0x3e892f38	0.26793838
197	0x3e9a90e6	0.30188674
198	0x3e962ba2	0.29330164
199	0xbf1307aa	-0.5743357
200	0x3e8ebced	0.27878514
201	0xbea16cd1	-0.31528333
202	0xbce6253a	-0.028093923
203	0xbe122c9b	-0.14274828
204	0x3e1b8073	0.15185718
205	0x3de7c162	0.11316182
206	0x3b278572	0.0025561717
207	0x3eab0d65	0.33408657
208	0xbe403397	-0.1876968
209	0x3e217696	0.15767893
210	0x3ec4880c	0.38385046
211	0x3df51d57	0.11968487
212	0x3e72fc04	0.23728949
213	0xbdfe0281	-0.12402821
214	0x3ce181d1	0.027527722
215	0xbe12fe63	-0.14354853
216	0x3e880e88	0.26573586
217	0xbe8255ff	-0.25456235
218	0x3e52eee9	0.2059895
219	0xbe4a7bf7	-0.19773851
220	0xbe38ce80	-0.18047523
221	0x3e3fc58f	0.18727706
222	0x3e26f156	0.16303
223	0xbf19d474	-0.600898
224	0xbe024af0	-0.12723899
225	0x3ea20fe8	0.3165276
226	0x3ea8064d	0.32817307
227	0x3f253fcd	0.6455048
228	0x3dd816c8	0.1055122
229	0xbed73811	-0.42034963
230	0xbe527d1b	-0.20555536
231	0x3eb2c9a9	0.3491948
232	0x3e0d541e	0.1380162
233	0x3e6c2d61	0.23064186
234	0x3d67f188	0.056626827
235	0x3e0f591f	0.13998841
236	0xbea8d7ed	-0.32977238
237	0x3c3f50d1	0.011676983
238	0x3e9bac60	0.3040495
239	0x3e84e38c	0.25954854
240	0x3e4a8fa9	0.19781365
241	0x3d27e579	0.040990327
242	0x3dfba463	0.12287214
243	0x3de7d24f	0.1131941
244	0x3daa42ba	0.08313508
245	0x3e0e91e8	0.13922846
246	0xbe447396	-0.19184718
247	0x3dd5e56b	0.10444149
248	0x3e1d88f6	0.15384278
249	0xbe23d88c	-0.16000575
250	0xbe85ffd2	-0.26171738
251	0x3eb54016	0.35400456
252	0xbdafa4db	-0.085763656
253	0x3f117a3e	0.5682715
254	0x3eef7a84	0.4677316
255	0x3ecd8393	0.40139446

lstm.bias_hh_l0 f4 [256]
0	0x3e950f65	0.29113308
1	0xbe587a68	-0.21140444
2	0x3cddfab8	0.027097091
3	0x3e0bfe0f	0.13671134
4	0x3e039814	0.12850982
5	0x3dc6e68c	0.09711942
6	0x3f0ed621	0.55795485
7	0x3d98494d	0.07435856
8	0x3c862b75	0.016378144
9	0x3c5f05f1	0.013612256
10	0x3ebce043	0.36889848
11	0x3e121fd5	0.14269955
12	0xbe07cd27	-0.13261853
13	0x3eb15e62	0.3464232
14	0xbe26a57d	-0.16274066
15	0xbdb79563	-0.0896404
16	0x3e4c83e1	0.19972183
17	0x3e859160	0.26087475
18	0x3ebab7a7	0.3646824
19	0x3dbe60ac	0.092957824
20	0xbe9bf335	-0.3045899
21	0x3d5ceed5	0.053938705
22	0x3c80f7a2	0.01574308
23	0x3e81fd4e	0.2538857
24	0x3e48aca1	0.19597103
25	0x3ea1e425	0.31619373
26	0xbda3aa1a	-0.07991429
27	0xbe13228e	-0.1436865
28	0x3c8d9322	0.017282072
29	0x3e340ee6	0.17583808
30	0x3dd591b6	0.10428183
31	0x3d38a027	0.04507461
32	0x3d9ee31d	0.07758162
33	0x3e236784	0.15957457
34	0x3e21eee8	0.15813792
35	0x3e2f2fe0	0.17108107
36	0xbe6ad87c	-0.22934145
37	0x3d545265	0.05183639
38	0x3df9f469	0.12204821
39	0x3e8a2225	0.26979175
40	0xbdf29e7a	-0.11846633
41	0x3e2beb91	0.1678908
42	0x3dc0366a	0.09385379
43	0xbe0ecc89	-0.13945211
44	0x3e28828a	0.16456047
45	0x3e42cb25	0.19022806
46	0xbe8bf81a	-0.27337724
47	0x3f14d316	0.5813459
48	0xbe0c4388	-0.13697636
49	0x3e412663	0.188623
50	0xbdba639f	-0.091010325
51	0x3dcb9501	0.099405296
52	0x3e4fbb67	0.20286332
53	0x3eef1d96	0.4670226
54	0x3e8fc173	0.28077278
55	0x3e737e79	0.23778714
56	0x3ea82e60	0.3284788
57	0x3e53cc95	0.2068351
58	0x3e51a0f9	0.20471562
59	0x3e12f21c	0.1435017
60	0xbd9a6fe1	-0.075408705
61	0x3e338f1e	0.17535064
62	0x3e927a24	0.2860881
63	0x3e7084a2	0.23488095
64	0xbcb2e698	-0.021838471
65	0xbe6a000d	-0.22851582
66	0x3d12db3d	0.035853613
67	0xbe088f16	-0.13335833
68	0x3d8b07d9	0.06788606
69	0x3e020b20	0.12699556
70	0xbdf0deca	-0.11761244
71	0xbe9aa50c	-0.30204046
72	0x3e3f0bb2	0.18656805
73	0xbcf9c10f	-0.030487565
74	0xbccec88e	-0.025242116
75	0x3e5fb8f6	0.21847901
76	0x3e054b32	0.13016966
77	0xbd732d15	-0.059369165
78	0xbcd5e774	-0.026111342
79	0x3e0d81e4	0.1381908
80	0xbcc36a16	-0.023854297
81	0x3d6aaf87	0.057296302
82	0x3d4463ed	0.04794686
83	0xbda5c0bf	-0.08093404
84	0xbcb44c7c	-0.022009127
85	0x3e52468a	0.20534721
86	0x3e6c0e50	0.23052335
87	0x3eeaf5a2	0.45890528
88	0xbe48f339	-0.19624032
89	0xbe4ea364	-0.20179516
90	0x3e300498	0.17189252
91	0xbe37b03e	-0.17938325
92	0xbe17eba4	-0.14835984
93	0x3eb2a42c	0.34890878
94	0xbdf09c75	-0.11748592
95	0xbd9b5152	-0.0758387
96	0xbe154a0b	-0.14579026
97	0xbd87f19b	-0.066378795
98	0x3e132d5b	0.1437277
99	0xbea47bc1	-0.32125667
100	0x3e7779f0	0.24167609
101	0x3e0695e0	0.1314311
102	0x3e1f3b5f	0.15549992
103	0xbd9e67ed	-0.07734666
104	0xbd692a19	-0.056924913
105	0xbe15a162	-0.14612344
106	0x3db2dba6	0.08733301
107	0xbc41eac9	-0.011835762
108	0x3e2cae63	0.16863398
109	0xbc88d5e1	-0.016703548
110	0xbdbeae16	-0.09310548
111	0xbe017824	-0.12643486
112	0x3d042726	0.032263897
113	0x3d663774	0.056205228
114	0x3d31f80c	0.043449447
115	0x3e23ac9f	0.15983818
116	0x3dc4882b	0.095962845
117	0xbe80355d	-0.25040713
118	0xbc3d9cf3	-0.011573064
119	0xbe0f77cb	-0.14010541
120	0x3a54d222	0.00081184704
121	0x3d9498ae	0.07255684
122	0x3e7a1215	0.2442096
123	0x3c75e588	0.015008338
124	0x3d51e1bd	0.05124067
125	0x3d02ae1b	0.03190432
126	0xbe012be0	-0.12614393
127	0x3e1c56fd	0.15267558
128	0x3c531e8b	0.0128857
129	0xbe124e1c	-0.14287609
130	0xbb4b4a36	-0.0031019575
131	0xbe285ca8	-0.16441596
132	0xbdf09c75	-0.11748592
133	0xbc837b2a	-0.01604994
134	0x3cd6fd2e	0.026243772
135	0xbc521396	-0.012822052
136	0x3a206108	0.00061179744
137	0xbe559ff0	-0.20861793
138	0xbe314a4e	-0.17313501
139	0xbcf4a35c	-0.029863052
140	0xbc0fc742	-0.008775534
141	0x3d51a319	0.051180933
142	0xbda90f5b	-0.08254882
143	0x3dba526c	0.09097752
144	0x3d1ec756	0.03876432
145	0xbe1d5abb	-0.15366642
146	0x3daacc0f	0.08339702
147	0xbca56646	-0.02019037
148	0xbd8be640	-0.06831026
149	0xbe1c0501	-0.15236284
150	0x3dfe7541	0.12424708
151	0x3e31e672	0.17373064
152	0x3d981d2c	0.07427439
153	0x3dbfc5d5	0.09363905
154	0xbdb27376	-0.08713429
155	0xbd575c1d	-0.05257808
156	0xbd0321d1	-0.03201467
157	0x3cadaf71	0.021201821
158	0xbc948437	-0.018129451
159	0x3cfc6ff5	0.030815104
160	0xbde2b9e9	-0.11070616
161	0xbc9c5a27	-0.019085957
162	0x3cc0e5e0	0.023547113
163	0x3e3c4430	0.18385386
164	0xbe038ff8	-0.12847888
165	0x3da09f3f	0.07842874
166	0xbca11138	-0.01966153
167	0x3c664380	0.014054179
168	0x3dfffdd2	0.12499584
169	0x3e1b6057	0.1517347
170	0x3dffe8c9	0.12495572
171	0x3dde4991	0.108538754
172	0x3c9a908d	0.018867755
173	0x3cdc9139	0.026924716
174	0xbdd1fac9	-0.102529116
175	0xbe102504	-0.1407662
176	0x3e505072	0.20343187
177	0xbd6e7cad	-0.05822437
178	0x3c77a010	0.0151138455
179	0xbd39763b	-0.04527877
180	0xbe73a4a8	-0.2379328
181	0x3e10015d	0.1406302
182	0xbe0ef3eb	-0.13960235
183	0x3cc662bd	0.024217004
184	0x3e17696d	0.1478631
185	0xbe1883b5	-0.14893992
186	0xbd7bd608	-0.061483413
187	0x3d9035ce	0.070415124
188	0xbd1605c1	-0.03662658
189	0xbc25de5f	-0.010123818
190	0x3da965a1	0.08271337
191	0x3e805434	0.25064242
192	0xbdd73afe	-0.10509299
193	0x3f11d851	0.569707
194	0x3ef7a483	0.483677
195	0x3f1c65bd	0.6109274
196	0x3e6e9731	0.23299862
197	0x3e9340be	0.28760332
198	0x3e9ce9b9	0.30647066
199	0xbf08e890	-0.5347986
200	0x3e8ec828	0.27887082
201	0xbe988893	-0.29791698
202	0x3d1e0ea2	0.038588174
203	0xbe4b1a51	-0.19834258
204	0x3e043e59	0.12914409
205	0x3e025f55	0.12731679
206	0x3d134013	0.035949778
207	0x3e881c10	0.2658391
208	0xbdfd9800	-0.12382507
209	0x3dfd189f	0.12358212
210	0x3ed57ca4	0.41696656
211	0x3e40ffa9	0.18847527
212	0x3e6fdd42	0.23424247
213	0xbd9aae4d	-0.075527765
214	0x3d377063	0.044784915
215	0xbdc182ce	-0.09448777
216	0x3e893f12	0.2680593
217	0xbe782137	-0.2423142
218	0x3e80cab6	0.25154656
219	0xbe4bc1ef	-0.19898199
220	0xbe1a7cd3	-0.15086679
221	0x3e4be14d	0.19910164
222	0x3e66f8aa	0.22555795
223	0xbf141abf	-0.5785331
224	0xbdb8e042	-0.09027149
225	0x3ea9ea6d	0.33186665
226	0x3e88076d	0.26568165
227	0x3f244b2a	0.6417719
228	0x3de85498	0.1134426
229	0xbec6d268	-0.38832402
230	0xbe9708b2	-0.29498821
231	0x3eaf9b77	0.34298298
232	0x3df93a19	0.121692844
233	0x3e38d9d5	0.18051846
234	0x3d935e6d	0.07195745
235	0x3e37a3d4	0.17933589
236	0xbe84c688	-0.25932717
237	0x3d91d40b	0.07120522
238	0x3e60b3a4	0.21943527
239	0x3e79bf26	0.24389324
240	0x3dec66fc	0.1154308
241	0x3da57cd3	0.08080449
242	0x3dbb6ff2	0.09152211
243	0x3de1f6bb	0.11033388
244	0x3df4816c	0.11938748
245	0x3defb355	0.11704127
246	0xbe37cf81	-0.1795025
247	0x3dfbf20b	0.123020254
248	0x3e83beba	0.2573145
249	0xbdbc6b21	-0.09200121
250	0xbe853964	-0.26020348
251	0x3ebe10fc	0.37122333
252	0xbdcf6cdf	-0.101281874
253	0x3f0ace9d	0.54221517
254	0x3f070ca1	0.52753645
255	0x3eefeec8	0.46861863

lstm.weight_ih_l1 f4 [256, 64]
0	0xbc21c9f8	-0.009874813
1	0x3d068c2a	0.032848515
2	0xbe444f21	-0.1917081
3	0xbe24b6eb	-0.16085403
4	0xbbf540b1	-0.0074845185
5	0xbd6de8a8	-0.058083206
6	0xbe4ac759	-0.19802608
7	0xbd5259c3	-0.051355135
8	0x3e2878da	0.16452351
9	0x3c3b1a27	0.011419809
10	0x3c06c1d8	0.008224927
11	0xbe384638	-0.17995536
12	0xbe8dfe0e	-0.2773289
13	0x3ea91272	0.33021885
14	0xbd94eaa2	-0.07271315
15	0x3e8d172a	0.27556735
16	0x3e6ec316	0.23316607
17	0x3c88537a	0.016641367
18	0x3e221468	0.15828097
19	0x3c987944	0.018612511
20	0x3d9ff03a	0.078094915
21	0x3c201046	0.009769505
22	0xbdfa8605	-0.122325934
23	0xbce6bf70	-0.028167456
24	0x3d4f3ac3	0.05059315
25	0x3e5a01b0	0.21289706
26	0xbdf9dc56	-0.12200229
27	0x3ee275d8	0.44230533
28	0xbd5ed9da	-0.05440698
29	0x3cb8d936	0.022564512
30	0xbcdf0aef	-0.027226893
31	0xbe850b60	-0.2598524
32	0x3edd7428	0.43252683
33	0xbdb00866	-0.08595352
34	0xbd89e518	-0.06733149
35	0x3e3dcb3c	0.18534559
36	0xbd338c24	-0.04383482
37	0x3e0e33d9	0.13886966
38	0x3e90c393	0.2827421
39	0x3b2f125c	0.0026713824
40	0x3e73dfdc	0.23815864
41	0x3da424d4	0.08014837
42	0x3d4750e5	0.04866113
43	0xbc8063c5	-0.015672574
44	0xbc30de9e	-0.010795264
45	0xbe1fd96f	-0.15610288
46	0xbea4a6be	-0.32158464
47	0xbdb2caa3	-0.08730056
48	0xbdbd3fa8	-0.09240657
49	0x3da61bcc	0.081107706
50	0xbefe2e98	-0.49644923
51	0xbe369ef2	-0.1783407
52	0x3e1ad223	0.15119223
53	0xbd70ecd3	-0.058819603
54	0x3cf97adb	0.03045409
55	0x3d7e282e	0.062050037
56	0x3e640fb0	0.2227161
57	0x3e7fbf23	0.24975257
58	0xbd2a5d65	-0.041592974
59	0x3de323de	0.110908255
60	0x3e49caf4	0.19706327
61	0x3d63fed3	0.05566294
62	0x3d99b517	0.07505243
63	0xbd49d6b1	-0.04927701
64	0xbcc03a75	-0.023465374
65	0xbb8d6072	-0.0043144757
66	0xbdcdc41b	-0.1004717
67	0x3d83600d	0.064148046
68	0xbd81dbda	-0.063407615
69	0xbe368f85	-0.17828186
70	0xbdacd9ef	-0.08440005
71	0x3dcbeb9d	0.09957049
72	0x3da14dba	0.07876153
73	0xbe87b31d	-0.2650384
74	0x3d2ec0fc	0.042664513
75	0xbca707df	-0.020389495
76	0x3e49c986	0.19705781
77	0x3e1fe429	0.1561438
78	0x3e0deff7	0.1386107
79	0x3c81811e	0.015808638
80	0xbd7c58cc	-0.06160812
81	0x3d872340	0.0659852
82	0xbdddb178	-0.10824865
83	0xbb98f34a	-0.004667674
84	0xbdd69b71	-0.10478867
85	0xbd947be1	-0.072501905
86	0xbccd25b9	-0.025042402
87	0xbdb74bdb	-0.08950015
88	0xbd482f6f	-0.04887336
89	0x3c244cae	0.0100280475
90	0xbe415ba0	-0.18882608
91	0xbdaace49	-0.08340127
92	0xbc3fdb12	-0.011709945
93	0xbda66f5e	-0.0812671
94	0x3e22fc31	0.15916516
95	0xbe2e6762	-0.17031625
96	0x3d8b4085	0.067994155
97	0xbdb475b6	-0.08811514
98	0x3ce13167	0.027489377
99	0xbb8083b6	-0.003921951
100	0x3dd30174	0.103030115
101	0xbdb7b308	-0.089696944
102	0x3d04ee1c	0.03245364
103	0xbde17a1c	-0.11009619
104	0xba809e38	-0.0009812778
105	0xbe37f03a	-0.17962733
106	0xbe0d28ff	-0.1378517
107	0x3dc00452	0.09375824
108	0x3d55c580	0.052190304
109	0x3c7ba74f	0.015359714
110	0xbda0f47b	-0.07859131
111	0xbb4ffeaa	-0.0031737485
112	0xbd13eeb1	-0.036116306
113	0xbe6c4093	-0.23071508
114	0x3e5ba8a9	0.21451057
115	0xbd31abae	-0.043376617
116	0x3e0dff85	0.13867004
117	0xbded4634	-0.11585656
118	0xbda8620b	-0.08221825
119	0xbd99474f	-0.07484304
120	0xbd96ba87	-0.07359796
121	0xbe693cc6	-0.2277709
122	0x3cf8e450	0.030382305
123	0x3d1e11b7	0.038591113
124	0x3e50ba9e	0.20383689
125	0x3b91f115	0.004453788
126	0x3e361a9c	0.17783588
127	0x3b09fc35	0.0021054868
128	0xbed2d458	-0.4117763
129	0x3d9bd131	0.076082595
130	0x3e848b64	0.25887597
131	0x3c87a7d4	0.016559519
132	0x3e12150a	0.14265838
133	0xbd9967e3	-0.07490518
134	0xbe27364d	-0.16329308
135	0xbdfb3532	-0.122660056
136	0xbca8adc2	-0.020590667
137	0xbe098ed4	-0.13433391
138	0xbd22beef	-0.03973287
139	0x3ec2f4b4	0.3807732
140	0x3ef2c9d3	0.47419605
141	0xbe849587	-0.2589533
142	0xbdf26ce9	-0.11837179
143	0xbe7dc9db	-0.24784033
144	0x3e938b64	0.28817284
145	0x3dd24a81	0.10268117
146	0x3d8cd3df	0.06876349
147	0x3e1363f5	0.143936
148	0xbe75f012	-0.24017361
149	0x3e7f5dec	0.24938172
150	0xbd8927ba	-0.0669703
151	0xbe1c0aaf	-0.1523845
152	0xbd973c01	-0.07384492
153	0xbea9ecd7	-0.33188507
154	0x3db1f47b	0.08689209
155	0xbef3025e	-0.47462744
156	0xbe655fc0	-0.22399807
157	0x3e4c7c86	0.19969377
158	0xbdaebf27	-0.08532553
159	0xbeb131ee	-0.34608406
160	0x3e1527a0	0.14565897
161	0x3db41837	0.08793681
162	0x3e3e23bf	0.18568324
163	0x3e1abeda	0.15111867
164	0x3e031f47	0.128049
165	0xbd992614	-0.07477966
166	0x3da31f64	0.07964972
167	0xbe93519b	-0.28773198
168	0xbddca893	-0.107743405
169	0x3e8393fd	0.25698844
170	0xbe339df8	-0.17540729
171	0xbd8340cd	-0.06408844
172	0x3e9265ea	0.2859338
173	0xbe425cb9	-0.18980683
174	0x3da60b10	0.08107579
175	0x3ec480ef	0.3837962
176	0x3bb166bd	0.0054138587
177	0x3e453bd2	0.19261101
178	0xbcbefe86	-0.023314726
179	0x3e58f8d0	0.21188664
180	0xbda84116	-0.08215539
181	0xbedaff5f	-0.42772958
182	0xbd5a42b5	-0.053286273
183	0x3e271558	0.16316736
184	0xbb0ed4ea	-0.0021794387
185	0xbcf6c465	-0.030122945
186	0xbd6b18e6	-0.057396792
187	0x3dc5447d	0.09632204
188	0x3ee0dc84	0.4391824
189	0x3d0abfe7	0.03387442
190	0xbe3f181e	-0.18661544
191	0xbd570e67	-0.05250397
192	0x3e546a7d	0.20743747
193	0xbed5992e	-0.4171843
194	0x3e121dea	0.14269224
195	0x3ddc52b5	0.107579626
196	0xbd7a353e	-0.061085932
197	0x3cd94f35	0.026527027
198	0x3c9c5b45	0.01908649
199	0xbcbe30dd	-0.02321666
200	0xbd27ca03	-0.040964138
201	0x3ca11e8a	0.019667882
202	0xbe2568d9	-0.16153277
203	0xbe783882	-0.24240306
204	0xbd4ad631	-0.049520675
205	0x3e82df3f	0.25560948
206	0x3b954d24	0.004556315
207	0x3e169a0d	0.14707203
208	0x3e2100d1	0.15722968
209	0x3c340cc3	0.010989371
210	0xbe669bd2	-0.22520378
211	0x3e0e0936	0.13870701
212	0x3ecc4ea2	0.39903742
213	0xbdcdb77b	-0.10044762
214	0x3de43cee	0.11144434
215	0xbe15287c	-0.14566225
216	0x3f0da7e0	0.5533428
217	0xbe002c85	-0.12516983
218	0xbe946790	-0.28985262
219	0xbe3cf1f7	-0.18451677
220	0xbcd4e52d	-0.025988186
221	0xbd11faa7	-0.03563943
222	0x3cc7ced4	0.024390616
223	0xbe46450c	-0.19362277
224	0xbe196a80	-0.14982033
225	0xbd6c8e02	-0.057752617
226	0x3de577f9	0.112045236
227	0x3e25393a	0.16135111
228	0x3d800fbb	0.06253
229	0x3dc15ce0	0.094415426
230	0x3ec069de	0.3758077
231	0x3e31d7e5	0.17367513
232	0x3e30a7c9	0.17251505
233	0x3eef29b3	0.467115
234	0x3d3daa02	0.04630471
235	0x3de08186	0.10962205
236	0xbed50223	-0.41603193
237	0xbe34ef8b	-0.17669503
238	0xbd31c0f4	-0.043396905
239	0xbe764d04	-0.24052817
240	0x3e80131b	0.25014576
241	0x3de2ea9d	0.11079905
242	0x3e0d0cfe	0.13774487
243	0xbed227ea	-0.41046077
244	0x3bce8c3a	0.0063033374
245	0xbea14b64	-0.3150283
246	0xbd66f4cb	-0.056385797
247	0xbecc4f35	-0.3990418
248	0xbd5d84b8	-0.05408165
249	0x3da555ec	0.08073029
250	0xbe79850f	-0.24367164
251	0xbd8b1382	-0.0679083
252	0xbd8d4638	-0.06898159
253	0xbde3ee04	-0.11129382
254	0x3ec82b3b	0.39095482
255	0x3e6bc593	0.23024587
