models/other/model48168.pth (torch, 95403 bytes, 16 tensors)

conv2d_1.weight f4 [8, 1, 2, 2]
000000 98 c6 19 3f 47 2e ed bc 79 0f e4 3e 2c 31 cf bc
       0.60068655 -0.02895273 0.44543055 -0.025292002
000010 19 07 a6 3e a7 d6 e5 3d b9 54 e8 be b7 c9 6a be
       0.3242729 0.11222582 -0.45377138 -0.2292851
000020 7b e1 9d 3e d1 7f 6f 3e 87 f3 d6 be 7d 73 ab be
       0.3083609 0.23388602 -0.41982672 -0.33486548
000030 2c a2 9f be 07 a8 9d 3d 49 75 8b 3e f2 1b c8 be
       -0.31178415 0.07698064 0.2723792 -0.3908382
000040 85 9a a6 be 19 62 eb bd d9 93 fe 3e 75 05 1c 3f
       -0.32539764 -0.1149332 0.49722174 0.60945827
000050 4a 75 1b 3f f5 d8 86 3d f3 03 e7 3e 48 bc 7e be
       0.60725844 0.0658435 0.451202 -0.24876511
000060 aa 46 ed 3b a3 fa c9 be 18 89 70 3e 1e a5 ff bd
       0.00724109 -0.39449033 0.23489797 -0.124826655
000070 4e 01 85 bd 98 c9 30 3f dc 60 41 be 13 1d 0d 3e
       -0.064943895 0.6905761 -0.18884605 0.13780622

conv2d_1.bias f4 [8]
000000 b5 8f 80 be 48 41 b9 3d 69 65 b4 3d 41 84 30 3e
       -0.2510964 0.090456545 0.08808405 0.17237951
000010 8c 8f 30 be 9d 74 8e be 8f d1 5b 3e 77 f5 a4 be
       -0.17242259 -0.27823344 0.21466659 -0.32218525

conv2d_2.weight f4 [16, 8, 3, 3]
000000 d8 66 60 3d c0 e4 ae bd 9b 47 8c 3d 4e af a5 3c
       0.05478558 -0.08539724 0.06849595 0.020225193
000010 c5 ca ed bd fb 47 e1 be b3 59 55 bd 2b 86 f7 be
       -0.11610941 -0.4400023 -0.052087497 -0.4834455
000020 03 9a 21 be f7 dd 91 be f7 af 4c bc 4c 1c 84 3e
       -0.15781407 -0.28489658 -0.012493125 0.2580284
000030 35 75 c3 3d f1 33 b8 3d da ba 71 bc 45 11 48 3e
       0.0954384 0.08994282 -0.014754022 0.19537838
000040 c2 d4 16 3e 3b 99 39 bd 0e db 9a be 7b 64 fa 3d
       0.14729598 -0.045312148 -0.3024525 0.122261964
000050 4e 0e 83 3e 5e 39 ea 3d 95 66 71 bb 23 46 a3 3c
       0.2559685 0.11436723 -0.0036834825 0.019930905
000060 8e ed 69 3e a2 80 f4 3d b9 68 54 bd 25 ea 85 bd
       0.22844526 0.11938597 -0.051857684 -0.065388
000070 c2 54 90 bc d5 03 8e 3d ae b6 36 be 93 91 0c bd
       -0.01761854 0.06934325 -0.17843124 -0.034318518
000080 23 7f 3a be 28 02 f9 3e 34 b9 51 3c c3 9b a9 3d
       -0.18212561 0.48634458 0.0128005035 0.08281662
000090 65 28 28 3e 70 4d 20 bd 7c 63 61 3e f5 ec 64 bf
       0.1642166 -0.03913635 0.22010607 -0.8942407
0000a0 9d 30 c3 bf 74 16 a7 be 6a b9 ed be e1 b8 c3 bf
       -1.5249211 -0.32634318 -0.46430522 -1.5290796
0000b0 c3 df fb bd 5b e4 1e bd 9d 81 0f 3e c3 53 88 3d
       -0.122985385 -0.038791995 0.14014287 0.06656601
0000c0 46 82 97 3d e9 1d 09 3d 6d 9b 1d bf 43 62 a5 bd
       0.073978946 0.03347579 -0.61565286 -0.080753826
0000d0 85 7c 92 be 26 9a ab bf 55 55 2b bd c6 69 d2 3a
       -0.28610626 -1.3406417 -0.041829426 0.0016053251
0000e0 c5 43 35 3d 0b 9d c4 bd 07 5c 3d bd 8a ac 81 3c
       0.044254083 -0.09600266 -0.046230342 0.015829343
0000f0 66 c2 0a 3e 46 b3 54 bc d6 7b a5 bd 0b 68 72 3d
       0.1355072 -0.012982195 -0.080802605 0.059181254
000100 8c 5e 92 bf 33 fd f7 3d 32 51 40 3e 4e 8f 67 c0
       -1.1435103 0.12108841 0.18780974 -3.6181216
000110 b7 30 29 3e 07 5a a1 be 81 26 b8 bf bd c2 5c bd
       0.1652249 -0.31513998 -1.438675 -0.053896654
000120 05 e2 47 3c f3 89 79 bd 0d df eb bd e2 e7 b1 bd
       0.012199883 -0.060922574 -0.11517153 -0.08686806
000130 42 fd 86 bc 3c 0c a3 bf 63 6c ea bd ad 03 9f 3e
       -0.016478185 -1.2738109 -0.114464544 0.31057492
000140 c1 4d aa bf a0 46 03 be 45 8e 17 3e d1 2d 39 3e
       -1.3304979 -0.1281991 0.14800365 0.18083884
000150 aa e9 c5 be 1e 49 40 be 8a 05 7b 3e e4 72 1f bd
       -0.38654834 -0.18777892 0.24513832 -0.038927928
000160 dc 47 c1 3e a9 f9 2b 3d 30 bc 16 be 68 37 50 3e
       0.37750137 0.04198614 -0.14720225 0.20333636
000170 8d 8c 0e 3e ca ef ec be 8b 2b fb bd be 60 8f 3e
       0.13920803 -0.46276695 -0.122641645 0.28003496
000180 49 39 18 3d e8 7f 9a 3e fc ad 82 3c 84 3b c7 be
       0.037164006 0.3017571 0.015952103 -0.38912594
000190 ba 29 ad 3d 8d 2b b9 be 3a 3e 68 bf ca b6 2a 3e
       0.08455224 -0.3616604 -0.9071995 0.16671291
0001a0 68 29 83 be 19 9b c2 bb 7f 0e 40 3e 75 74 dd bd
       -0.25617528 -0.0059388992 0.1875553 -0.10813228
0001b0 a3 23 97 3d 35 a1 84 be 4e 1d 8d be 26 67 1b 3e
       0.07379844 -0.2590424 -0.2756142 0.15176067
0001c0 92 6d 18 bf e6 4c 9d be 8e 03 92 3e ef aa b0 bd
       -0.5954219 -0.3072273 0.28518337 -0.08626353
0001d0 57 2d 5f be 94 a3 39 bd 6f 1e 98 3c e9 0f 59 bd
       -0.2179464 -0.045322016 0.0185692 -0.05299369
0001e0 72 d7 80 be ee f0 f1 bc 4c a2 1e bf f9 2d 97 be
       -0.25164372 -0.02953383 -0.61966395 -0.29527262
0001f0 e4 2c c5 3e c3 38 60 c0 39 80 d1 bc 69 af 23 3d
       0.3851081 -3.5034645 -0.025573837 0.039962206
000200 39 93 6f be 99 06 a7 be 07 b9 da 3c 7d d6 13 bf
       -0.23396005 -0.3262222 0.026699556 -0.5774916
000210 e1 ee 3c bf 53 82 f7 3d 43 89 36 bf a3 5c 39 3c
       -0.73802 0.12085404 -0.71303195 0.01131359
000220 50 d0 cb 3e ec bd 79 3c 36 8b e9 3d c4 03 94 be
       0.39807367 0.015243035 0.114035055 -0.28909123
000230 a9 bb 95 3d 29 dc 0c 3f 72 dd 00 3f bc a2 eb 3e
       0.07311184 0.5502344 0.503379 0.46022594
000240 a4 de 8a bd 35 8d 5a 3d 4e d1 f1 3d e3 df cc 3d
       -0.067807466 0.05335732 0.118075 0.100036405
000250 9d fe b7 bc 68 0f 2a 3e 29 1b 2d 3c 69 8f e8 3b
       -0.022460276 0.1660744 0.0105655575 0.007097174
000260 ff d7 31 bb 98 92 54 be 87 1d 45 bf 1f f2 07 be
       -0.00271368 -0.20759046 -0.7699818 -0.13275956
000270 51 61 3a 3b dc 3f 62 3e c8 2a 52 3d 28 93 66 bd
       0.0028439353 0.22094673 0.05131033 -0.056292683
000280 36 46 0e be 91 f2 67 3d 8e 23 7a be 32 30 77 bf
       -0.13893971 0.056627814 -0.24427626 -0.96557915
000290 c9 e7 a0 3c ad 39 c9 3d 73 10 39 3e 70 77 04 3d
       0.019641774 0.09825454 0.18072681 0.032340467
0002a0 19 5a d3 bc 0e 91 d5 bd 55 2d 4f 3d b2 92 67 bc
       -0.025799798 -0.104280576 0.05058034 -0.014134096
0002b0 68 87 17 c0 0f 9d 63 3d 73 f2 4a 3e 2b 30 f4 bd
       -2.3676395 0.055569705 0.1981905 -0.1192325
0002c0 75 51 07 be fa 14 ab be 7d 4a c0 3e 72 55 45 be
       -0.13214667 -0.3341444 0.3755683 -0.19270876
0002d0 28 9d 6f 3e 69 bc 9a 3e 23 07 33 3e ca 16 81 3c
       0.23399794 0.3022187 0.17483191 0.015757937
0002e0 06 a6 d6 3c 0c 88 80 bd 9e 66 5e 3e fd 8f 8f 3e
       0.026202213 -0.06275949 0.21718833 0.28039542
0002f0 95 bf 78 be 6f b9 46 be 4b 4a a4 3c d8 9e 27 3e
       -0.24291833 -0.19406675 0.020054957 0.16369188
000300 70 28 9a 3d 24 f6 d5 bc 65 42 e3 3d 9e 2d 91 be
       0.07527244 -0.026118346 0.11096648 -0.28355116
000310 14 73 17 be eb 58 0a 3d f7 8f 68 bd 65 ec 35 be
       -0.14789993 0.033776205 -0.05677792 -0.17765959
000320 94 72 08 bc 3d 7f 09 bc 64 45 31 c0 fc 6e 52 3d
       -0.008328099 -0.008392152 -2.7698603 0.051375374
000330 69 dd b6 3c 77 22 78 c0 94 17 85 3d 2b 9d 7b 3e
       0.022322373 -3.8771036 0.06498638 0.24571674
000340 3c d4 b3 3e 2e 14 d6 be da 91 a5 bb 62 0b 0f 3f
       0.3512286 -0.4181227 -0.0050527873 0.55876744
000350 f5 23 b4 be 1a 7d dc 3b 4c 99 bd 3d 4d 29 66 bf
       -0.35183683 0.0067287805 0.09257755 -0.8990677
000360 9a e1 d2 bd d1 a4 dc 3e 18 61 14 bd 8a 6b 85 3d
       -0.10296936 0.43094495 -0.03622541 0.06514652
000370 f4 e6 01 bf 72 f4 6c 3c 99 23 15 3e 5d bb 9d bf
       -0.5074303 0.014462577 0.1456436 -1.2322804
000380 4e 1c af 3d 86 02 6b 3e fb 33 b8 3e f1 c8 7c be
       0.085503206 0.22950181 0.35977158 -0.24686028
000390 11 59 4f 3e 81 e2 cb 3e 9d c4 cc be cc 00 57 3e
       0.2024882 0.39821246 -0.39993754 0.20996398
0003a0 e8 a8 5b 3d 64 00 aa bb 6f de 8b 3e 48 d4 b5 3e
       0.05362788 -0.005188035 0.2731814 0.3551352
0003b0 6e 10 0e be 67 e0 89 3e e1 d7 ca 3e 83 d9 9f be
       -0.13873455 0.26929018 0.39617828 -0.31220636
0003c0 b2 00 59 3e fa 1f 53 bb 31 90 f4 3d ee 8b 4d 3e
       0.21191671 -0.0032215104 0.11941565 0.2007291
0003d0 d7 77 09 bd 17 bf 6f bd 52 12 f0 3d f1 6c cd be
       -0.033561554 -0.058531847 0.11722244 -0.40122178
0003e0 3c ac 65 3e 90 cd 30 3e 81 ea 8a 3e 43 e0 da 3d
       0.22428983 0.17265916 0.27132037 0.10687306
0003f0 5a fe 30 be df 17 ee be af bb 3e 3e 28 ee c3 bf
       -0.17284527 -0.46502587 0.18626283 -1.5307055

conv2d_2.bias f4 [16]
000000 da b4 cc 3e f7 17 35 3e cb 3e 47 bd 1d 0f 93 be
       0.3998173 0.17684923 -0.04864387 -0.28722468
000010 f8 d5 d3 bd ae b4 c3 3e 24 c6 c9 3e ca 4a bc 3e
       -0.10343546 0.38223785 0.39408982 0.3677581
000020 c4 57 b9 3e bd ca 83 3c ea b5 68 3e 27 25 9b 3e
       0.36199772 0.016087884 0.22725645 0.30301782
000030 4b 69 9f be a5 80 bd 3e c9 c8 d6 3d 4e 83 5f be
       -0.3113502 0.3701221 0.104875155 -0.21827433

conv2d_3.weight f4 [32, 16, 4, 4]
000000 a0 3e c8 be 2b 5b 6a 3b c0 7f 55 be ed 35 38 3d
       -0.3911028 0.0035759907 -0.20849514 0.044973303
000010 23 ee 70 bd b2 95 b1 bc 25 d0 cd 3e 82 c8 49 3e
       -0.058820855 -0.021677826 0.40197864 0.19705394
000020 98 31 7d 3e 55 02 14 3e 14 05 79 3e 2a d7 46 3e
       0.2472595 0.14454015 0.24318343 0.19418016
000030 a1 07 3c bc 26 e8 f4 bc a7 3a 70 3e f6 be 4d be
       -0.011476428 -0.029895853 0.23459874 -0.20092377
000040 c5 bd 0f bd 71 96 55 bc 28 84 26 be 96 0e 28 be
       -0.035093088 -0.013036356 -0.16261351 -0.16411814
000050 29 54 59 be ca b8 4a bc c6 3d 5a be 43 46 6a be
       -0.21223511 -0.012373159 -0.21312627 -0.22878365
000060 f1 13 35 be 19 b7 aa 3d a0 66 9d be c0 12 da be
       -0.17683388 0.08335704 -0.3074236 -0.4259243
000070 bf 89 d3 bd 70 f4 4c 3e 3c 4e c7 be d2 57 8c be
       -0.10329007 0.2001512 -0.38926876 -0.27410752
000080 ec 25 b4 3d 92 67 00 bd 57 a6 80 3e 3c 67 f6 3d
       0.087962955 -0.031348772 0.25126907 0.12031409
000090 15 33 8b 3c 62 bf 9e bd e6 5f 1d 3e 29 e6 06 be
       0.016992131 -0.07751347 0.15368614 -0.13173737
0000a0 f2 98 83 3b e6 f8 a2 3c 8d e3 97 3d 12 02 8b be
       0.0040160352 0.019894075 0.07416449 -0.27150017
0000b0 33 a6 7d ba 20 7f 4e 3e 12 01 04 3d b8 71 95 be
       -0.00096759497 0.20165682 0.032227583 -0.29188323
0000c0 b5 5a c7 3e e2 bd 26 be 06 4a 98 3d de 07 9c be
       0.3893639 -0.16283372 0.07435994 -0.30474752
0000d0 9b 34 93 3e 73 8a 52 be f2 44 11 3d ac 6a 90 be
       0.28751072 -0.20560627 0.035466142 -0.28206384
0000e0 6e fa 53 3e a2 57 ce be f1 d4 bf 3d 09 1e e4 bd
       0.20701 -0.40301234 0.09366787 -0.11138541
0000f0 20 9e 4f 3e 37 6b a7 be c4 87 c8 3e 3b 83 5c 3e
       0.20275164 -0.32698986 0.3916608 0.21534435
000100 59 7a e4 3e e4 0a 43 bd dc fd 82 be 39 93 0f bf
       0.44624594 -0.047617808 -0.25584304 -0.5608402
000110 b1 50 d9 3e 0a 11 06 bd 7c e2 61 be ce b9 0b bf
       0.42444375 -0.032731093 -0.22059053 -0.5458039
000120 5a ad 00 3e 95 7b 4c bd b7 8e cd bb 69 79 17 bf
       0.12566128 -0.049922545 -0.0062731165 -0.5916963
000130 5d 71 85 3d 98 c0 d5 ba 31 6f 03 bf 18 97 3c bf
       0.06515763 -0.0016308008 -0.5134154 -0.7366805
000140 58 66 8a bd 97 14 74 3e 35 9e 50 be 08 1d 32 3e
       -0.06757802 0.2383598 -0.20372851 0.17393887
000150 63 60 96 3e 96 d8 80 3e 2f 95 23 be c9 1c 71 3e
       0.29370412 0.25165242 -0.15974878 0.23546137
000160 a5 c1 0b 3f f1 8e 70 3e 22 52 d6 3e 9d 3f 0f 3f
       0.54592353 0.23492028 0.41859537 0.5595644
000170 28 e0 97 3e 7b 83 dc bd e3 53 0d 3f b8 45 61 3e
       0.29663205 -0.107672654 0.55206126 0.21999252
000180 4a d1 28 3f fd 1f f2 3e 35 53 97 3e 37 aa fd 3d
       0.6594435 0.4729003 0.2955567 0.123859815
000190 49 87 a0 3e e2 aa 12 3e a7 8d 8c 3e f6 bc f9 3d
       0.31353214 0.14322999 0.27451822 0.121942446
0001a0 59 00 89 3f fc d2 aa 3d cd b3 c8 3e b6 12 67 3e
       1.0703231 0.08341023 0.39199677 0.22565731
0001b0 62 8e 18 3f 19 03 c7 be 4e 24 b5 3e 6c b2 18 3e
       0.5959226 -0.3886955 0.3537926 0.14911813
0001c0 a8 de 8d be f6 fc 3f 3d dd 86 64 be 74 c8 60 be
       -0.27708936 0.0468721 -0.22317071 -0.21951467
0001d0 82 28 ba 3d fa 41 90 3c 76 98 40 3c 0f c4 59 3d
       0.090897575 0.017609585 0.0117550995 0.05316549
0001e0 fc 57 5c bd 11 aa 3c be 22 e2 a7 3e 5b 7c d2 3e
       -0.053794846 -0.1842425 0.32789713 0.411105
0001f0 f8 53 5c bd c9 0c 70 be 31 cb e5 3d 7e 71 31 3e
       -0.053791016 -0.23442377 0.11220396 0.1732845
000200 bd fb bb 3d 18 db df bd 60 d3 7c be a6 cf c7 be
       0.09178875 -0.10930461 -0.24690008 -0.3902561
000210 e3 87 ff 3d 79 3b e8 bc 4a 8f b2 bc fa 5a e1 bc
       0.1247709 -0.028348671 -0.021796841 -0.027509201
000220 85 94 53 3e 61 f7 21 3d 71 e7 cd 3e f4 24 08 3e
       0.20662124 0.03954256 0.40215638 0.13295346
000230 84 3b 6f 3e ea 12 ec bc a5 10 d9 3e c0 d9 93 bc
       0.23362547 -0.028817613 0.4239551 -0.018048167
000240 9c a3 21 3f be b2 98 be b9 a0 ca bd 07 14 b7 be
       0.63140273 -0.2982387 -0.09893937 -0.35757467
000250 8e 2d 1a 3f d4 e2 83 be b7 af 15 be 54 72 bb be
       0.6022576 -0.25758994 -0.14617811 -0.36610663
000260 95 b1 42 3e 4d 26 17 bd d0 b6 b8 3c de b0 a9 be
       0.19013055 -0.03690176 0.02254811 -0.3314275
000270 75 07 5f 3e 04 4a 93 bd 53 e6 96 3e b2 87 1b be
       0.21780188 -0.07191852 0.29472598 -0.15188482
000280 eb 1e 43 3f 6d 68 b5 be 3b f7 fc bd e8 3d 28 be
       0.7621905 -0.35431233 -0.12351843 -0.16429865
000290 2b 55 f4 3e 59 44 79 be a2 ec 7f 3d 03 d0 e7 3c
       0.47721228 -0.24342479 0.06248153 0.02829743
0002a0 de 16 bb 3e df 46 79 3d 15 7c 35 3e e1 1c 15 3d
       0.36540884 0.060858604 0.17723115 0.036404494
0002b0 e1 cd ac 3e 6e cf 4b be 58 e9 53 bc 38 5f 3c 3e
       0.33750823 -0.19903347 -0.012934051 0.18395698
0002c0 d5 1f d3 3e 82 4a 05 3e ce 2b 56 be b2 1f 3b bf
       0.41235223 0.13016704 -0.20915148 -0.7309524
0002d0 dc 81 ba 3e a6 61 07 3e f9 53 69 be 69 f8 0d bf
       0.364272 0.13220844 -0.2278594 -0.5545717
0002e0 0a 9a b2 3e e5 67 a0 3c 1a 7f df be e6 e3 01 bf
       0.34883147 0.01958079 -0.43651658 -0.5073837
0002f0 c8 04 e4 3e 45 f7 8d bd fc cd 14 be 0a d0 93 bd
       0.44534898 -0.069319285 -0.14531702 -0.07217415
000300 41 6d 86 3e 26 48 31 be 25 7a 25 bd ef 35 ff bc
       0.2625523 -0.17312679 -0.04039969 -0.031153647
000310 56 a5 6c bd bc eb c4 be f4 69 00 be 33 69 64 be
       -0.057774864 -0.384611 -0.12540418 -0.22305755
000320 2f c6 01 be fd 7f 56 be 1c a2 03 be e5 7b a3 3d
       -0.12673257 -0.20947261 -0.12854809 0.079826154
000330 0c 6c 50 bd a7 2a 97 3e 5b fb 9f 3d 3b 85 de 3e
       -0.05088429 0.2952473 0.07811614 0.43461022
000340 6c ef cf 3e 23 54 04 3e 0d 04 f0 be 30 11 2d bf
       0.40612352 0.1292272 -0.4687809 -0.6760435
000350 19 73 e6 3d 31 61 15 bb 72 9f 9d be 32 b0 de be
       0.11252422 -0.0022793526 -0.3078571 -0.434938
000360 fd 58 2b 3e 1b 9a ca 3e 1d 52 99 bd ff 03 1a 3b
       0.16733165 0.39570698 -0.07486365 0.0023500917
000370 ba 15 22 be 67 5e 25 bf be 7e bd 3d 75 b5 d7 3d
       -0.158286 -0.6459717 0.0925269 0.10532657
000380 eb 3b 43 bb 01 19 2b 3c d1 47 af 3e c9 2e 0e be
       -0.0029790353 0.010442973 0.3423448 -0.13885035
000390 ea ae a7 bd db 21 32 bd f7 14 6b 3e b7 70 24 be
       -0.08187659 -0.04348932 0.22957216 -0.16058622
0003a0 fa 79 70 bd da f9 ab bd 1f ec 9f 3e 84 5b 28 be
       -0.058710076 -0.08397265 0.31234834 -0.1644116
0003b0 2f fd 08 3d cc 1a d3 3d 11 1f 0e 3f 3e cc 79 be
       0.03344458 0.103078455 0.55516154 -0.24394318
0003c0 57 4b 96 3e dd e9 19 3d 85 7f 7b 3d 27 e3 bf 3c
       0.29354355 0.037576545 0.06140091 0.023423744
0003d0 56 79 b5 3a 1d 21 60 bd e6 a3 4d 3e 1c 25 93 3d
       0.0013845365 -0.05471908 0.20082054 0.071848124
0003e0 3d 47 7e bc 32 f6 82 3b 9a 66 1d 3e 26 49 d9 3d
       -0.015519914 0.003996634 0.1537117 0.10609655
0003f0 db 0f 1d 3d 74 3d 30 3e c1 64 57 3e ed 6c f8 3e
       0.0383452 0.17210943 0.21034528 0.48520604

conv2d_3.bias f4 [32]
000000 b1 af eb 3e 2e aa 44 be 7f 8a 92 be e4 6e 35 be
       0.4603248 -0.19205543 -0.2862129 -0.17718083
000010 d6 27 72 bc c1 7a 46 bd 5a 93 65 3e e1 31 d9 bc
       -0.014780005 -0.04845691 0.22419491 -0.026513042
000020 4b 67 c2 3e 98 43 2e be 24 8c 76 3d ac 62 ef 3d
       0.3796943 -0.17017972 0.060192242 0.11688742
000030 4c 7c 01 3d 85 03 02 bd f4 97 02 3f 6d eb 4b 3e
       0.03161268 -0.031741638 0.5101311 0.19914027
000040 60 ad e0 3e 78 a2 9e be 74 de ea 3e ca 2a 4e be
       0.43882275 -0.3098333 0.45872843 -0.2013351
000050 d8 7b 4e be 18 f6 3e 3c 7a 3f 86 3e e4 39 8a 3d
       -0.2016443 0.011655353 0.26220304 0.06749323
000060 df 01 df 3e 0f 61 81 3d 8e d4 e3 3e 70 30 3c be
       0.43556115 0.063173406 0.44498104 -0.18377852
000070 07 a8 72 3d 32 b6 a2 bc 23 ab 8d 3e e0 f7 5f 3e
       0.059242275 -0.019862268 0.2766963 0.218719

lstm.weight_ih_l0 f4 [64, 128]
000000 2b c5 4b 3e be bc 23 3f 2f 26 81 be ed d2 a1 3b
       0.19899432 0.6395987 -0.25224444 0.0049384744
000010 c3 75 d4 3d 2f 2e a1 3e a8 39 d0 bd 43 68 13 3d
       0.10374024 0.31480548 -0.10167247 0.035988104
000020 cd e3 4e 3e ce 58 24 be f1 ac 2f be 53 8f fc 3d
       0.20204087 -0.16049501 -0.17155816 0.123320244
000030 2b 74 8b 3f 00 66 32 3e 1e 62 6d be 61 30 0e 3e
       1.0894827 0.17421722 -0.2318196 0.13885643
000040 50 3e c2 3f ea 60 c3 3d cf 6b 24 be 6c f7 c2 3d
       1.5175266 0.09539969 -0.1605675 0.09519848
000050 45 2c 8b 3f 37 b2 5a be 1b 7f 40 bd 2c f9 82 3d
       1.0872885 -0.21357046 -0.046996217 0.06395182
000060 84 77 71 3f ac b5 d2 be bc d1 5c 3d 2d 5a db bc
       0.9432299 -0.4115423 0.053910956 -0.026776398
000070 74 95 82 3f 78 5d 31 bf bd c9 d2 3e f5 0f 40 be
       1.020186 -0.69283247 0.4116954 -0.18756087
000080 d5 39 68 3f 48 d7 2e bc 21 cb 4f 3e 49 8e 99 bd
       0.90713245 -0.010671444 0.20292331 -0.07497842
000090 2a 98 cc 3e 9f 65 f5 3e e0 e1 3e 3e d7 1d c7 b9
       0.39959842 0.47929093 0.18640852 -0.0003797847
0000a0 45 46 28 3e 47 44 8a 3f 61 71 78 3e 6b c6 1d bd
       0.16433056 1.0802087 0.24262 -0.038519304
0000b0 4d e1 6f bd 17 48 7d 3f 40 cd 88 3e e8 23 d5 bc
       -0.058564473 0.98938125 0.26719093 -0.026018098
0000c0 10 a2 af 3d 90 43 60 3f 3e 48 b1 3d fe 6d fc bd
       0.08575833 0.8760309 0.08656357 -0.12325667
0000d0 9c 6a 63 3e 42 9b 52 3f a8 13 d3 3d 32 d1 73 3d
       0.22208637 0.82268155 0.103064835 0.059525676
0000e0 88 6f 1f be e9 5a 1c 3f 30 c4 da bd e2 01 81 3d
       -0.1556989 0.6107622 -0.10681951 0.06299187
0000f0 2a 1f 3d be 5b 8b 9c 3e 38 47 0b be b6 bd 79 be
       -0.1846892 0.3057507 -0.13601387 -0.24388775
000100 e0 d7 aa be 95 b8 16 bd 2f 8e ec be b5 3d 2a 3e
       -0.33367825 -0.036797125 -0.46202227 0.16625102
000110 46 9e d3 3a 4b a3 8b bd 07 8a f5 bc 3b 81 ec bd
       0.0016145192 -0.06818255 -0.029973043 -0.11548086
000120 69 02 d6 3d 50 c2 eb 3c 23 2e 03 be 4f 8c 2e be
       0.104496785 0.028779179 -0.12810569 -0.17045711
000130 37 cf e1 3d 04 85 1d be 2a 78 c5 bd 29 c1 b4 3d
       0.11025851 -0.15382773 -0.0964206 0.08825905
000140 53 97 12 3e 0f 03 c1 be 99 d6 ff bd 98 12 54 3e
       0.14315538 -0.37697646 -0.12492103 0.20710218
000150 0a 52 da bd 33 be 99 be 0f 65 23 bd 85 2b a8 3e
       -0.10660179 -0.30027923 -0.0398913 0.32845703
000160 44 ae 68 be 29 4e a0 be 51 f0 18 3d cf 44 a4 3e
       -0.22722727 -0.3130963 0.03733856 0.32083747
000170 77 3b e3 be 78 84 46 be e0 bc 69 be 8a a7 40 3e
       -0.44381306 -0.1938647 -0.22825956 0.18813911
000180 43 4e 06 bd f9 22 5c 3e 1f 39 a5 3e 80 74 f4 3d
       -0.03278948 0.21497716 0.32270142 0.11936283
000190 b8 86 f7 bd bb 2e d1 3e 58 7a 8c 3d fd 4f 35 bd
       -0.120862424 0.40855965 0.06859273 -0.044265736
0001a0 dd 9e 02 3e 03 71 ae 3e 2e a0 29 be 6e 75 8e be
       0.12755914 0.34070596 -0.1656501 -0.27823967
0001b0 84 f6 5c 3e 41 23 fa 3d 75 6b dd bd 59 96 ca bd
       0.21578413 0.122137554 -0.108115114 -0.09891958
0001c0 0e 6e 02 be 57 a7 09 3d b8 fd d4 be a8 35 6f bd
       -0.12737295 0.033606853 -0.41599822 -0.05840078
0001d0 b6 45 60 3e 60 60 0c 3f 77 d6 15 be 2d 5e b6 3e
       0.21901593 0.54834557 -0.14632593 0.35618725
0001e0 be d0 cc 3c dd f5 94 be d4 3a 15 be a0 bf a3 bb
       0.02500188 -0.2909383 -0.14573222 -0.0049972087
0001f0 b6 f3 e5 3e c2 c5 0f bd 35 08 2a 3d ab f4 55 3e
       0.449125 -0.035100706 0.041511733 0.20894115
000200 05 78 c5 3d c6 63 6e 3f 31 f3 c4 be dc 9d be 3b
       0.096420325 0.9312099 -0.3846679 0.005817158
000210 13 56 3c 3e f6 53 4c 3f 5b da d5 3d 6a 71 73 bd
       0.1839221 0.79815614 0.104420386 -0.059434332
000220 d3 df 18 bd 5f f6 30 3f 38 58 55 3b da 3b 11 be
       -0.03732283 0.6912593 0.0032553803 -0.14182988
000230 e3 8d 6c be 79 7c 31 3f bf c6 ad bc 78 26 4f be
       -0.23101 0.69330555 -0.021212934 -0.20229518
000240 77 30 d3 be dc ac 55 3f fc 24 dc bd 99 4b b6 be
       -0.41247913 0.8346689 -0.10749242 -0.3560455
000250 b9 21 e1 be 78 d6 7f 3f a8 25 16 be f0 7e dd bd
       -0.4397104 0.9993663 -0.14662802 -0.10815227
000260 81 01 8b be bc 8b a0 3f 3b c5 2a bc 16 70 56 be
       -0.27149585 1.2542644 -0.010423 -0.20941195
000270 8d e0 73 be cc e9 af 3f c9 83 9b 3e bb 33 32 3d
       -0.23816128 1.3743224 0.30373982 0.043506365
000280 46 7c 03 be df 71 4e 3f 8b ac 1e 3e ac be d5 3d
       -0.12840375 0.80642503 0.15495507 0.104367584
000290 6b 1b 97 be 6b 6d 87 3d a2 9d 32 3e ae b1 de 3e
       -0.29513106 0.06612667 0.17442945 0.43494934
0002a0 c4 1f d6 bd 4f 54 41 bd b7 3a 4e be 0d e6 00 3e
       -0.104552776 -0.047199544 -0.20139585 0.12587757
0002b0 90 64 e9 bc 2d b4 61 3d 14 73 dd bc 84 35 9b 3c
       -0.028490335 0.05510347 -0.027032413 0.018946417
0002c0 34 b1 98 3e bf 59 97 3d c4 c0 22 be 5e 74 27 be
       0.29822695 0.073901646 -0.15893847 -0.16352984
0002d0 97 5e 6d bd 72 e8 7e 3d be ce 99 39 6c 44 25 be
       -0.057951536 0.062233396 0.0002933647 -0.16139382
0002e0 75 62 64 be e0 51 c1 3e e7 f4 4f 3c 43 56 a2 be
       -0.22303183 0.37757778 0.012692667 -0.31706437
0002f0 50 54 ad be 82 98 80 be 75 39 ef 3d 11 5e 42 be
       -0.33853388 -0.25116354 0.11680881 -0.18981196
000300 66 ff 0a 3f c9 eb d9 be 2d 62 fd 3e f9 3b de 3e
       0.5429596 -0.42562702 0.49488965 0.4340513
000310 26 84 f8 3d c7 9a fc be 34 bc d5 3e 00 60 1a 3f
       0.1213458 -0.49336836 0.4174515 0.60302734
000320 be e0 4a be 44 2d 9b 3f 57 7c 2d bd e0 43 20 3e
       -0.19812295 1.2123189 -0.042354908 0.15650892
000330 b3 ec c5 bb 38 d9 00 40 b2 cd a5 be d1 b3 8b be
       -0.0060401796 2.013258 -0.32383496 -0.27285627
000340 dd 8e 14 3e c7 37 87 3f 37 ac 8a 3e e6 8f 99 bd
       0.14507623 1.0563897 0.27084514 -0.074981496
000350 c0 21 a6 3d 54 01 96 3f ab 27 c2 3e db 79 7f be
       0.08111906 1.1719155 0.3792089 -0.24948828
000360 50 02 7a 37 02 45 1d 3f ba 01 49 be 00 99 03 3d
       1.49017e-05 0.6143342 -0.19629565 0.032128334
000370 c2 02 18 bd 52 1c 22 3f f0 9d 73 be 49 66 cb 3e
       -0.037112005 0.63324463 -0.23790717 0.39726475
000380 a3 11 02 3e 47 f1 9d 3e d8 34 01 3f 8f da ca 3e
       0.1270204 0.30848143 0.5047126 0.39619872
000390 c0 9f 33 3e 31 69 7f 3f aa 78 a7 3d 39 cb 4e 3e
       0.17541409 0.99769884 0.08177312 0.20194711
0003a0 56 01 af 3c d0 03 49 3f 5f 05 f3 3c 9b 89 ae 3d
       0.021362942 0.7852144 0.029665647 0.0852234
0003b0 a6 c4 ae 3c 2f 87 5a 3e ae 51 19 3c 34 c1 11 bf
       0.021334004 0.21340631 0.009357853 -0.5693543
0003c0 51 f4 4a bb f3 b8 86 3e a5 7b a3 3e bd a3 f3 bd
       -0.0030968378 0.2631298 0.3193027 -0.11896465
0003d0 37 71 08 bd 4a b1 64 3d 0c f6 e1 3e e9 cb 21 be
       -0.033311095 0.05583314 0.4413303 -0.15800442
0003e0 61 2d 27 3f e9 80 17 3d f8 24 fd bd 96 63 d3 3e
       0.6530362 0.036988173 -0.12360567 0.41286916
0003f0 9f fd 13 bf 84 71 88 3f 02 61 84 3e dd 7e 27 3f
       -0.5780887 1.0659642 0.2585526 0.65427953

lstm.weight_hh_l0 f4 [64, 16]
000000 54 91 f1 be 17 3b 9f 3e 07 66 30 bf 41 39 bc be
       -0.4718119 0.3109977 -0.6890568 -0.3676243
000010 e1 63 c9 be 0f dd a1 bf 32 18 6a be 43 56 e3 3e
       -0.39334014 -1.2645587 -0.22860792 0.4440175
000020 c0 ee f5 be 4d 95 8a 3e f8 66 28 bf bf 88 84 bf
       -0.48033714 0.27067032 -0.6578212 -1.0354232
000030 a1 25 3b bf 8d da 90 be 2e 0a 8b bf 96 ad 43 3f
       -0.7310429 -0.2829174 -1.0862482 0.76436746
000040 68 fb 28 3f 05 88 84 3e c7 b0 0b 3e 26 c9 b7 3e
       0.66008615 0.25885025 0.13641654 0.35895652
000050 02 18 48 3f 9e 75 8b 3f 50 5e 36 be de ca 26 3f
       0.78161633 1.0895269 -0.17809415 0.651533
000060 6e c4 fa 3f f8 0d 18 3f a2 1c d1 be 6c db dd 3e
       1.9591196 0.59396315 -0.40842158 0.43331468
000070 42 b2 46 bf 1b 3e f3 3d bc 7d 18 bf a2 6c 89 bf
       -0.7761575 0.1187708 -0.59566855 -1.0736277
000080 6e 9a 0d 3f cd 69 87 3d c2 97 70 3f 27 f7 6f 3f
       0.55313766 0.06611977 0.93981564 0.937365
000090 f6 dc 17 3f f5 8d a0 be 03 5f d7 3e 36 80 4a be
       0.59321535 -0.31358305 0.42064676 -0.19775471
0000a0 2c fe b4 be 2e 50 38 3f b6 b7 47 3f 76 96 5c 3e
       -0.35350168 0.71997344 0.78014696 0.21541771
0000b0 c3 69 ad be 97 59 59 3e 25 a3 60 bf ef 4a 02 bf
       -0.33869752 0.21225582 -0.8774894 -0.5089559
0000c0 c3 ba 2e bd 0a d2 23 ba 9a 7f 8e 3f 90 2b bd be
       -0.04265858 -0.0006249255 1.1132691 -0.36947298
0000d0 d6 d2 77 be 1b 1e 75 3f b4 63 f3 3d 5d cb 16 bf
       -0.24201521 0.9574906 0.11884251 -0.5890406
0000e0 88 bf 96 3e 98 82 d5 be 6d 29 f0 be ae 4d 25 be
       0.29443002 -0.41701198 -0.46906605 -0.16142914
0000f0 38 2a 18 bf f8 b4 2b 3f 4f 6e 90 be 7f 97 4c 3e
       -0.5943942 0.6707301 -0.2820916 0.19979666
000100 bd 95 01 be 25 9b 6b be bf a0 0c 3f 18 7d c8 be
       -0.12654777 -0.23008402 0.5493278 -0.3915794
000110 b3 9d ec 3e 30 ff ab 3f 04 21 c9 bd fd cb 94 3e
       0.46214065 1.3437252 -0.0982075 0.2906188
000120 6e a7 f2 be a5 3c 6e bf 1d de 47 3f 3c 04 19 bf
       -0.47393364 -0.93061286 0.7807329 -0.59772086
000130 c0 01 0f 3f b9 47 11 3e 14 ce ec be 20 ab 58 3f
       0.55862045 0.14187516 -0.46250975 0.84636116
000140 8d 3e 81 3f 4e ba 01 bf e1 be 85 be fc d0 45 bf
       1.0097214 -0.50674903 -0.26122192 -0.7727201
000150 50 35 87 3e 19 68 56 be 0d e0 0e 3f 4d 84 16 bf
       0.26407862 -0.20938148 0.55810624 -0.58795625
000160 05 44 cb be b4 ee 34 3f fd 15 4e 3f 37 9e b4 3d
       -0.39700332 0.7067673 0.805023 0.088192396
000170 89 dc 08 3f 56 fe ac 3f b3 38 d1 3f 9a 08 a5 3f
       0.5346151 1.3515117 1.6345428 1.289325
000180 ac 48 82 3f 87 19 26 bf 2e 03 07 3f 6e d3 86 3e
       1.0178428 -0.648827 0.52739227 0.26333183
000190 f7 03 3b bf b8 80 fd bd 0e 82 17 bf 8e dd 25 bf
       -0.73052925 -0.12378067 -0.5918282 -0.6479119
0001a0 3c eb 9f bd e8 8c eb be 26 c4 39 3f a3 0d 2a 3d
       -0.07808539 -0.4600594 0.72564924 0.04151691
0001b0 6f fb 1c bf 3a 68 31 3f 03 3d 3d be 46 b3 38 bf
       -0.6132116 0.6929966 -0.18480305 -0.7214855
0001c0 01 df c6 3c fa 82 43 3e 82 81 25 3e 8f 8a 09 be
       0.024276258 0.19092932 0.16162685 -0.13431762
0001d0 f9 6d 3b 3f ca 99 04 3f 61 12 f0 3e de 57 89 bf
       0.7321468 0.51797163 0.46889022 -1.072994
0001e0 88 5f 58 3e c8 40 ed 3e 8b bc 21 bf 34 17 e9 be
       0.21130192 0.46338487 -0.6317832 -0.45525515
0001f0 fa b8 3d be 5b 32 86 3e 07 39 88 bf 66 71 f5 be
       -0.18527594 0.26210293 -1.0642403 -0.4793808
000200 8c 47 92 3f 65 fa da be 14 8d 9f be e4 2e 92 bf
       1.1428084 -0.4276916 -0.31162322 -1.142056
000210 bf 8f d3 3e 22 31 91 be be a8 ac 3e 6c f8 7e be
       0.41320607 -0.28357798 0.3372249 -0.24899453
000220 1a 5c d9 3d 85 02 bc be 82 e8 bb 3d b6 ec 8a 3e
       0.1061327 -0.36720672 0.09175207 0.2713372
000230 36 5b 27 bf 21 08 ae 3e 6a 08 3b bf 1d 07 eb bd
       -0.6537355 0.33990577 -0.73059714 -0.11475966
000240 7c 39 da 3f 53 51 d4 be 77 f6 10 3f 49 89 63 3f
       1.7048793 -0.41468295 0.56626076 0.88881356
000250 14 3f 6b 3f 16 de 6e 3f a6 42 22 3e b9 7b d1 3f
       0.91893125 0.93307626 0.15845737 1.6365882
000260 54 9d 42 3f eb 57 0f bf be 12 99 3e 01 07 00 bf
       0.76021314 -0.5599353 0.29897112 -0.5001069
000270 a2 af 0f 3e 43 c9 5c 3d 04 e8 e0 3e 31 4d a1 bc
       0.14031842 0.053902876 0.43927014 -0.019690128
000280 eb 6d 32 bc 34 27 35 bf 0b 33 eb 3f c2 72 e0 3e
       -0.010890464 -0.70762944 1.8374952 0.43837553
000290 6e bf 71 be 20 b0 03 bf f3 e6 3c 3f 56 16 94 bf
       -0.23608181 -0.5144062 0.737899 -1.1569316
0002a0 59 12 a9 3f d8 c2 28 3e bb 61 82 3f 23 61 94 bf
       1.3208724 0.16480577 1.0186075 -1.1592144
0002b0 5c cf a8 bf 48 50 7a 3f 0f 57 89 3b 19 d6 90 3f
       -1.3188281 0.9777875 0.0041912864 1.1315337
0002c0 20 55 2e bf 2c 14 cf 3e 8b ff c6 3f af 11 a4 be
       -0.6809864 0.40445077 1.5546736 -0.32044742
0002d0 15 99 73 3e ef 21 7a 3f 80 1b 8d 3d c1 19 c2 3e
       0.23788865 0.9770803 0.06890011 0.37910274
0002e0 01 69 92 3f 3f 07 10 3f ec 65 88 bd 1b cc fb 3e
       1.1438295 0.56261057 -0.06660065 0.49179158
0002f0 a4 58 22 be 9d 92 be 3e 29 e0 06 3e a9 bd 56 bd
       -0.15854126 0.37221232 0.13171448 -0.052426968
000300 1b 34 68 3f 4e 15 60 3e a5 98 23 3f ef 4a 1a 3e
       0.90704507 0.21883127 0.6390479 0.15067647
000310 2d 81 55 3e ec c8 16 bf 49 62 9c bd 67 e8 bf be
       0.20850058 -0.5890033 -0.07635934 -0.37481996
000320 20 31 7e be a3 f0 9f 3e 74 e8 65 3f d7 ca 4c bf
       -0.24823427 0.3123828 0.8980782 -0.7999701
000330 52 9e d4 be b7 d8 2a 3f aa 6a 38 3f 7f ff 2d 3e
       -0.4152704 0.6673693 0.72037756 0.16991995
000340 7e 86 9f bd a5 dc 9d 3d c9 f7 b8 3f f1 46 d8 be
       -0.07789324 0.077081 1.4450618 -0.42241624
000350 61 43 c3 bc 1b 70 4a bf 3d 45 94 3e 58 7c a0 3c
       -0.02383584 -0.7907731 0.28959075 0.019590542
000360 a6 e9 55 3e b8 b1 82 3f fa 92 90 3e 64 fa 36 3d
       0.20889911 1.0210485 0.28237134 0.044672385
000370 07 65 2e bf f2 ce 1a bf 7f 3e 34 3e 9a c1 45 be
       -0.68122905 -0.60472023 0.17601965 -0.19312134
000380 9f d9 62 bf 83 f6 92 3f 27 db 09 3f 04 b0 3d bf
       -0.88613313 1.148148 0.53850025 -0.74096704
000390 a3 02 dd be 59 53 01 bf 9d 47 e4 3d 78 d0 da be
       -0.43166074 -0.50517803 0.11146472 -0.42737174
0003a0 c7 b1 8d bb 85 05 83 3f 2c 9c 14 bf fd 26 72 bf
       -0.004324171 1.023606 -0.580508 -0.9459074
0003b0 ea 63 28 bf 25 90 ae be e5 ee 80 bf 9f 4f e4 3f
       -0.65777457 -0.3409435 -1.0072905 1.7836798
0003c0 3e de 58 3f 19 24 46 bf b8 c0 04 be a5 09 fe be
       0.84714115 -0.7739883 -0.12964141 -0.49616733
0003d0 97 71 39 bc 5f d1 cd be bd d2 2b 3f 1f c3 96 be
       -0.011318586 -0.401988 0.67118436 -0.2944574
0003e0 22 c8 5f 3d 46 c7 f2 3e 76 6b 78 bc 9f ab cc be
       0.05463422 0.4741766 -0.015162339 -0.39974687
0003f0 8c 84 23 bf f9 39 90 be 8f 5d c6 bf e4 f3 1c 40
       -0.63874125 -0.2816923 -1.5497302 2.452386

lstm.bias_ih_l0 f4 [64]
000000 99 79 8f 3e 91 14 28 bc f3 b9 82 3e 89 2f 40 3f
       0.2802246 -0.01025881 0.25532493 0.7507253
000010 c6 e8 0f 3f 73 8a cb 3e e0 bd c1 3e 9b d9 80 bd
       0.5621456 0.39754066 0.37840176 -0.06291505
000020 7d 67 c6 3e 7b 3c d9 be 20 37 16 bc 25 fd f8 3e
       0.3875083 -0.42428955 -0.009168416 0.48630634
000030 4e 5c bd 3e 4c 3c 88 3e 68 ff 3e 3e 6a d7 fd 3e
       0.36984485 0.26608503 0.18652117 0.4957841
000040 92 32 e8 bd 1b ef fe 3d c9 19 e0 3e 89 4a 5e 3b
       -0.113377705 0.124479495 0.43769673 0.0033918938
000050 f9 9a 45 3d 85 88 1d be 33 29 b9 bc bd f7 bc bd
       0.048243497 -0.1538411 -0.022602653 -0.0922694
000060 f4 d5 9e 3e f0 fd 73 3d 89 e3 60 3e 79 5b 43 be
       0.31022608 0.059568346 0.21961798 -0.19077863
000070 51 7d d2 3e be 92 13 3e df cf 99 3d c7 46 e9 3d
       0.41111234 0.14411446 0.075103514 0.11390453
000080 b5 74 de be e8 c1 bc bd 17 fa 9d bc d3 39 bb be
       -0.43448415 -0.09216672 -0.019284291 -0.36567554
000090 a8 38 b5 bd e2 58 65 3c 23 38 81 be a5 9f 27 3e
       -0.08848697 0.013998242 -0.2523814 0.16369493
0000a0 b2 87 e0 3d 25 0e 90 3e 72 75 fe bc 08 85 a0 3e
       0.10963382 0.2813579 -0.031061862 0.31351495
0000b0 35 47 c4 3e 46 42 df 3c 72 8f 26 3e 3f 08 2b be
       0.38335577 0.027253281 0.16265658 -0.16702364
0000c0 d5 ae 9a 3e 0c 3f ab 3d 76 52 f1 3e fb 45 ea 3d
       0.3021151 0.083616346 0.47133225 0.11439129
0000d0 9f b7 4f 3e a7 f4 0c be 58 af 4c bd f6 82 0e be
       0.2028489 -0.13765202 -0.04997191 -0.13917145
0000e0 a0 2f 69 be 18 f5 d9 be 1c 45 94 be b9 bb a8 3e
       -0.22772074 -0.42569804 -0.28958976 0.3295572
0000f0 82 c8 38 3f 3d ea 2a 3f 26 69 9e 3e da d4 f9 3e
       0.7218095 0.6676367 0.30939597 0.48795205

lstm.bias_hh_l0 f4 [64]
000000 a0 56 77 3e c7 65 bb 3c 34 ca 99 3e c6 29 2e 3f
       0.24154139 0.02287568 0.3003708 0.6803249
000010 8a 70 04 3f 47 24 d5 3e 03 b8 be 3e c5 a2 8c bd
       0.5173422 0.4162924 0.37249765 -0.06866983
000020 23 0a c1 3e 0f 17 05 bf dc 17 ea 3b ff f0 f3 3e
       0.37703046 -0.5198831 0.0071439575 0.47644803
000030 94 be c6 3e d3 3e 84 3e ba 44 5c 3e 06 3e e1 3e
       0.38817275 0.2582918 0.21510592 0.43992633
000040 42 d8 50 be e9 c7 0d 3e cd 6d de 3e 0c c9 8b 3c
       -0.20394996 0.13845791 0.43443146 0.01706364
000050 ac 2c 60 bd 7e 7f b2 bd 34 2e b4 3c 39 56 80 bd
       -0.054730102 -0.087157235 0.021994688 -0.06266446
000060 c2 bf 6e 3e 14 09 aa bc cc 1d 3f 3e 0b 24 f3 bd
       0.23315337 -0.020756282 0.1866371 -0.11872109
000070 d3 c6 f8 3e de 29 1a 3e 55 a1 ed 3c 6f 43 ac 3d
       0.4858919 0.15055034 0.029007593 0.084112994
000080 5d c1 ee be 1a 2a 2f bd be e7 16 bd 4b 1d b8 be
       -0.466319 -0.04276476 -0.0368421 -0.3595985
000090 43 33 ae bd 59 33 bf 3c 98 3d 2f be 32 10 2f 3e
       -0.08505871 0.023339914 -0.1711334 0.17096022
0000a0 9a e0 41 3d 66 29 c5 3e 63 ce f2 bd db cf ac 3e
       0.047333337 0.38508147 -0.118557714 0.3375233
0000b0 c2 86 b7 3e c9 33 86 3d 98 36 07 3e 40 39 6a be
       0.35845 0.06552846 0.1320442 -0.22873402
0000c0 c3 7a 99 3e f7 a7 71 3c ba 9e df 3e b3 d6 30 3e
       0.29976472 0.014749519 0.43675786 0.17269401
0000d0 9d 92 56 3e 30 1d ef bd c4 e0 01 bd 3f b3 08 be
       0.20954366 -0.11675489 -0.031708494 -0.13349627
0000e0 0a 2e 96 be a7 0a f8 be 6b cb 84 be 08 93 93 3e
       -0.29332 -0.48445627 -0.25936446 0.28823113
0000f0 f7 94 23 3f f1 c2 38 3f 67 81 c6 3e bd 1a 09 3f
       0.6389918 0.72172457 0.387706 0.53556424

lstm.weight_ih_l1 f4 [64, 16]
000000 f7 93 ac 3a fd d8 b8 bd ff 28 41 3b 5f 7a 93 3d
       0.0013166656 -0.09025762 0.0029473898 0.07201075
000010 d8 28 ce 3e af 92 89 be af 03 33 3e c8 63 07 bd
       0.40265536 -0.26869723 0.17481874 -0.033054143
000020 c4 6e c4 3d 2f 62 9a 3e 27 c3 b1 3e 12 fd f3 bc
       0.09591439 0.30153033 0.34719202 -0.02978376
000030 fe cb 72 3e 4d 97 06 3f e8 35 a8 be 6b f3 36 3e
       0.2371063 0.52574617 -0.32853627 0.17866294
000040 f3 04 27 3f 99 e5 1b be 15 d5 5f 3f 68 81 02 bf
       0.65241927 -0.15224303 0.8743451 -0.5097871
000050 25 46 ee 3d c7 40 36 3f 90 85 c4 3d b6 79 97 3d
       0.11634473 0.7119259 0.095957875 0.073962614
000060 b0 12 aa be 10 4f 97 bd b7 09 90 3d 96 00 9c 3e
       -0.33217382 -0.07388127 0.07033103 0.30469197
000070 81 e3 8e 3e 18 cc 51 3f 73 e4 dc 3e 2b fb 81 3f
       0.27907947 0.8195205 0.43143043 1.0154775
000080 d7 bc 4b bf 3a 2f 6e bd 39 f8 c8 3c ef 1d 4e 3f
       -0.7958502 -0.058150508 0.024532424 0.80514425
000090 44 38 bf 3e 85 21 5b 3d 08 af cd 3b 1d f5 31 be
       0.37347615 0.053498764 0.006276969 -0.1737866
0000a0 fc 10 a9 be fb da 46 3f 04 6d d8 be 17 27 7a 3e
       -0.3302077 0.7767789 -0.42270672 0.24428974
0000b0 e6 52 9c 3e 9f 19 23 bf 3f f7 3e 3f 7c a1 0a bf
       0.30531996 -0.6371097 0.7459602 -0.54152656
0000c0 e0 42 7c 3e e5 9c fb 3d 58 36 ee 3e 4c e9 3e 3f
       0.24634886 0.12285785 0.46525836 0.7457473
0000d0 01 5b 1a bf 5d 8c cf be ec 80 e4 3a 03 79 5f be
       -0.6029511 -0.40536776 0.0017433441 -0.21823506
0000e0 c2 fd 99 3d 04 8b 4b be 43 8b ab 3d e0 22 d2 bd
       0.075191036 -0.19877249 0.083761714 -0.10260558
0000f0 81 17 54 be 95 d2 0a 3e c2 f5 66 bf 41 32 91 be
       -0.20712091 0.13556893 -0.90218747 -0.28358653
000100 76 21 a3 3d 63 86 11 bf cd 4c 0e 3f 18 d2 8c bd
       0.079653665 -0.5684568 0.5558594 -0.0687601
000110 95 4e 30 3f 41 48 c6 bd e5 70 80 be bb 08 86 3e
       0.68869907 -0.0968175 -0.25086132 0.26178536
000120 96 91 36 3d e6 3f 0c bf dd b9 4f bd dd dc 98 3c
       0.044572435 -0.54785 -0.050714362 0.018660003
000130 70 16 6c bf db 0c cc 3e 9f b0 51 bf 9d a2 d8 3e
       -0.92221737 0.39853558 -0.8191013 0.42311564
000140 7c 82 74 bd 7f 40 68 3e ae bc c5 be 88 a9 5a be
       -0.059694752 0.22680853 -0.38620514 -0.21353734
000150 cd 7e f1 bd 73 06 57 bf 17 ec 10 be 5e c8 34 3e
       -0.117917635 -0.83994216 -0.14152561 0.17654559
000160 cd 1f 28 3f f7 ab 3b bd 84 22 ef 3d 92 5e 49 bb
       0.65673524 -0.045818295 0.11676505 -0.0030726534
000170 ad 71 d8 be 3c aa 7a 3e 99 f1 c6 3d d2 20 80 3e
       -0.42274228 0.24479002 0.0971405 0.2502504
000180 b8 bd 97 bd ef 2a 22 be 7b 8a c2 bf bd 1f 08 3e
       -0.07409233 -0.1583669 -1.5198511 0.13293357
000190 c4 2e b1 bd 34 fa 53 3e 82 9a e6 bc 94 6e 8e 3b
       -0.08651498 0.20700914 -0.028149847 0.004346678
0001a0 f2 96 5b 3e ec 36 d9 bd 06 7b ac be 16 8a e2 3e
       0.214443 -0.10606179 -0.3368761 0.44245976
0001b0 ee 95 cb 3b ad f7 36 be 7d 85 1e 3f ea 92 ad be
       0.0062129414 -0.17867918 0.61922437 -0.3390115
0001c0 cd 82 7b be 63 2f f0 be 26 3e bd 3f 3b fe 8b be
       -0.24561615 -0.46911153 1.4784591 -0.273424
0001d0 a4 51 65 be a6 cb d0 3d 7c fb 81 be 2c 1e 02 be
       -0.22394425 0.10195093 -0.2538718 -0.12706822
0001e0 fa c6 5d 3e 3a 16 66 be f9 b2 61 be ff 1a ac 3e
       0.21657935 -0.22469416 -0.22040929 0.33614346
0001f0 57 d5 63 be 89 ef 2d be 51 45 be 3e be be 30 bf
       -0.22249351 -0.16985907 0.3716226 -0.6904105
000200 1b 62 87 3e 2d 25 f4 3d b3 4f 90 bf 17 81 9f be
       0.26442036 0.11921153 -1.1274322 -0.31153175
000210 d0 44 24 3e c5 cf 27 be 2a 61 fe be 48 81 09 bf
       0.16041875 -0.16387852 -0.49683505 -0.5371289
000220 a1 db d2 be 91 80 fe 3d fe 9c f2 be 29 b8 4d 3e
       -0.4118319 0.12426866 -0.473854 0.20089783
000230 95 40 ce bd e2 1d 8c be fc 9b 45 3f 68 f2 06 bf
       -0.10070912 -0.2736655 0.7719114 -0.5271363
000240 61 32 d1 3d de dd 58 be 65 f3 ed 3e a6 4b ca be
       0.10214687 -0.21178386 0.46474758 -0.3951084
000250 0b c5 a7 bd 2b 86 be 3e 85 02 03 bd 3a 73 cf 3c
       -0.0819188 0.37211737 -0.031984825 0.025323499
000260 e9 3b ef bd 5a 59 ac bc 74 aa 36 3f 47 ba 0f bf
       -0.11681349 -0.0210387 0.7135384 -0.5614361
000270 7a fb 23 bf dd d4 b1 3d a4 16 0b 3e 7d cb 82 bf
       -0.640556 0.086831786 0.13582855 -1.021835
000280 2a 73 cc 3e 0d bb 94 be 7f 95 19 3e e9 67 e8 3e
       0.39931613 -0.29048958 0.14998434 0.45391777
000290 ad 4f a5 be 8e c3 fe 3d 4a 1a e3 ba 70 dc dd 3e
       -0.3228735 0.12439643 -0.001732656 0.43332243
0002a0 f4 5d a4 be eb ea 26 3e 91 5a 9b bc 03 91 05 be
       -0.3210293 0.16300552 -0.018964084 -0.13043599
0002b0 ff 9f 07 3f cd 4c 05 3d b3 8f 89 3f 71 63 14 3e
       0.5297851 0.032543946 1.0746979 0.14491059
0002c0 0e 92 4e 3e f6 a7 29 3e 5b e3 00 bf 63 93 5e be
       0.20172903 0.16567978 -0.50346917 -0.21735911
0002d0 b7 42 07 bf 35 dc 08 be 49 f5 1f be 09 56 ad 3e
       -0.52836174 -0.13365252 -0.15620913 0.33854702
0002e0 43 db a2 bd d8 41 7c bd 9c 66 68 be 1a 3f 37 3e
       -0.07951977 -0.06158623 -0.22695392 0.17895165
0002f0 05 17 5b 3e 22 57 36 3f 93 10 27 be 17 49 c1 bd
       0.213955 0.71226704 -0.16314916 -0.09437769
000300 ef e9 1d be 9a 64 69 be 8e b8 01 bd 8a 07 fd bb
       -0.1542127 -0.22792283 -0.031670146 -0.007721846
000310 26 7a 06 3d 1e 69 c2 3e bc 50 95 3d e4 21 88 3e
       0.032831334 0.37970823 0.072907895 0.26588356
000320 3b 8f 83 3b c3 61 9d be 75 09 33 bf 99 67 55 3d
       0.004014877 -0.3073865 -0.69936305 0.05210075
000330 cd 66 0f bd c4 58 50 be d6 fb 88 3e 36 5a 5a be
       -0.035010148 -0.20346361 0.26754636 -0.21323475
000340 3b bb ce bd 8c 0c 35 bf 22 f6 73 3e 9d 19 10 be
       -0.10094305 -0.7072227 0.23824361 -0.1407227
000350 d4 ee ad 3e 4b d3 2d be 21 73 5c bd 0a 78 c4 3e
       0.33971274 -0.16975133 -0.053820733 0.38372833
000360 55 f1 3c 3e 4e aa 96 be dc cf e9 be 53 4f 1d be
       0.18451436 -0.29426807 -0.45666397 -0.15362291
000370 f5 2b 03 3e 80 57 70 bd 9f ba 92 3e 2f 81 7d be
       0.12809737 -0.058677197 0.28658006 -0.24756311
000380 9d 33 d3 be 5a 40 47 be d0 47 8c be bf be 2b 3d
       -0.41250315 -0.19458142 -0.2739854 0.041929957
000390 e1 e1 cc 3b 73 8f 2e 3f 6e 0d 97 be 36 74 87 3e
       0.006252513 0.68187636 -0.29502434 0.2645585
0003a0 95 cf cd bc 27 6c 53 bd 60 b1 38 3e b0 a1 64 bd
       -0.025123397 -0.051616814 0.18036413 -0.05581826
0003b0 00 bb d7 be 8d 8f b0 bd 17 d9 de 3e 47 d2 e9 be
       -0.42134857 -0.0862113 0.43525 -0.4566824
0003c0 55 ea d3 3d 65 c3 8e be 0c dd c8 be f1 69 a1 3e
       0.1034743 -0.2788345 -0.39231145 0.3152614
0003d0 5a 73 5d 3f 50 93 96 3e 98 b1 a0 bd bd 15 5d 3e
       0.8650414 0.29409266 -0.07846373 0.21590324
0003e0 2e 85 25 3e 6c 31 d0 3d a2 39 a0 3d f1 09 50 3e
       0.16164085 0.101656765 0.078234926 0.20316292
0003f0 16 15 49 be b0 aa 57 bf 34 50 6f bd 03 d0 da 3e
       -0.1963695 -0.84244823 -0.058426097 0.42736825

lstm.weight_hh_l1 f4 [64, 16]
000000 b8 c5 bc 3c a3 b2 11 3e 28 09 0a 3e 9e 86 8c be
       0.023043498 0.14228301 0.13480055 -0.27446455
000010 88 2d 03 bf 0b 30 ba 3e c2 d7 55 be ea 23 17 be
       -0.5124135 0.3636478 -0.20883086 -0.14759794
000020 06 53 20 bd fd b2 19 3e 92 52 ee 3d 0c 70 0a bd
       -0.039141677 0.15009685 0.11636843 -0.033798262
000030 d1 18 a0 bd 3f cc 3e 3c d7 fb 33 3e ad 26 37 3e
       -0.07817233 0.011645376 0.17576538 0.17885847
000040 a0 c6 0c 3e d0 27 af be cd f8 3b 3c e3 9e 99 3d
       0.13747644 -0.34210062 0.011472893 0.07501008
000050 23 3e 1f 3e f4 86 68 3b e1 fa e4 3d 77 95 ba bd
       0.15551047 0.003548083 0.11180664 -0.091105394
000060 d6 d6 dd 3e 4d b0 a6 bd 6e e5 49 3d 80 02 d3 be
       0.4332797 -0.081390955 0.049291067 -0.41212845
000070 48 ad 4f be 93 de 4f bf aa 26 21 3e 9c c1 99 3e
       -0.20280945 -0.81198996 0.15737405 0.30030525
000080 de 7b 26 3f 3e c8 7e 3c e3 a0 4b 3f f0 26 f1 be
       0.65032756 0.015550671 0.7954237 -0.4710002
000090 7e ce bd 3e a2 9e 84 3e 55 7a 88 bd 53 d1 d3 3e
       0.37071604 0.25902277 -0.06663958 0.4137064
0000a0 f9 b4 26 3f 59 6c 77 bd ee d3 07 3e cd c0 b2 be
       0.6511989 -0.060406063 0.13264439 -0.3491272
0000b0 f3 71 49 bd 69 8d 5b 3d 63 3c 2c 3f eb 1d 29 bd
       -0.049180936 0.053601656 0.6727964 -0.041288298
0000c0 89 ed c6 bc 06 cd c9 3d de b1 14 bf e3 d1 d8 3d
       -0.024283187 0.09853558 -0.58083904 0.10586908
0000d0 49 12 61 be f9 ef a2 be 70 34 cd be f5 ce b4 bd
       -0.21979631 -0.3182371 -0.4007907 -0.088285364
0000e0 a4 82 19 3e b1 64 aa 3e 10 56 00 bf 14 a1 bb 3d
       0.14991242 0.33279946 -0.5013132 0.091615826
0000f0 b3 70 7a bd 41 96 21 3f fa 1f 1f bd 3a 79 cd 3e
       -0.061142635 0.63119894 -0.038848855 0.4013155
000100 9b 76 4b 3d ae 8e 70 3e b3 35 e6 3c 28 32 ba be
       0.049673658 0.23491928 0.028101778 -0.3636639
000110 54 e2 f7 be e1 df 7a 3d a2 83 d6 bd 21 08 a4 3d
       -0.48414862 0.061248664 -0.10474326 0.08009363
000120 d5 aa fc 3e 77 81 b6 3e 2b 7f 74 bf 33 4c 01 3f
       0.49349084 0.3564565 -0.9550654 0.50506896
000130 5c d2 5e be 8c 85 1e 3f 71 f0 04 3e fe aa 31 3d
       -0.21759933 0.61922526 0.12982346 0.04337596
000140 6a f9 5f be 90 2c 02 bf 57 19 30 3d 9a e4 8f bd
       -0.21872488 -0.50849247 0.042992916 -0.07026024
000150 ad 4c 4e 3e 07 ed c1 3e 04 8d 7a be 82 3f 74 bd
       0.20146437 0.3787615 -0.24467856 -0.05963088
000160 60 0a 9e 3e d4 cd 8e 3c c0 a4 a0 3e f5 97 01 be
       0.3086729 0.01743213 0.31375694 -0.12655623
000170 90 cf 4c 3e 5b a6 ff 3d e0 9d 55 3e 65 c2 f2 bc
       0.20001054 0.12482902 0.20861006 -0.02963371
000180 fc 41 1f 3e d0 c5 9d 3e f8 c6 73 bd ce fb 6f 3d
       0.15552515 0.3081498 -0.059515923 0.05858975
000190 9e a2 14 be 16 0e 3c be f4 88 35 3f e3 88 64 3e
       -0.14515159 -0.18364748 0.709121 0.22317843
0001a0 fd 3d 24 3e 3a 37 9a bd 13 0c 19 be e3 1a 82 3e
       0.16039272 -0.07530065 -0.14946012 0.25411138
0001b0 df 98 73 be b7 ce e4 3e 7a 44 fa 3d c1 1d ce 3d
       -0.23788784 0.4468896 0.12220092 0.10064269
0001c0 e9 fe 1f be 99 98 a1 3e 13 00 98 bd 5c 9b 79 3d
       -0.15624584 0.31561735 -0.07421889 0.060939178
0001d0 5f a1 9a be ff cc ff bb 05 56 02 be c7 c6 bc be
       -0.3020124 -0.00780642 -0.12728126 -0.36870405
0001e0 c7 27 27 be 41 27 e6 3d 9c ca cf 3c 27 b3 c6 bd
       -0.16323768 0.11237956 0.025365166 -0.09702139
0001f0 d6 ac c0 3d 6c be d7 bc 93 d3 59 be c6 83 ba 3d
       0.09407966 -0.026335917 -0.21272115 0.09107165
000200 2a 87 65 3e 25 31 d2 be b0 b1 83 3d 51 aa 47 be
       0.22414842 -0.4105312 0.064303756 -0.19498564
000210 84 22 01 3e 8f c6 fd be b4 d3 22 bf 85 db 8b be
       0.12610823 -0.4956555 -0.63604283 -0.27315918
000220 da 82 ea 3d eb 9e da 3e 3d 44 0f 3b 04 ae bc 3d
       0.11450739 0.4269937 0.0021860742 0.09212878
000230 35 16 1e 3c 46 87 3c 3e 46 89 91 3e cd f0 41 be
       0.009648849 0.18410978 0.28425044 -0.18939514
000240 51 09 23 3e be 2c 20 be 53 04 0c bf 3e a1 39 3d
       0.15921523 -0.15642068 -0.546941 0.04531979
000250 7d 77 5f bc e7 aa 39 bd f2 00 0a be b5 66 49 be
       -0.013639328 -0.045329 -0.13476923 -0.19668086
000260 aa 82 9c 3e 58 d3 43 be 62 93 aa be 29 95 fd 3d
       0.3056844 -0.1912359 -0.3331557 0.12381966
000270 06 79 05 be 96 34 0a be 3d 49 3d bd 5b da b8 3e
       -0.13034448 -0.13496622 -0.046212424 0.36104092
000280 53 41 c4 3e 29 19 21 bd 0c 59 1c 3e 58 33 96 be
       0.38331088 -0.039330635 0.15268344 -0.29336047
000290 48 53 3a 3e d9 fd 07 bf 4e 2a d3 3d 9e 26 8b 3e
       0.18195832 -0.53121716 0.10310803 0.271779
0002a0 72 85 08 3f 55 30 d9 be 98 ea 99 3e 97 bf b3 be
       0.5332862 -0.42419687 0.30061793 -0.3510711
0002b0 c5 85 82 3e 47 8b 0d 3f ef a8 48 be 85 98 38 3d
       0.25492683 0.55290645 -0.19595693 0.04506733
0002c0 7c 3f 1c 3e d5 35 ef 3d 2a 1c c5 be 7f d4 b4 3d
       0.15258592 0.116801895 -0.3849805 0.08829593
0002d0 b7 ff 05 3d 01 da b6 be d1 b1 d5 3d 43 0f cf bd
       0.03271457 -0.357132 0.104343064 -0.10110333
0002e0 d5 38 1f bd 92 b2 71 3d bc ef 16 bd 7d d2 74 3e
       -0.03887256 0.05900819 -0.036849722 0.2390842
0002f0 92 e8 cc be 37 72 d0 3c a3 28 2b be 10 ec d6 3d
       -0.40021187 0.025445087 -0.1671472 0.10494244
000300 93 72 96 3e 8d e2 02 be 91 74 33 be 0e 38 04 bf
       0.29384288 -0.12781735 -0.17524935 -0.5164803
000310 b5 31 ea 3d f1 51 32 3d a7 cf 46 3f 55 ba 79 3d
       0.11435262 0.043535177 0.776606 0.060968716
000320 82 ba 9d bd d9 cf 09 3f 81 cf 19 bf 51 3e 45 3d
       -0.07701589 0.53832775 -0.6008225 0.048155133
000330 97 26 35 3f 8d f3 73 3e 49 0d 20 be 88 fe 11 3d
       0.7076201 0.23823376 -0.15630068 0.03564313
000340 29 c5 33 3d d5 76 b1 be a9 93 18 3e 44 3d fd be
       0.0438892 -0.34660974 0.14900078 -0.49460804
000350 3d 82 13 bf 0b 15 49 3e ec 72 ca bd 7f 6f 24 bf
       -0.576206 0.19636934 -0.09885201 -0.6423263
000360 a1 35 6e 3c 74 d6 02 bf 57 f7 bb 3d 1c 47 69 bc
       0.014539153 -0.5110848 0.09178036 -0.014238145
000370 0e d8 15 3e 0d 98 66 be c7 4b 90 be 3c fa 06 bf
       0.146332 -0.2251894 -0.28182814 -0.5272558
000380 d6 3d fe 3e 6f 66 30 3e c4 51 1b 3f d1 6a 48 3e
       0.49656552 0.17226575 0.6067164 0.19571997
000390 f2 55 ac 3e d3 b2 a9 be 11 12 e6 3e 59 d5 89 be
       0.3365932 -0.33144245 0.4493566 -0.26920584
0003a0 3f 68 d3 bd 3b 53 95 be 94 45 e4 3e 44 95 c1 3e
       -0.10322618 -0.29165062 0.44584334 0.37809193
0003b0 1b 0c e4 be 8b 8f 82 be a7 45 5f 3e e4 19 36 be
       -0.44540486 -0.2550014 0.21803914 -0.17783314
0003c0 f9 78 06 bd e9 0b 80 bc a0 c4 49 3d 23 ce 2f bf
       -0.032830212 -0.01563068 0.04925978 -0.68673915
0003d0 25 b3 3b be e5 64 98 3c 88 f6 13 be 71 08 d9 3e
       -0.18330057 0.018602798 -0.14449513 0.42389253
0003e0 6d 93 b1 bd 65 b6 42 3c 7d 6a ed be 8e 80 01 3e
       -0.08670697 0.011884307 -0.46370307 0.12646696
0003f0 24 ab dc bd be 86 09 be c0 73 d6 3c 42 e8 ec 3d
       -0.1077483 -0.13430306 0.02617824 0.11567737

lstm.bias_ih_l1 f4 [64]
000000 9c 1b 2d 3f 1f 46 32 3d 65 e5 df 3c 7e f2 8a bd
       0.67620254 0.043523904 0.027331064 -0.06784533
000010 0b 1c c9 bd cb d3 87 3d 65 18 f8 bd b8 07 ef 3c
       -0.09819802 0.06632193 -0.12114028 0.029178485
000020 e7 c3 ae bd 6f 2f 9f 3d 79 e1 7c be f3 94 99 bc
       -0.08533459 0.07772719 -0.24695386 -0.018747782
000030 40 a4 3d 3c 25 4b 91 3d e4 76 2c bd 65 8d d5 bd
       0.011574805 0.07094411 -0.04210557 -0.104273595
000040 f8 13 b0 3e 67 2c 88 3e 12 76 8b 3e 93 a1 d8 3e
       0.34390235 0.26596376 0.27238518 0.4231077
000050 f9 49 29 3e 0e eb 82 3e dd 73 4b 3e 60 42 99 3e
       0.16532125 0.25569957 0.19868417 0.29933453
000060 a1 c7 4b 3e 32 09 b6 3e 30 7c ec 3d 92 8d 88 3e
       0.19900371 0.3555389 0.115471244 0.2667051
000070 5c b3 af 3e a6 ed 25 3e 5a 30 c3 3e f2 b1 98 3e
       0.34316528 0.16203937 0.38122827 0.29823261
000080 30 e8 5a 3d b7 d4 cb bd bd b5 86 3e 46 2d 81 bc
       0.053444088 -0.099526815 0.2631053 -0.015768658
000090 49 af d4 bb a7 fa c4 3d 07 b0 8d 3d 6e f9 12 be
       -0.006490622 0.09618121 0.0691834 -0.14352962
0000a0 16 8a 98 bb 73 17 2e 3e 37 e4 d4 bc 96 dc 33 3d
       -0.004655133 0.17001133 -0.025987728 0.04391154
0000b0 81 be 69 3c a8 b2 9e 3d e6 fa 61 bc 71 00 15 3e
       0.014266611 0.0774892 -0.013792729 0.1455095
0000c0 49 7a 5e 3d 1b 24 fc 3e fa 75 8b 3e 74 d6 f6 3e
       0.05431584 0.49246296 0.27238446 0.4821049
0000d0 48 75 09 3f 29 75 ab 3e 7b cb cc 3e 73 9d c6 3e
       0.5369458 0.33487824 0.39998993 0.38792
0000e0 75 98 88 3e b3 b9 87 3e a1 08 95 3e ab 82 b2 3e
       0.26678815 0.26508865 0.29108146 0.34865317
0000f0 5f 4e ab 3e 22 67 7d 3e 06 8a c6 3e fe 9b f8 3e
       0.3345823 0.24746373 0.3877718 0.48556513
