models/other/model1088.pth (torch, 66137 bytes, 16 tensors)

conv2d_1.weight f4 [8, 1, 2, 2]
000000 cc f6 01 be 76 ec d5 bd 9b 5c c8 be 92 39 c7 bd
       -0.12691802 -0.10445492 -0.39133152 -0.097277775
000010 95 4f ba bc f4 1c 1b 3f f9 22 98 bd 9c 3b 04 3e
       -0.022743026 0.60591054 -0.074285455 0.12913364
000020 a8 3c 4f bd ba 1b 21 bd 2b f3 c6 3e e6 d0 fb 3e
       -0.050594956 -0.039333083 0.38857397 0.49182814
000030 fb c6 f2 3e d5 cd d3 3c d7 b9 a7 3d da b0 06 3d
       0.47417435 0.025854984 0.08189743 0.032883503
000040 d0 37 b3 bd 08 ef 92 3c 36 2c 2b 3f 03 b4 60 bd
       -0.0875088 0.017936245 0.66864336 -0.054859173
000050 38 a6 91 be 87 aa 16 bb 92 08 94 be 4b aa dc 3d
       -0.28447127 -0.0022989826 -0.2891279 0.10774668
000060 95 00 5d be ef aa a6 bc 8d c8 b6 bd b3 d7 e4 be
       -0.21582253 -0.02034518 -0.08924971 -0.44695815
000070 1c 60 ac bd aa c0 4f 3b 50 90 2b 3f 2b 49 05 bd
       -0.08416769 0.003170053 0.6701708 -0.03254048

conv2d_1.bias f4 [8]
000000 3c 0c 0f be 98 f3 96 be 6f 08 47 be 7e e2 48 be
       -0.13969511 -0.29482722 -0.19436811 -0.1961765
000010 fe 8f 75 be 58 a0 2c 3e 13 43 c9 3d ae 06 8f be
       -0.2398071 0.16858041 0.098272465 -0.27934784

conv2d_2.weight f4 [16, 8, 3, 3]
000000 9e 88 00 bd 23 8a 04 3d 38 84 df 3b 61 7e 42 bd
       -0.03138029 0.0323583 0.0068211816 -0.047483806
000010 31 98 92 3e ff b5 d8 3b 15 b3 96 3c 17 a1 e5 3e
       0.28631738 0.0066134925 0.01839594 0.44849464
000020 7b b3 ad 3c 51 96 f1 3c 58 65 07 3e 48 d2 96 be
       0.021203747 0.029490622 0.13222253 -0.29457307
000030 70 80 bd be cd 26 09 3f 50 f2 85 be 90 3c d4 bf
       -0.37012053 0.5357483 -0.26161432 -1.6580982
000040 e9 a4 96 bc 9d 38 dd be f4 bc 82 3c d5 93 a6 3c
       -0.018389182 -0.43207255 0.01595924 0.020334164
000050 0c a8 0f 3e a8 46 d4 bc c0 21 02 be a4 c1 9c be
       0.14028949 -0.025912598 -0.12708187 -0.30616486
000060 72 be 6f bf d8 76 33 c0 20 19 7f be 8b c3 00 3d
       -0.9364997 -2.8041286 -0.24911928 0.031436484
000070 7a 90 f6 3d 59 63 11 3c 63 8f f4 3d 21 dc f0 bc
       0.120392755 0.008873784 0.11941411 -0.02940184
000080 7c 56 98 3d bf 43 58 3e c8 f8 2a c0 4f 59 6f bd
       0.074383706 0.21119593 -2.6714344 -0.05843478
000090 75 4c 99 bc d6 ae ca bc 85 8b 99 3e d3 8b 90 3e
       -0.018713215 -0.024741571 0.29989257 0.28231677
0000a0 5a fc 30 bf 4f e5 ac bb 00 5b af 3d 30 45 46 c0
       -0.6913506 -0.005276359 0.08562279 -3.0979729
0000b0 7e 6b fe 3d 29 ed 94 bc 3d e2 fa bc ad a5 cf bb
       0.12422846 -0.018179493 -0.030625457 -0.0063368888
0000c0 5a ba c8 bc 63 da 77 3c e9 af 35 bb 85 c8 a5 bc
       -0.024502922 0.015127751 -0.0027723259 -0.020237217
0000d0 d8 4e dc 3e e2 6d 5a 3c 25 ab 15 3c c5 6e 3d bc
       0.43028903 0.013331862 0.009135042 -0.011562054
0000e0 fd 81 9a 3c 69 6d e1 3d db 3b 97 bc 43 8d b1 bb
       0.018860811 0.110071965 -0.018461158 -0.005418451
0000f0 9c 11 9f 3e 5d bf e0 3d ce 0e 01 3d a2 b3 24 3b
       0.31068122 0.10974 0.03150826 0.0025131484
000100 0b 8c 41 3f d0 89 80 bf 91 58 fa 3e 3f 94 4f be
       0.75604314 -1.0042057 0.48895696 -0.20271395
000110 a2 db 88 bb 48 20 f5 3e 3c e7 54 c0 b5 58 98 3e
       -0.004176573 0.4787619 -3.3266134 0.29755178
000120 d2 b5 81 bd 7f c1 b9 3d c5 a0 f6 bc 82 62 1c 3e
       -0.063335076 0.090701096 -0.030105958 0.15271953
000130 71 6a 54 3e 9e 04 75 3b 50 f5 f7 3d a4 c5 34 3d
       0.20743729 0.0037386785 0.121073365 0.044133797
000140 c4 1f d0 bc 3b d8 e2 bc 46 58 66 be a7 1e 9b bd
       -0.025405772 -0.027690997 -0.22494611 -0.07574206
000150 95 56 1f bf 91 49 64 3e 59 4c 6b 3d ce 56 7a bf
       -0.6224149 0.22293688 0.057445858 -0.97788703
000160 11 87 20 be 22 b0 36 3d fa 90 b8 be 2e ee a9 bc
       -0.15676524 0.044601567 -0.36048108 -0.020743456
000170 04 83 21 38 b8 81 51 c0 f4 d4 ae 3d ce 8a a6 3e
       3.850741e-05 -3.2735424 0.08536711 0.32527775
000180 6e 21 4d c0 a2 de bb bf 19 14 de bd a0 61 02 bf
       -3.2051654 -1.4677317 -0.10843677 -0.50930214
000190 dd a1 61 3e ef fb cc bd f5 1e ff bf 63 7e 96 be
       0.22034402 -0.1000899 -1.9931322 -0.293933
0001a0 41 63 a7 bd e5 80 12 c0 0a 94 36 c0 56 15 4d 3d
       -0.08173228 -2.289117 -2.8527856 0.050069176
0001b0 a3 ff f2 be c0 15 c4 be d9 e2 d5 bd d0 65 b9 3e
       -0.4746066 -0.38297844 -0.104436584 0.3621049
0001c0 ee 2b 9b c0 7d 23 88 3e 62 88 9d be b4 2c 82 c0
       -4.8491125 0.26589575 -0.30768114 -4.067957
0001d0 a6 80 5d be 14 7b 87 bc b1 6a 68 3d 69 c7 fe bb
       -0.21631107 -0.01653818 0.056742374 -0.0077752364
0001e0 20 49 d8 3c 86 15 8a 3d 06 43 4b bc 6e 15 a7 3d
       0.026402056 0.067423865 -0.012406116 0.08158384
0001f0 f7 12 da 3d a4 c2 44 3c 65 d7 b2 3d 0e 34 fc bc
       0.106481485 0.012009297 0.087324895 -0.03078654
000200 4a 4f a5 bb aa c6 99 3d de b2 15 3c 0e b7 25 3c
       -0.0050448524 0.07508595 0.009136884 0.010114444
000210 bb 24 2c 3e 0e 7e 0e 3d 7e 6f a7 ba 3b c5 e3 3e
       0.16810887 0.034788184 -0.0012774316 0.44486412
000220 20 b0 71 bf fd 1a ee bc bd 70 84 3f 70 65 71 c0
       -0.9440937 -0.029065603 1.0346905 -3.7718163
000230 af 10 65 3e 70 0e 29 bf 6c 8f 63 c0 a3 2c 08 bf
       0.22369646 -0.66037655 -3.5556288 -0.5319311
000240 e3 30 85 be 44 20 dc bc 4c 9e 54 bf 68 45 48 be
       -0.2601386 -0.026870854 -0.8305404 -0.19557726
000250 47 65 20 3d 4f 2c 2a bf ad a6 16 3e 42 73 95 3e
       0.039159086 -0.6647386 0.1471202 0.29189497
000260 1b 68 2c bf b7 17 20 bd ce 88 27 3d a5 b3 4b 3d
       -0.6734635 -0.039085116 0.04090195 0.04973187
000270 41 f3 72 3d 13 eb 20 be 21 36 f1 3d 51 85 0a 3e
       0.059314016 -0.15714674 0.117779024 0.13527419
000280 58 75 31 3c 1c 8b 67 bf 6b 7f 52 3b 36 55 6a 3d
       0.0108312 -0.9044664 0.0032119404 0.05721017
000290 e2 42 fe bd a9 68 51 3c c6 b6 1c 3d d8 b5 7f be
       -0.12415101 0.012781301 0.038260244 -0.24971712
0002a0 05 09 be bf 34 16 68 bf 92 5b 80 bf 66 c6 76 3c
       -1.4846503 -0.9065888 -1.0027945 0.01506195
0002b0 83 c2 e9 3b 6f 33 f0 ba 56 01 c9 3c d0 28 3d 3d
       0.0071337833 -0.0018325875 0.02453677 0.0461815
0002c0 ab 61 9a bc 7d 9f e3 3c 27 59 8b 3d 8b 4c fd be
       -0.0188454 0.02778601 0.06804114 -0.4947246
0002d0 eb 4a 1a 3f c4 f6 26 3e cb bf e7 3d 28 87 a2 3e
       0.60270566 0.16305071 0.113158785 0.3174374
0002e0 2d 04 9d 3d 66 e9 23 be 81 fa 3e bf f5 61 d2 bf
       0.07666812 -0.16007003 -0.7460099 -1.6436144
0002f0 f9 54 a5 be 65 34 91 be fd 31 d5 3b ee 6b 0d be
       -0.32291391 -0.28360286 0.006506203 -0.13810703
000300 71 8f b8 bf d0 3f 9e 3b 1c 30 15 be 15 7a 64 c0
       -1.4418775 0.0048293844 -0.14569134 -3.5699513
000310 21 82 b6 3d 09 bc cc be 4f 56 87 bc 27 d0 b6 3c
       0.08911539 -0.3998721 -0.016520647 0.022316052
000320 9b 92 1d 3d e6 5a 49 3d 00 a6 aa 3d eb 4d 1f 3d
       0.038469892 0.049158953 0.08332443 0.038892668
000330 14 73 9e 3e 6c 8b a7 3e b1 ea 96 3c 2c 18 85 3f
       0.30947173 0.32723558 0.018422456 1.0398002
000340 44 74 a7 3e 3c e3 79 3e 98 f7 09 3f c7 0c e4 bd
       0.3270589 0.2440309 0.53893423 -0.111352496
000350 6b 18 cd bd d6 a9 60 bf 7f 4b 04 c0 68 b2 88 be
       -0.10014423 -0.8775915 -2.067108 -0.26698613
000360 2d 58 75 3c 37 b5 25 3d 9b 2f 16 bf 7e 55 0e 3c
       0.014974636 0.040456023 -0.5866639 0.008687375
000370 36 61 ff be 32 54 9a bf af d7 8c 3c f5 a4 12 bf
       -0.49878854 -1.2056944 0.01719269 -0.57282954
000380 b6 ce 86 bf 27 3d f5 bc b6 e2 b1 bd 42 9d 56 bc
       -1.0531833 -0.029936386 -0.0868582 -0.013099017
000390 8a 1e 91 bd a7 5d 6a 3d 4e ae 4b 3e 9e 80 66 3c
       -0.07085903 0.05721822 0.1989071 0.014068751
0003a0 d4 4e 62 bf b6 ff e2 3d b1 9c ae 3d 9d bc c9 3d
       -0.8840153 0.11083929 0.0852598 0.09850428
0003b0 9a 67 6d 3d 07 b1 81 3e ad 15 73 3d 1d 0b 97 bd
       0.05796013 0.25330374 0.059346844 -0.073751666
0003c0 4f d6 be 3d 84 57 ff 3c c9 4e 5c bd 22 f6 51 be
       0.0931822 0.03116966 -0.053786073 -0.20504048
0003d0 91 fa 1f 3d 82 e9 83 3c 4c 95 ae be f8 43 2d 3d
       0.039057318 0.016102556 -0.3409828 0.04230115
0003e0 c5 bb 94 3e 3a 61 9c be f8 6a 44 bc 48 e7 8b bd
       0.29049507 -0.30542928 -0.011988394 -0.06831223
0003f0 2c 35 1d c0 ed bd 31 bd 9f 69 2b 3e 3f 50 74 c0
       -2.4563704 -0.043394018 0.1673951 -3.8173978

conv2d_2.bias f4 [16]
000000 30 4e a6 bd 76 1b ab 3d 67 9e 64 bc 0d b7 5f 3e
       -0.08120382 0.08354847 -0.013953782 0.21847172
000010 c0 d8 5b 3e 76 0c 8f 3e d2 20 11 3d 34 bb ce bc
       0.21469402 0.27939194 0.03543169 -0.02523575
000020 28 85 7a 3c 26 33 24 bc 42 1b 88 bc 19 a6 d4 bd
       0.015290536 -0.01002196 -0.01661456 -0.10383243
000030 e5 88 01 bb 87 5c 81 be 63 44 7c bd 86 9d a6 3d
       -0.0019765433 -0.25265905 -0.061588656 0.08135514

conv2d_3.weight f4 [32, 16, 4, 4]
000000 b5 b9 92 3d a2 5d d7 3d dd 00 a0 3d cc f8 5a 3e
       0.07164327 0.10515906 0.07812665 0.21383971
000010 86 f8 a0 bc 18 7c c0 3d f5 05 35 3e 1e d5 61 bc
       -0.019649755 0.09398669 0.17678054 -0.013783721
000020 58 04 ba be 17 31 a9 be 9c 97 50 be 0d 54 aa bd
       -0.3633144 -0.33045265 -0.20370334 -0.08316813
000030 77 76 93 bf 66 2f b2 bf b8 6c 96 be 1b 6c 3f 3e
       -1.1520528 -1.3920715 -0.2937982 0.18693583
000040 28 07 53 3e 52 f2 fa bc f3 8d c8 3d e7 8f 04 3e
       0.20608199 -0.030633125 0.097927 0.1294552
000050 49 3d dc 3e 9d 9e 1d 3e 41 b0 57 3e 6d 8f 7e 3e
       0.43015507 0.15392537 0.2106333 0.248594
000060 a4 46 62 bc f7 73 8b 3d 5f 86 d2 3d 1a 18 15 bf
       -0.013810787 0.06809228 0.102795355 -0.582399
000070 5a af 0f bf b0 cd 86 bf 0f b1 d3 be 82 14 1b bf
       -0.5612694 -1.0531521 -0.41346022 -0.6057817
000080 08 e9 04 bc f8 ab 21 bd a8 87 31 be 16 d6 d8 3d
       -0.0081122 -0.039470643 -0.17336905 0.10587709
000090 1e 7e 51 be 0f 49 86 be 04 77 55 bd a4 53 97 bc
       -0.20458266 -0.26227614 -0.052115455 -0.0184725
0000a0 06 76 10 bf a3 3b 9d 3d be c6 b7 be 32 c6 f4 3d
       -0.5643009 0.076773904 -0.35893816 0.11951865
0000b0 7a 5f 83 bf e9 81 aa be df 72 3d bf 3a bf 35 be
       -1.0263512 -0.3330224 -0.74003404 -0.17748728
0000c0 fe ea 14 3f ed 80 67 3f 25 df 9b 3e 79 bc 51 bf
       0.5817107 0.904311 0.30443683 -0.8192821
0000d0 ee 1f 16 be b9 80 6a 3f a2 cb cd bd 70 48 29 be
       -0.14660618 0.91602665 -0.100486055 -0.16531539
0000e0 10 71 28 3e c3 a2 81 3f 66 d7 8b 3e db f3 90 be
       0.1644938 1.0127796 0.27312773 -0.28311047
0000f0 a2 c8 6b bf 98 21 8d bf 63 20 e7 be f9 10 5f bf
       -0.92103016 -1.1025877 -0.45141897 -0.87135273
000100 9d 43 80 bf c5 14 17 bf 48 04 8f 3e cf b5 58 3e
       -1.0020634 -0.59016067 0.27932954 0.21163104
000110 94 6a 45 bf 68 bb 91 be 23 81 86 3e ab 12 83 3d
       -0.7711575 -0.28463292 0.26270398 0.06400045
000120 52 f9 04 3e 0b 2a 4f 3e ab 43 75 3e c2 9f 12 3e
       0.12985733 0.20230882 0.23951595 0.14318755
000130 b2 87 12 bf 8c 55 4d be 39 d1 24 bf 9a 9f f9 bf
       -0.57238305 -0.20052165 -0.6438175 -1.9501832
000140 f6 16 22 bd a6 46 d8 3e 4d 9f 54 3e 42 90 04 bf
       -0.03957268 0.422414 0.20763893 -0.5178262
000150 b7 98 8a bd b3 61 3f 3e f7 02 3e 3e 51 a3 35 be
       -0.06767409 0.18689613 0.18555818 -0.17738082
000160 87 8f 93 be 8e 7f 09 3d 55 81 81 3e 3e d9 76 be
       -0.2882044 0.03356891 0.25293985 -0.24106309
000170 1c e4 6b bf 4c 18 23 bf 97 62 0d bf bc 8d 4f bf
       -0.9214494 -0.6370895 -0.5522856 -0.81075644
000180 11 18 e4 3e 2a a0 e4 3e b8 e7 6b 3e 95 63 57 3e
       0.4454961 0.44653445 0.23037612 0.21034081
000190 48 fd 33 3e 93 52 0d bd 8d ae f2 3c 96 89 82 3d
       0.17577088 -0.034502577 0.029624248 0.06373899
0001a0 45 e2 d1 be 9a 66 7f bf be 79 cb 3e 8a 2a 0d bf
       -0.40992942 -0.9976593 0.3974132 -0.55143034
0001b0 89 f0 00 bf 24 c2 d8 bf 10 48 f6 3c 51 e8 e9 be
       -0.5036703 -1.6934247 0.030063659 -0.45685056
0001c0 59 da 9c 3b c8 49 aa 3b c8 8f 03 3c 45 17 22 3b
       0.0047867713 0.0051967837 0.008029886 0.0024733108
0001d0 9c c6 7c 3a 55 3a 10 3c 55 a2 16 3c 1a 28 fa bb
       0.0009642632 0.00880297 0.009193976 -0.007634175
0001e0 91 5e e3 3b 32 64 a9 bb 77 8a a6 ba 16 9b eb 3a
       0.0069387634 -0.005169415 -0.0012706061 0.0017975296
0001f0 e8 98 ad bb d1 e5 5a 3b b1 5a 91 ba 38 1e 64 bb
       -0.005297769 0.0033401141 -0.001108965 -0.003480805
000200 31 12 4e 3e d1 2d 47 3d eb 94 08 3e cf 72 05 be
       0.20124127 0.04862768 0.13338058 -0.13032077
000210 85 68 81 bb 7f e6 d6 be f0 61 c0 3d 34 42 0d be
       -0.0039492273 -0.4197273 0.0939368 -0.13794786
000220 4a e4 32 bf 39 c7 48 bf 88 e3 a9 3e ff eb 57 be
       -0.6987959 -0.7842899 0.33181405 -0.21086119
000230 d2 33 36 bf 09 68 04 bf bd d8 28 be 53 2b 08 bf
       -0.7117282 -0.51721245 -0.16488929 -0.5319111
000240 5e 2a 91 3d a1 fd 0d 3e 85 ce a3 3e e1 7e 98 3e
       0.07088159 0.13866283 0.319935 0.297843
000250 2b c9 71 be 52 8f e6 be a9 67 1e 3e 9d e4 35 3f
       -0.23611896 -0.4503122 0.1546923 0.7105196
000260 b8 f5 01 bf ee d1 44 bf 85 2b 83 3e 12 2d ce 3e
       -0.5076556 -0.7688283 0.2561914 0.4026876
000270 e0 be 67 3e f3 a8 76 bf 80 64 85 3d bd 91 85 bf
       0.22631407 -0.96351546 0.065133095 -1.0435101
000280 f3 cb d4 3e 3d 22 b2 3e 9c 19 71 3e b2 48 13 3b
       0.4156185 0.34791747 0.23544925 0.002247375
000290 7c ef 1b 3f 15 24 30 3f 90 e1 d9 3e 7e cf 0a be
       0.609123 0.68805057 0.42554903 -0.13555714
0002a0 48 07 cf 3b 7d 91 06 3e 95 a5 ea 3e 07 67 0f 3e
       0.0063180067 0.13141437 0.45829454 0.14004146
0002b0 3e d2 18 bf 9b 02 be bf ab 41 43 3d d6 e5 ae be
       -0.59695804 -1.4844545 0.047670048 -0.34159726
0002c0 a6 51 67 3e 26 14 c2 3d 81 55 47 3e e5 7e 69 3e
       0.2258974 0.09476499 0.19466211 0.22802313
0002d0 31 86 40 3e ba 43 28 3e d2 39 88 3e ed 91 80 3e
       0.1880119 0.16432086 0.26606613 0.25111333
0002e0 1d 92 48 be 94 31 60 3d 52 1a e5 3d ec 5c f8 bd
       -0.19586988 0.05473478 0.11186661 -0.121270984
0002f0 f8 73 67 bf 93 80 48 bf a3 ad d8 be 5f df 85 bf
       -0.9041133 -0.7832119 -0.42319974 -1.0458792
000300 74 72 4f bd b5 83 9d 3d a4 62 57 3e 2f 8e b8 3e
       -0.05064626 0.07691137 0.21033722 0.36045977
000310 e9 bc c1 be 79 46 dc bd 85 7c 51 bd b2 42 c9 3e
       -0.3783944 -0.10755629 -0.05114414 0.39308697
000320 82 b7 1d bf c6 fa 9b 3d e2 30 62 be b9 19 ab bd
       -0.61608136 0.076161906 -0.2208896 -0.083545156
000330 e1 32 79 be e1 64 57 3b 60 ec 90 be 64 11 66 bf
       -0.24335815 0.0032866525 -0.2830534 -0.89870286
000340 dc ce 63 3e 04 dc 9e 3e 48 ab 0b 3e 8b 7f 38 bd
       0.2224688 0.31027234 0.13639557 -0.04504351
000350 60 9b bd bd dd fc ae be 81 79 3d 3e b6 cf d6 be
       -0.09258151 -0.34177294 0.18503381 -0.41955346
000360 a3 e0 c8 be 76 a7 49 bf cf 1c 8e 3e 8b 80 0f bf
       -0.39233884 -0.7877115 0.27756354 -0.56055516
000370 37 77 c7 bf 7d 19 c4 be ae 08 26 be ae 29 c2 bf
       -1.5583256 -0.38300696 -0.16214249 -1.516897
000380 14 cb 98 3e fb 36 e4 3e b5 d3 62 3e 6b c8 02 3e
       0.29842436 0.44573197 0.22151072 0.12771766
000390 69 cf 1d 3d ac 12 31 3e 60 96 0c 3e 6d d9 ca bd
       0.03852788 0.17292279 0.13729239 -0.09904752
0003a0 4f 4d 77 bf c2 f2 13 bf ab 8d 57 3e 93 a7 3a bf
       -0.9660234 -0.57792294 0.21050136 -0.7291195
0003b0 6b 2b ad bf b2 47 65 be 45 78 ea bd 0c 54 6b bf
       -1.3528875 -0.22390631 -0.11448721 -0.9192512
0003c0 e8 36 12 3e 77 d3 17 be 43 b0 1d 3e 20 52 05 3f
       0.14278758 -0.14826761 0.1539927 0.5207844
0003d0 17 0d 86 3e 71 6b f0 bd 72 0b 54 39 ee b9 44 3e
       0.26181862 -0.11739243 0.00020222159 0.19211552
0003e0 1d 4f 77 3e cc 1f 79 be ab 2a 1a 3f ae 90 82 bd
       0.24151273 -0.24328536 0.60221356 -0.06375252
0003f0 05 3d 9d 3e 61 f3 e1 bf 39 cf 81 bf 03 05 77 3e
       0.30710617 -1.7652398 -1.0141364 0.24123006

conv2d_3.bias f4 [32]
000000 39 ce 6a 3f 3f 5f 9d 3e ad 23 be 3e 43 2f de bc
       0.9172092 0.3073673 0.37136593 -0.027122146
000010 0c 8a 11 3f 34 61 a1 3e a1 f2 50 3e 5f 08 b8 3e
       0.5685127 0.31519473 0.20405056 0.35943887
000020 47 db 19 bd fe 27 fd 3e 2e f5 0d 3d c8 43 df bc
       -0.037562635 0.49444574 0.03465765 -0.027254
000030 e4 9b c5 3e 0d 39 ca 3e ed cf e9 3e 3b 68 94 3e
       0.38595498 0.3949665 0.45666447 0.28985772
000040 16 6b 00 3f db 02 20 bd e1 50 96 3e e0 98 dc 3e
       0.501634 -0.039065223 0.2935858 0.43085384
000050 a6 cd 28 3e cd 3b 94 3e 61 af 88 3e de 9b d0 3e
       0.16484699 0.28951874 0.26696303 0.40743917
000060 40 48 31 3e b8 19 d5 be 2a 06 50 bd 93 b1 bd 3d
       0.17312717 -0.41621184 -0.05078713 0.09262385
000070 dd c7 ba be f2 3f 61 3f 71 e2 32 3f f0 04 78 bc
       -0.3648061 0.879882 0.6987677 -0.015137896

lstm.weight_ih_l0 f4 [32, 128]
000000 3d c6 aa be e4 bc c2 bc 1e 87 10 3d ac 0c 14 3f
       -0.3335437 -0.02377171 0.035285108 0.57831836
000010 69 b5 0b bf 4a a1 de 3d aa f7 32 3e 82 13 e4 3e
       -0.54573685 0.10870607 0.17477289 0.44546133
000020 10 12 f4 bd 36 c0 3c 3c 78 f8 c3 3e 19 a2 bd 3e
       -0.11917508 0.011520436 0.38275504 0.37037733
000030 19 75 ac bc 1e 99 a1 bd 40 3a 6d be 11 70 19 3f
       -0.02105193 -0.07890533 -0.23166752 0.59936625
000040 99 a6 6a bd 4f aa ff 3d fd f5 33 bd 71 27 80 3e
       -0.057287786 0.12483656 -0.043935765 0.2503009
000050 7d cd a6 bd 0e 7f 06 3f 39 84 b6 bd 71 de c2 3d
       -0.081446625 0.5253762 -0.08911938 0.095150836
000060 69 c6 9a ba 0d 29 fa 3e d3 20 71 3d 5c 52 cd 3d
       -0.0011808398 0.48859444 0.058869194 0.100254744
000070 af 2d 89 bc 10 58 9c 3d 80 9d 28 bc 7f d2 7e bc
       -0.016745416 0.07633984 -0.010291457 -0.015553116
000080 24 ae 70 bd 0b 81 fa bd 6c 12 63 be 7a 86 cd 3c
       -0.058759823 -0.12231644 -0.22174996 0.025088537
000090 cb 40 5a 3d 33 a0 30 3d b4 f6 c4 3d 69 57 e4 3c
       0.053284448 0.043121528 0.096173674 0.027873712
0000a0 ba 04 91 be f8 ab b2 3e 2b 4a 0f 3e 7b 63 84 be
       -0.2832392 0.34896827 0.13993137 -0.25857148
0000b0 61 01 04 bf 6b 5a 83 3e ac 9c 7b bd 64 ce 30 3d
       -0.51564604 0.2565492 -0.06142871 0.04316558
0000c0 a4 57 59 bf c4 20 a9 be 3e 82 a5 3f 9a ce 8f 3e
       -0.84899354 -0.3303281 1.2930372 0.28087312
0000d0 cd 9f 5e bf 43 ae 5b be 8e bb 97 3f b6 94 be 3e
       -0.86962587 -0.21453194 1.1854112 0.37222832
0000e0 e6 50 59 bf 3d 76 06 3f 42 9d 1e 3e af e7 64 3e
       -0.84889066 0.5252417 0.15489677 0.22354005
0000f0 9f 7b 38 bf 39 57 97 bd 20 85 e5 3c 23 a1 9a bd
       -0.7206363 -0.07389683 0.02801758 -0.07550266
000100 69 61 12 3f 78 9a 6b 3f 8a 25 cf 3c e7 0a 3e 3e
       0.57179886 0.92032576 0.025286455 0.18558846
000110 b3 ff 12 3f 78 5c 5b 3f c8 8a 8d 3e 2e 2d be 3e
       0.57421416 0.8568797 0.27644944 0.37143844
000120 11 33 00 3f 9c 84 a7 be 27 93 7b 3d b3 5f b3 3e
       0.5007792 -0.3271836 0.061419632 0.3503395
000130 a5 5f 15 3f 7a 32 33 be bd 96 73 3d 26 ba e9 3e
       0.58349067 -0.17499724 0.059469927 0.45649832
000140 32 d2 0e 3f f6 e7 b3 3e 5f c7 70 3e bd f8 02 3f
       0.5578948 0.3513791 0.23513554 0.51160794
000150 e8 c4 ec 3e 23 04 90 3e 3e ae de 3c 4a 6a e6 3e
       0.46243978 0.28128156 0.027182695 0.45002967
000160 77 15 b3 3e c2 f9 0c 3f 05 f8 c4 be fe b9 1d bd
       0.34977314 0.550686 -0.38470474 -0.038507454
000170 37 8d 62 3e 2c 27 6d 3f dc 97 c2 bd 56 5a 58 be
       0.22124182 0.92637897 -0.09501621 -0.2112821
000180 a3 44 39 3e 9a 83 1b be b3 51 0f be fb b5 fa bd
       0.18092589 -0.15186921 -0.1399601 -0.12241741
000190 7a 8c f4 3d c0 9f ba bc 55 8d de bd 26 7e 25 bc
       0.11940856 -0.022781253 -0.10866801 -0.010100877
0001a0 8f 0c 25 bd b0 22 ee bc 44 09 e4 bd d6 9c 69 3c
       -0.04029518 -0.029069275 -0.1113458 0.014258584
0001b0 34 5c df 3c 92 90 59 bd 91 7f eb bb e1 cf d4 3d
       0.027265646 -0.05311639 -0.007186838 0.10391212
0001c0 d6 0f d4 3a 53 d7 53 bd 6c f4 04 bd 65 c8 56 3d
       0.0016179036 -0.05171902 -0.03245966 0.052437205
0001d0 d9 04 8e bc 35 8f 0f be 2f b9 c8 bd 55 53 2e be
       -0.017336296 -0.14019473 -0.09800946 -0.17023976
0001e0 dd 79 d6 bd 51 e0 ba bd 40 69 20 3e 86 a8 63 3e
       -0.10472462 -0.09124816 0.1566515 0.22232255
0001f0 ad 83 3d bd 73 0d 96 bc db 5e 27 3f 4b 0f 49 3f
       -0.046268154 -0.01831696 0.6537911 0.7853896
000200 72 7d 6b bd e9 de 72 be b3 0b 75 be 3e ae 72 3e
       -0.05749268 -0.23717846 -0.23930244 0.2369928
000210 b2 0e 82 be 6f 98 bc bd e0 a3 70 bd bf 81 14 3f
       -0.25401837 -0.09208762 -0.058750033 0.58010477
000220 0b b7 d9 3e e8 67 c6 3c b5 f5 8b be d6 e4 3a bd
       0.42522463 0.024219468 -0.27335897 -0.04562839
000230 78 3b 45 3f 58 ba 0f 3d f1 b8 71 be 88 e3 99 3e
       0.7704387 0.03508982 -0.23605706 0.30056405
000240 7b 5d 19 3f 06 43 08 3f 34 a8 c1 3c 75 c5 be 3e
       0.59908265 0.5322727 0.023639776 0.37260023
000250 f2 c3 18 3e 32 a0 6e 3d 41 84 ab 3d 40 ca 64 3f
       0.14918497 0.058258243 0.08374835 0.8937111
000260 74 f9 88 3e b4 5c 91 3e 9c 30 f8 ba dc dd 87 bc
       0.26752818 0.2839104 -0.0018935385 -0.016585283
000270 3c e2 a2 bc 52 82 a6 bb 0f 3d d0 3b 63 7d f4 3d
       -0.019883268 -0.0050814534 0.006354935 0.11937978
000280 ed 24 14 bc 61 ce 61 be 98 a7 90 3d 32 1f 49 3d
       -0.009042007 -0.22051384 0.07063216 0.049102016
000290 6d 72 0d be 8b 47 a9 bd a6 b8 e8 3d 86 c7 b7 3d
       -0.13813181 -0.08265599 0.11363344 0.08973603
0002a0 e3 3d e8 3e e1 3f 52 3f 14 da 51 be 33 9f 96 3d
       0.45359716 0.8212872 -0.20493346 0.073545836
0002b0 06 39 29 3f 22 0b 83 3f c0 c0 ec 3d 04 2d fd bc
       0.66102636 1.0237772 0.11560202 -0.030905254
0002c0 79 7e a4 3e 57 f6 f6 3e 0f b5 48 3e 08 91 87 3e
       0.3212774 0.48234817 0.19600318 0.26477838
0002d0 8f fa 93 3e c9 cd c3 3e 4b b8 2f be c2 77 33 3e
       0.289021 0.3824294 -0.17160146 0.17526153
0002e0 94 78 b2 3e 00 b6 2a bd bf 90 48 be 80 8f e9 3e
       0.3485762 -0.041677475 -0.19586466 0.45617294
0002f0 ac 58 3f 3f f0 c9 ed 3c cb 24 72 be f0 ab a9 3d
       0.7474468 0.029026955 -0.23646848 0.082847476
000300 f6 8c 07 3f 0d 09 39 3e 58 38 1c be e7 1a 74 be
       0.52949464 0.18069859 -0.15255868 -0.23838387
000310 dd db 15 bc be 95 59 3f 67 79 a2 3e 24 98 90 3e
       -0.009146658 0.84994113 0.31733248 0.28241074
000320 63 9d 1e bf 58 28 0d 3e 82 6b 5b 3d ea 3d 35 3e
       -0.61958903 0.13784921 0.053569324 0.176994
000330 82 d4 06 bf db d0 23 3f 55 4e 67 3d f5 ec d3 3c
       -0.5266801 0.63990563 0.056471188 0.025869826
000340 5c fd 88 be ee bb dd 38 50 8f 13 be 0f 77 b4 3d
       -0.26755798 0.00010573106 -0.14410138 0.08811771
000350 61 0a 95 be c7 bc 15 be 7a 6a 92 be 61 d5 48 3e
       -0.2910948 -0.14622794 -0.2859686 0.19612648
000360 2f 97 9a be 89 c7 1f 3e e3 4d a3 bd 7d 49 fd 3d
       -0.3019347 0.1560346 -0.0797384 0.123675324
000370 2c 2b 21 be d3 21 03 bd 28 63 68 be 24 23 23 bb
       -0.15739125 -0.03201468 -0.22694075 -0.0024892772
000380 f6 c1 1a 3d 39 bf d5 3d 0a 7c d3 3e 3a b2 f2 3c
       0.03778263 0.104368635 0.41305572 0.029626
000390 33 b0 2e 3e 4f eb 95 bd 57 48 85 3c 4f 3a 8b bd
       0.17059402 -0.07320272 0.016269846 -0.06798231
0003a0 92 cd d3 3e 5c e3 dd bc f5 f3 f3 bd c2 37 0b be
       0.41367775 -0.027085952 -0.119117655 -0.13595489
0003b0 62 89 8b 3f 83 a5 7f 3d 81 51 01 3d 64 8f f8 bc
       1.0901301 0.062413704 0.03157187 -0.030341811
0003c0 ce 39 3a 3f 96 62 d4 bd bc 52 bd be 7a eb 39 bd
       0.7274445 -0.10370366 -0.36977184 -0.045390584
0003d0 62 31 27 3f 40 5c 81 be bb a3 82 3e f1 52 3c be
       0.6530973 -0.25265694 0.2551554 -0.18391015
0003e0 7e b3 97 3f 2d e8 b2 bc 67 76 dc 3e 1e 21 28 be
       1.1851652 -0.021839226 0.43059084 -0.16418883
0003f0 b9 a2 97 3f fb 05 1f 3e c2 f1 86 3e a4 6e a7 be
       1.1846534 0.15529625 0.26356322 -0.327016

lstm.weight_hh_l0 f4 [32, 8]
000000 f1 e9 ec be b5 2a bc bf 0c 65 b1 3e a7 17 c8 be
       -0.46272233 -1.4700533 0.34647405 -0.39080545
000010 86 3d d9 bd be d9 36 3f 39 fa f6 3e e1 fa 27 be
       -0.10607438 0.71426 0.4823778 -0.16404296
000020 f3 c1 8f 3d c2 bf 56 bf 31 81 5f bf 14 c4 0c 3f
       0.07019415 -0.8388635 -0.87306505 0.5498669
000030 69 3e 7b bc e5 78 82 be 65 b4 d0 3f 5e 83 eb 3f
       -0.015334704 -0.2548286 1.6305052 1.8399465
000040 4c 85 94 3e 3f 5e 52 be 8f 3e da be 62 b0 6f be
       0.29007947 -0.20543765 -0.42625853 -0.23407128
000050 a8 f1 4e 3f 92 93 d9 bf ee c4 3f bf 82 ec 1e 3f
       0.8083749 -1.699816 -0.74909866 0.6207963
000060 10 00 91 3e c2 5a fd bc eb cb 2d bf 4e fe 27 3f
       0.2832036 -0.030927066 -0.6788928 0.65622413
000070 cb fa 8e be 2a bc cc be d5 d4 7f be 54 ac fb 3e
       -0.27925715 -0.39987308 -0.24983533 0.49154913
000080 65 45 18 bf a0 2c 1e 3f a9 1e 9e bd 37 d9 f8 3e
       -0.5948089 0.6178684 -0.07720692 0.48603222
000090 10 58 71 bf 8a 4b 4f 3f 28 56 5a 3f 89 ad 4e be
       -0.94275 0.8097464 0.85287714 -0.20183386
0000a0 67 36 78 3f 76 4b bb 3e 74 1a 8a 3e c5 b0 53 be
       0.9695801 0.3658101 0.26973307 -0.20672901
0000b0 17 48 2c 3f 7d e8 29 bf 5e fd 1d 3f 03 3e 18 be
       0.672975 -0.66370374 0.6171473 -0.14867406
0000c0 af 1b 98 3e 3b d5 0e be c9 fb 71 bb 20 05 bb be
       0.2970862 -0.13948528 -0.0036923757 -0.36527348
0000d0 03 c6 2e bd 41 b2 ab 3e fc cd 48 3f 8c 8f 37 bc
       -0.042669307 0.33534434 0.7843931 -0.011203658
0000e0 8e 8f e5 3e 48 89 13 bf a7 8e a5 bf 07 dc 0a 3f
       0.44836086 -0.5763135 -1.2934159 0.54241985
0000f0 65 f4 1c bf 0e db a4 bf a4 77 5d bf 4d 94 cb 3f
       -0.61310416 -1.287935 -0.8651068 1.5904633
000100 44 f8 17 be a1 fa d4 be b0 06 2f bf b3 44 2c bf
       -0.148408 -0.41597465 -0.6836958 -0.67292327
000110 b4 0c 66 3b 2f a2 82 be 6c 57 01 3f 27 91 46 bf
       0.0035102786 -0.2551436 0.5052402 -0.77565235
000120 a7 e7 25 bf 79 c3 24 3f c4 8e 46 3d df 7b 27 be
       -0.648066 0.6436077 0.048475996 -0.16355847
000130 0f bb e9 3d ec aa 01 3f 7a aa ee 3e b2 7f 41 bf
       0.11412632 0.5065143 0.46614438 -0.7558547
000140 48 06 22 bf 0d 61 95 bf 8e 4d 9a be e2 06 b6 3e
       -0.63290834 -1.1670243 -0.30137295 0.35552126
000150 11 f5 5c bf b1 b8 4e be 60 a0 80 bf e6 79 10 bf
       -0.8631144 -0.20187642 -1.0048943 -0.56436
000160 65 e7 44 3e bc f6 40 3e c4 88 99 be 20 21 bb be
       0.19228895 0.18844122 -0.29987156 -0.3654871
000170 9f 80 05 bf b8 8d 4d 3e 66 f9 9b bf 4c 8a 65 bb
       -0.52149385 0.20073593 -1.2185485 -0.0035025058
000180 3f a1 0c bf 56 c0 87 be 0d df eb be ce 67 3e 3e
       -0.5493354 -0.26513928 -0.46068612 0.18594286
000190 f5 57 eb be 4e 06 af 3e c9 63 8c 3f ce 0d 7c 3e
       -0.45965543 0.34184498 1.0967952 0.24614641
0001a0 8b 36 92 3c f6 cb 03 be 3b 96 ad 3d 86 80 dd 3e
       0.017848274 -0.12870774 0.0847592 0.43262118
0001b0 28 7e 82 bf 3f 1e 01 3e ee 96 81 be a9 43 55 3e
       -1.019475 0.12609194 -0.25310463 0.20826592
0001c0 d6 48 31 be 27 62 da 3e 85 18 16 bf d9 3d b0 3e
       -0.17312941 0.4265301 -0.58631164 0.34422186
0001d0 cf b6 36 3e b7 ce bc be 53 97 a9 be 8b 30 98 be
       0.17843173 -0.3687646 -0.33123264 -0.29724535
0001e0 e8 3a 49 be b8 8f 1f bf 02 45 f3 3d 86 2c 45 3e
       -0.19651377 -0.6232867 0.118783966 0.19255266
0001f0 7b 25 05 3f 7b 49 15 3f 9a d5 68 bf 71 ce cc 3d
       0.52010316 0.5831525 -0.9095093 0.10000313
000200 30 20 ab 3d 5e 1c 6a be d7 a2 3d 3b 4a b4 3a be
       0.08355749 -0.22862384 0.0028936171 -0.18232837
000210 0d 2c 1f bf e2 64 24 3f f5 e7 0e 3e ef 82 36 be
       -0.6217659 0.64216435 0.13955672 -0.17823385
000220 03 1b 92 3f 20 50 0f bf 9d 67 df be c9 76 b0 be
       1.1414493 -0.55981636 -0.43633738 -0.34465626
000230 99 1f e1 be e7 c4 90 3d fc de 1d 3b 92 36 ef be
       -0.4396942 0.07068806 0.0024089208 -0.4672132
000240 a3 25 cc 3c 36 d0 7a be 8d 8d 2c 3e 09 58 17 be
       0.02492029 -0.24493489 0.16850872 -0.14779676
000250 ac d6 7e 3d 9a 12 85 3d 54 96 65 3f 2c 00 4f 3e
       0.062216446 0.064976886 0.8968251 0.2021491
000260 83 b6 aa bd 94 26 f4 bd a5 f9 64 bf 1a 0a f8 be
       -0.083355926 -0.11921421 -0.8944343 -0.48445207
000270 ff 14 80 be 2c ef 14 3f 5a 54 ce be 0d cc ea be
       -0.2501602 0.5817745 -0.4029873 -0.45858803
000280 27 ed f2 3d 1c e0 83 3e 8b a9 ae be f2 16 ed be
       0.118616395 0.2575692 -0.34113726 -0.46306568
000290 bc 37 1a be c8 8c 84 3e 6c 68 7c bf 81 fb 2a 3e
       -0.15060323 0.25888658 -0.98596835 0.16697504
0002a0 3c 32 84 be 28 e9 85 be 41 7c 3f be 33 a9 d0 bd
       -0.25819576 -0.26154447 -0.18699743 -0.10188522
0002b0 91 c1 2c 3e 85 b8 9c 3e 77 76 50 3e 6c 31 95 3c
       0.16870715 0.30609527 0.20357691 0.018212043
0002c0 c6 aa 29 bd 32 4d d4 3d 62 9f ae be 91 b7 0a 3f
       -0.041422628 0.10366286 -0.34105974 0.5418635
0002d0 10 c4 f4 3d 9e b4 9d be 97 06 b5 3e 3b 4a be 3e
       0.119514585 -0.30801862 0.3535659 0.37166008
0002e0 49 6c 43 bf 17 80 80 3d 36 27 8a be ee 19 2c 3f
       -0.76337105 0.06274431 -0.2698304 0.67227066
0002f0 4a 93 e5 3e 73 4d 8b be f7 26 97 bf 7e 2d 51 be
       0.44838935 -0.27207527 -1.1808766 -0.2042751
000300 d1 99 1e 3f 89 33 15 bf c1 53 7e be e0 07 b4 3e
       0.61953455 -0.5828176 -0.24836637 0.35162258
000310 d2 61 42 bf 23 2f 86 be d9 3c 89 3f ff 8e d6 bd
       -0.7593051 -0.26207837 1.0721694 -0.10476493
000320 c8 d8 62 3f 1d 6c 14 3f 5a 1a 91 be c7 38 22 3e
       0.8861203 0.5797747 -0.28340417 0.15841971
000330 57 f7 32 3f 0d f7 a4 bf 09 09 5c bf 4e 47 f4 3e
       0.6990866 -1.2887894 -0.85951287 0.4771065
000340 70 21 23 3e d0 de 0d 3f cf 7c 6e 3b 1e 84 b3 3e
       0.15930724 0.5541811 0.003639031 0.35061735
000350 1e 66 6c bf e2 34 7e 3c 2b 04 89 be 4a 6b 18 bf
       -0.9234332 0.015515538 -0.26760992 -0.5953871
000360 a2 6a 56 3f bd 7e 93 3e 66 a8 e2 be aa b3 e6 3d
       0.8375646 0.2880763 -0.44269103 0.11264737
000370 8a 3a da be 1c 83 e8 bd f3 2d 9f 39 cd d6 d8 bc
       -0.42622787 -0.11353132 0.00030361078 -0.026469612
000380 db 8c 0e 3e a8 a6 04 bf 0b bd b0 be f0 c9 27 bf
       0.1392092 -0.518168 -0.34519228 -0.6554251
000390 f7 3c 81 bf 66 85 cd 3e 88 0e 19 bf 2b 5c 9f be
       -1.009673 0.40140837 -0.597878 -0.31125006
0003a0 7d 80 bd 3d 4a ae a4 bf 9a a4 4b 3f 22 e5 90 3e
       0.09253023 -1.2865689 0.7954804 0.28299814
0003b0 cc 96 5f bf 67 5c 81 bd 79 a9 6f 3e ff ff 50 bf
       -0.8733947 -0.063164525 0.23404492 -0.8164062
0003c0 b7 f4 b1 be f5 50 8c be 3d 3c a0 be a6 c2 9c 3e
       -0.34757015 -0.27405515 -0.31295958 0.30617255
0003d0 de db ea 3c b8 6e 19 3f 0c 04 ad bd 8b e6 24 3e
       0.028669294 0.5993457 -0.084480375 0.1610357
0003e0 c0 7d dc 3d d7 ca 64 be 23 f1 95 be f0 d2 12 3f
       0.107661724 -0.22343002 -0.29285535 0.57353115
0003f0 e1 a1 fb bd 98 a7 2e 3f a5 36 22 bf e6 05 e4 3e
       -0.12286735 0.6822448 -0.6336463 0.4453575

lstm.bias_ih_l0 f4 [32]
000000 13 9e 99 be 9f bf 78 be 73 c8 af be 0e eb 16 bd
       -0.30003414 -0.24291848 -0.34332618 -0.03684526
000010 ce 14 37 3e 2e ee 1f 3f 28 54 9c 3d 61 e2 eb 3c
       0.1787903 0.6247281 0.07633239 0.02879447
000020 f4 c0 0b 3e c4 5a 98 be 06 cd 0f bf 9b 3b 86 be
       0.13647825 -0.2975675 -0.56172216 -0.2621735
000030 68 9c b1 bb f1 bf 5b be fa cf cc bd f7 79 45 3e
       -0.0054202564 -0.21459939 -0.10000606 0.19284807
000040 c7 64 65 3e 83 e9 95 3e 1a e0 cc 3e 11 ac 0f be
       0.22401725 0.29279718 0.40014726 -0.14030482
000050 3c dd 00 3e 80 f2 66 3e f6 a7 ed bd f8 d6 20 bd
       0.12584394 0.22553444 -0.11604302 -0.03926751
000060 4b 34 23 3e 57 2d f5 3d 9b 22 92 3d ef ba cb 3d
       0.15937917 0.119715385 0.07135507 0.09947764
000070 05 71 b6 3d 1d 5c 8e bc de d9 27 3f 9c e9 12 bf
       0.089082755 -0.017377907 0.65566814 -0.5738771

lstm.bias_hh_l0 f4 [32]
000000 3d 5a 89 be e3 9b 98 be f4 51 6c be 27 e2 a4 bc
       -0.2682666 -0.29806432 -0.23078138 -0.02012737
000010 e3 26 18 3e 24 21 24 3f 34 ab 20 3d 25 5c a2 3d
       0.14858584 0.6411307 0.039225772 0.079277314
000020 d4 69 fe 3d e3 cf 95 be 23 79 08 bf ec fe 7f be
       0.12422529 -0.29260167 -0.5330984 -0.24999589
000030 61 6e f3 bc c1 1c 2e be 22 d8 cd bd 80 b0 71 3e
       -0.029715719 -0.17003156 -0.1005099 0.23602486
000040 6b 34 36 3e e7 fd 90 3e 1c 74 c1 3e eb d9 ce bd
       0.17793433 0.28318712 0.37783897 -0.10100158
000050 1a e3 20 3e 72 30 32 3e 5b 19 1a be 56 21 28 bd
       0.15711632 0.17401293 -0.15048735 -0.041047417
000060 10 bc fd 3d 96 95 9f 3d fe 60 15 3e 7a a1 10 3e
       0.12389386 0.07792203 0.14587781 0.14124098
000070 60 21 4e 3d 55 51 eb ba 83 86 33 3f f6 40 16 bf
       0.050324798 -0.0017953316 0.70127124 -0.5869287

lstm.weight_ih_l1 f4 [32, 8]
000000 51 98 35 bf ee 3b 17 bf 41 b3 f6 be 0a 96 2e bf
       -0.7093554 -0.5907582 -0.48183635 -0.6819769
000010 63 0f fd be 60 c0 2d bf 52 5f 1a 3f 00 99 20 3f
       -0.49425802 -0.67871666 0.603017 0.6273346
000020 43 66 25 bf 1e c9 0e bf 58 55 b3 be 16 2d 3f bf
       -0.64609164 -0.5577563 -0.3502605 -0.7467817
000030 2a 26 fe be 62 d0 57 bf 77 ec 18 3f b5 1f 0a 3f
       -0.49638492 -0.8430234 0.59735817 0.5395463
000040 aa 61 b5 bd 20 80 98 bd 23 b3 a3 bd 1c a9 8a bd
       -0.088565186 -0.07446313 -0.07993152 -0.06770536
000050 ea b4 e0 bd 0b 62 6a bf 8b 53 14 bd ed d1 84 3e
       -0.109720066 -0.9155585 -0.036212485 0.2594141
000060 19 96 c1 be 5b 40 0f 3f 5f 7d a0 bb 96 50 1e 3f
       -0.37809828 0.55957574 -0.004897758 0.61841714
000070 e8 53 49 bf b5 79 ea bf c9 4c 54 3e fd 89 19 3f
       -0.78643656 -1.8318392 0.20732416 0.5997618
000080 7b fb 03 3f d4 f8 01 3f 1f 6c e3 bd fc f0 a9 bd
       0.51555604 0.50770307 -0.11104607 -0.08297917
000090 dc bd 0a c0 11 98 1b 3c b2 1d d6 3e a1 87 0e 40
       -2.167838 0.009496705 0.4181953 2.2270281
0000a0 35 d0 00 bf 32 73 28 bf eb 54 d1 3e 70 4f 00 bf
       -0.503177 -0.65800774 0.408851 -0.5012121
0000b0 2f 52 12 3e 37 82 27 bf 64 79 51 3f 6f bf dc 3e
       0.14289163 -0.6543307 0.8182585 0.43114802
0000c0 e9 e4 07 bf 10 b0 1b 3f 76 a4 92 bd 0a da 1b bd
       -0.53083664 0.60815525 -0.07160275 -0.038049735
0000d0 73 03 1a bf c3 3c 91 3d 86 40 73 bf c8 f7 8e bd
       -0.60161513 0.070916675 -0.9502033 -0.06980854
0000e0 2b 7b 11 bf 19 b9 18 bf f8 54 74 bd 97 bf 1a bf
       -0.56828564 -0.59657437 -0.059651345 -0.6044859
0000f0 fd d3 7f be 44 37 5f bf 95 dd 6b 3f d6 4c b4 3e
       -0.24983211 -0.87193704 0.9213498 0.3521487
000100 1c c5 fa be 63 c1 e3 be b7 b7 5e be c2 f8 d1 bc
       -0.48978508 -0.4448348 -0.21749769 -0.025631312
000110 5b fc aa be 53 37 e2 bd 43 b1 34 3e 13 40 b1 3e
       -0.33395657 -0.110457085 0.17645745 0.34619197
000120 f4 37 8b be bb 2d c4 be 32 9a 17 3d 6d 9f fd bd
       -0.27191126 -0.3831614 0.037012286 -0.12383924
000130 d2 be 85 be c6 64 ab be 74 1c 7d 3e e4 85 b1 3e
       -0.26122147 -0.33475322 0.24717885 0.34672463
000140 4e 0c c8 be f8 48 0b bf 47 b9 96 be 2f 26 83 3e
       -0.39071888 -0.54408216 -0.2943823 0.2561507
000150 97 df c3 bd 61 2f 9c be d0 a0 c5 3e 3f 6a 1b 3f
       -0.09564131 -0.30504897 0.38599253 0.60708994
000160 41 fe eb 3e ee 37 d9 3c f2 ef a5 bd 39 f2 20 bd
       0.46092418 0.026515927 -0.081024066 -0.0392935
000170 43 cc 4a 3f ed 85 b7 bf 5f e7 22 3e a5 68 77 be
       0.7921793 -1.4337746 0.15908574 -0.24161012
000180 c8 6c 10 3e 41 e1 d6 bd ce 3d 26 3e de 0e 4f bd
       0.14103997 -0.104921825 0.16234514 -0.050551288
000190 f0 29 58 bf 28 75 3f 3f a3 0b 7b 3d 6b 04 49 3d
       -0.8443899 0.7478814 0.061290395 0.04907648
0001a0 c6 31 69 be 29 a6 39 be 71 78 08 3f 10 a6 9a be
       -0.22772893 -0.18129791 0.5330878 -0.3020482
0001b0 3e 95 b3 3d 0b 97 2f bf 95 5e 93 3e 3e 8f 8e 3e
       0.087687 -0.6858985 0.28783098 0.2784366
0001c0 af eb 61 3e 88 cb ed 3e de 3d 2f 3e 8e 29 7c 3e
       0.22062562 0.46444345 0.17113444 0.24625227
0001d0 ae ed dc 3e e4 ea 19 be 18 fa 85 bf e3 81 83 3e
       0.43150085 -0.1503101 -1.0466948 0.25685033
0001e0 ba 3e 98 be b3 c5 49 be 6c 97 b1 3e 00 b0 c8 be
       -0.29735357 -0.19704323 0.34685838 -0.39196777
0001f0 56 7b 00 bd d8 0e 10 bf 05 ae dd 3e 2c f2 2c 3e
       -0.031367622 -0.5627265 0.4329683 0.16889256
000200 07 d5 0f bf 24 f1 c0 be 0a f6 81 be ff 46 dc be
       -0.5618443 -0.37683976 -0.25383025 -0.43022916
000210 7c 8b 94 be 80 a9 e5 be ae 4f d2 3e 1a 4d cf 3e
       -0.29012668 -0.4485588 0.41076416 0.4048851
000220 c7 1e e5 3e 57 c3 ca 3e 8d d4 65 3e fc 5d 08 3f
       0.44750044 0.39602157 0.22444363 0.5326841
000230 06 66 9a 3e 84 b7 17 3f 6e 5a be be 8b af c5 be
       0.30155963 0.592644 -0.37178367 -0.3861049
000240 fe f1 b4 bb c6 bf 89 bd a5 ad 91 3d aa cc 05 bc
       -0.005522012 -0.06726031 0.07113198 -0.0081664715
000250 7b ee 80 3e 91 42 19 3e 12 a0 2c 3e 46 3a e3 bd
       0.25181946 0.149668 0.16857937 -0.11095099
000260 15 ac 74 be 6b 93 ea bd bb 58 04 bd 81 8c ce bb
       -0.23893769 -0.11453899 -0.032311182 -0.0063033705
000270 57 9d da be be 96 3c bf 28 a0 82 3e 56 19 31 3e
       -0.42698166 -0.73667514 0.25512815 0.17294821
000280 2a 51 8e 3e 34 b7 5b 3e bf 89 eb 3e 5d 1c 9c be
       0.27796298 0.21456605 0.4600353 -0.3049039
000290 37 0b 18 3f b9 67 34 bf b6 c6 77 be b3 b0 68 be
       0.5939211 -0.7047077 -0.24196896 -0.22723655
0002a0 f4 2e 62 be 29 e2 8b be b9 50 b9 3e 8c 52 42 be
       -0.22088224 -0.27320984 0.361944 -0.18976802
0002b0 6e e1 85 3e 6a 53 a8 be 94 ee e2 3e c7 52 77 3e
       0.26148552 -0.3287614 0.44322646 0.24152671
0002c0 e7 33 d1 bc 61 c6 29 3d af 07 0f bf 6e 66 d7 3e
       -0.025537444 0.041448954 -0.558711 0.42070335
0002d0 30 70 0b be cc e4 14 be 11 3c 23 3d dd 86 31 3e
       -0.13617015 -0.14540404 0.039852206 0.17336603
0002e0 35 d3 a9 3e ef 19 c7 3e 9b 26 de bc 95 50 d1 3e
       0.3316895 0.38886973 -0.027118018 0.40881792
0002f0 22 02 03 3e 28 6a 17 3f 97 71 19 bf 3b 80 5d be
       0.12793782 0.59146357 -0.5993895 -0.21630947
000300 6f db 1c c0 c9 f8 13 c0 d8 a0 0a be b3 89 a1 bd
       -2.4508932 -2.3120596 -0.1353792 -0.07887592
000310 25 c9 1e 3f 35 e2 86 bf 58 01 05 3e 0b 58 19 3f
       0.6202567 -1.0537783 0.12988794 0.5989997
000320 16 03 df 3e d4 71 86 3d fe e0 14 3f e9 b5 da 3e
       0.43557042 0.0656468 0.5815581 0.4271691
000330 c4 80 47 c0 6b 10 94 bd 0e 67 3e 40 b0 e9 f9 3e
       -3.1172342 -0.07229694 2.97504 0.48811102
000340 7b 85 b1 3e 3b f4 45 3e 22 ca b1 c0 de 78 ab 40
       0.3467215 0.19331448 -5.5559244 5.3585043
000350 aa d3 1d be c9 bb 37 40 f1 22 9f 3e 73 b4 12 40
       -0.15412775 2.8708365 0.31081346 2.2922637
000360 cf 03 f5 3f 8e 05 ad 3e 06 f7 d2 be 1e 51 cf be
       1.9141787 0.337933 -0.4120409 -0.40491575
000370 c0 4f 28 bf 5e ea 17 be 10 c1 14 bf 69 ff 09 3f
       -0.6574669 -0.14835498 -0.5810709 0.5390535
000380 8f 2b 7a 3f 8e 06 ec 3d c9 80 8e be 0f b9 6c bf
       0.97722715 0.11524688 -0.2783263 -0.92469877
000390 54 07 4a be 45 ba 81 bf 56 ad 2c c0 ea 27 97 bd
       -0.19729358 -1.013497 -2.6980796 -0.0738066
0003a0 33 53 f1 3e 88 91 03 3f c9 75 e6 3d 24 b7 7f bf
       0.47133788 0.5139394 0.112529345 -0.99888825
0003b0 1a 47 e2 3e c4 5b 75 be 99 19 fe 3e c2 74 4a c0
       0.4419487 -0.23960787 0.49628904 -3.1633763
0003c0 5a 5b 81 3f b3 a6 30 3e 78 cc 4c be 31 37 49 be
       1.0106003 0.1725109 -0.19999874 -0.1964996
0003d0 7b d9 a8 3c 25 49 b1 be d1 4a ae 3c 2f b0 a5 3e
       0.020611515 -0.34626117 0.02127591 0.3236098
0003e0 00 28 a9 bd 63 57 0d bf b8 70 c5 be 31 16 92 be
       -0.082595825 -0.55211467 -0.3856256 -0.28532556
0003f0 bf 75 9c 3f 65 b7 33 bf 21 7a 37 bd d8 fb 06 bf
       1.2223433 -0.7020171 -0.044794206 -0.52728033

lstm.weight_hh_l1 f4 [32, 8]
000000 74 35 f2 3e ec bc fa be cd 5f 67 be 52 5c 89 3e
       0.47306406 -0.4897226 -0.22595139 0.26828247
000010 f3 77 7d be 91 1d b6 3e 70 d1 8e bd fe 91 f9 be
       -0.24752788 0.35569432 -0.06973541 -0.48744196
000020 ab cf bf 3e 30 be ac be b8 ea 6f be 04 56 91 3e
       0.37463126 -0.33738852 -0.23429382 0.28385937
000030 c1 6e 8c be 95 35 67 3e a3 5b d6 bd 75 63 e1 be
       -0.2742825 0.22579034 -0.10466697 -0.44021192
000040 9b 9b 45 3e 08 10 1d be 22 b7 11 bf c1 c3 a3 3e
       0.1929764 -0.15338147 -0.56920063 0.31985286
000050 09 bc 54 be 09 6f 4b 3d 53 36 3c be 7d cb 84 be
       -0.20774855 0.04966644 -0.18380098 -0.259365
000060 6c 65 21 bf 93 ec 95 3e 8c f2 fe 3d fb 66 35 bf
       -0.6304538 0.29282054 0.12448606 -0.7086026
000070 29 67 20 be ca c0 1e 3f f2 1d 78 be c0 7c 87 3d
       -0.15664352 0.6201292 -0.24230173 0.06615591
000080 33 86 8b 3e e7 92 58 3e 0d 7a bf bf 11 29 5d be
       0.27250823 0.21149789 -1.4959122 -0.21597697
000090 04 91 6f bc 71 32 12 be 74 43 d2 3d 8b e5 33 be
       -0.014621977 -0.14277054 0.10266772 -0.17568032
0000a0 dc e7 aa 3e dd 49 84 be d4 e2 03 be 28 2f 12 3e
       0.3338002 -0.25837603 -0.12879497 0.14275801
0000b0 7a 2b 98 be 5c 79 bc 3e f3 7a 4c be 0e 31 bf be
       -0.2972067 0.3681134 -0.19968776 -0.37342113
0000c0 77 17 21 3e 68 05 ca 3e c1 ed e2 3e 08 8e 80 3e
       0.15731607 0.3945725 0.44322017 0.2510836
0000d0 61 fe 13 bf a9 05 bf 3e a8 b6 60 3d 49 fd 09 be
       -0.57810026 0.37309006 0.054861695 -0.13475527
0000e0 22 11 4e 3e f3 8b aa be eb d1 f0 bd cb 4d 1a 3e
       0.20123723 -0.33309898 -0.11758789 0.15068738
0000f0 50 ad 35 be bf 94 9c 3e 5e 75 41 be 71 52 b4 be
       -0.17741895 0.30582234 -0.18892428 -0.35219148
000100 0d 13 38 3f 2c e7 3b bf 72 5a cd be 48 d6 e6 3e
       0.7190407 -0.73399615 -0.40108067 0.4508536
000110 8e 71 b2 be ad 0f 01 3f dc 54 45 bd e3 52 56 bf
       -0.3485226 0.50414544 -0.04817663 -0.83720225
000120 c8 97 1e 3f e0 e3 17 bf ee 78 9f be 29 6d c6 3e
       0.6195035 -0.59332085 -0.3114695 0.38755158
000130 04 6c 86 be 9f de ca 3e f4 71 0e be d7 ab 36 bf
       -0.26254284 0.3962297 -0.13910657 -0.71355957
000140 7d fb 89 3f c2 10 69 bf 97 df 63 bf 80 79 35 3f
       1.0779873 -0.91041195 -0.89013046 0.7088852
000150 3d 22 18 bf ec 66 38 3f bc e6 f5 3d ed 67 8a bf
       -0.59427243 0.72032046 0.120069 -1.0812966
000160 a8 c4 62 3e a0 5f 8e be b8 2a f0 3d 25 8e b2 bd
       0.22145331 -0.2780733 0.11726898 -0.08718518
000170 e4 c7 07 bf d3 4e c6 3d e6 0e 17 3e 61 5f e4 be
       -0.53039384 0.09683003 0.14751777 -0.44604018
000180 d9 2f 20 3f b6 1c de be 3b ca 1e bf 62 91 e5 bd
       0.6257301 -0.4338128 -0.6202733 -0.1120937
000190 1d 86 87 be 6f c7 85 bd f2 2b 4a 3d 98 e6 a2 be
       -0.26469508 -0.065321796 0.049358316 -0.31816554
0001a0 80 ba e2 3e a5 df e6 be df 73 9b be 7e 33 63 3e
       0.44282913 -0.45092502 -0.3036184 0.22187611
0001b0 0f 15 bb be fe 70 10 3f 59 f8 93 be d5 f6 10 bf
       -0.36539504 0.5642241 -0.28900412 -0.56626636
0001c0 38 73 04 3f ad 7f a1 be 33 4c 54 bf d2 32 5b 3e
       0.5173831 -0.3154272 -0.8292877 0.21406105
0001d0 38 ab 71 3e 3f d0 09 3e b0 00 75 be c6 54 01 bf
       0.23600471 0.13458346 -0.23926044 -0.5051998
0001e0 4a 49 e1 3e b8 2b 30 bf c7 62 5b be c6 06 9b 3e
       0.44001228 -0.6881671 -0.214244 0.30278605
0001f0 3f 56 9f be f7 24 18 3f 10 5e 6e be 01 44 08 bf
       -0.31120488 0.59431404 -0.2327807 -0.53228766
000200 aa a0 8a 3e 64 fc 9e be e1 ea 2d be 74 4c 3a 3e
       0.27075702 -0.31051934 -0.1698413 0.18193227
000210 a1 a5 10 be b4 65 37 3e 78 2f 23 bd a1 c7 bf be
       -0.14125682 0.1790989 -0.03984019 -0.37456992
000220 ea 30 a0 be 50 54 9f 3e 14 a9 f3 3d c7 7a fa bd
       -0.31287318 0.31119013 0.118974835 -0.12230449
000230 58 eb 06 3e 40 26 4e be 5a 76 07 3d d9 b0 78 3e
       0.13175714 -0.20131779 0.033071853 0.24286212
000240 34 9e 16 be 95 dd 37 3e 47 30 23 3f 10 25 50 be
       -0.14708787 0.1795562 0.6374554 -0.20326638
000250 77 56 15 3e 59 e1 a0 bd 79 04 bd 3d de 90 24 3e
       0.14583765 -0.07855482 0.09229369 0.16070887
000260 79 73 c1 3e 0d f1 50 be 46 1f c7 3e 87 fb 29 3e
       0.3778341 -0.20404454 0.38891047 0.16599856
000270 28 60 9b 3e 75 41 6d be c3 7a cd 3c dd 58 f2 3d
       0.303468 -0.23169501 0.025082951 0.118333556
000280 52 e5 72 bd a4 07 2a 3e 49 55 de 3e c1 f7 22 be
       -0.05930073 0.16604477 0.43424442 -0.15914823
000290 d6 40 d0 3e ea 02 18 be c7 e9 8f bd 4f 7c 8e 3d
       0.40674466 -0.14844862 -0.07027011 0.06957304
0002a0 2e 59 4e b9 7b 92 02 be d4 4b 16 be 17 88 be 3c
       -0.00019678913 -0.1275119 -0.14677364 0.023258252
0002b0 18 2e c5 bd e2 64 03 3e 71 b4 bd bd 70 b2 cf bd
       -0.09627932 0.12831452 -0.09262932 -0.10141456
0002c0 36 a1 e2 bd 1f 18 26 3d a2 ae ab be 35 25 b7 bd
       -0.11065905 0.040550347 -0.33531672 -0.089426436
0002d0 e1 85 bf be a0 83 ea be 82 61 36 be f6 a1 a0 3d
       -0.3740683 -0.45803547 -0.17810634 0.078433916
0002e0 f9 06 bf bd 02 2b 51 3e b7 3d f9 3c 86 4e 9e 3b
       -0.09327502 0.20426562 0.030424936 0.004831138
0002f0 54 12 2c 3e 81 05 65 be fa 37 87 3d f7 a8 ca 3d
       0.16803867 -0.22365381 0.066024736 0.09895509
000300 ae cd b1 3f 61 68 2f 3f c4 de 76 3f 2f 47 c8 be
       1.3890893 0.68518645 0.96433663 -0.3911681
000310 77 57 31 3f 56 5f 1a bf e5 c1 39 3e fd bd 3b be
       0.69274086 -0.6030172 0.18140371 -0.18334194
000320 d4 02 cc 3e 4f a2 aa bf 89 75 3a 3d 2d 2a 6d bd
       0.39845908 -1.3330783 0.045522247 -0.05790155
000330 8f 55 f9 be e3 fd 34 bf 14 85 2b bf 9c 6e 0c 3e
       -0.4869809 -0.706999 -0.66999936 0.13714069
000340 64 98 20 bf c8 99 6b 3e 70 c7 e7 3d eb 6a 8b 3d
       -0.6273253 0.23007882 0.113173366 0.06807502
000350 9e 1d 46 3f bc d6 a1 3f 79 a9 ee be 2f 41 5a bc
       0.7738894 1.2643657 -0.46613672 -0.013321205
000360 dd 27 aa be ea ac 8e bf 7a d8 78 c0 e2 4c 93 bf
       -0.33233538 -1.1146519 -3.8882127 -1.1507838
000370 15 c4 d7 bf cf ae 55 bd bc 2d 2d 3f 08 31 72 bf
       -1.6856714 -0.052168664 0.6764791 -0.94606066
000380 09 94 77 bf 56 bf 8e bf 35 7a 2a c0 88 5a cc 3e
       -0.9671026 -1.1152141 -2.663709 0.3991282
000390 b6 6b f5 be 92 33 e1 bf cd 1f b4 bf 25 72 4f 3e
       -0.4793374 -1.7593863 -1.4072205 0.20258386
0003a0 84 2e 9d bf 1c 5e f1 3d 89 64 6f 3f 6a d3 ac 3e
       -1.227982 0.11785528 0.9351278 0.33755046
0003b0 44 ab 5f 3e 99 c0 21 40 4f 54 cb 3e 3f 76 88 be
       0.21842676 2.5273802 0.3971276 -0.26652715
0003c0 1c c3 0e bf 13 74 10 bf 66 d1 aa bf 4f 52 c5 bf
       -0.55766463 -0.56427115 -1.3345153 -1.5415744
0003d0 d8 91 af be 2e 9c 40 40 1a 9c a3 bd 4c e3 7d bf
       -0.34290957 3.0095325 -0.079887584 -0.9917495
0003e0 b2 f1 db 3f 3c b5 08 c0 0e e2 98 bf 91 b7 58 be
       1.7183135 -2.1360617 -1.1943986 -0.21163775
0003f0 22 4d be bf 80 57 00 40 57 b5 9f bd c0 8c 47 c0
       -1.4867289 2.0053406 -0.0779826 -3.1179657

lstm.bias_ih_l1 f4 [32]
000000 0d 47 8a 3f 6e e7 8a 3f 23 06 9f 3e b8 79 9b 3c
       1.0802933 1.0851877 0.3105937 0.018978938
000010 de 0e 27 3e e0 07 50 3f 9e 20 1b 3e 2a 05 57 3f
       0.16314265 0.81262016 0.15149161 0.83992255
000020 18 33 4a 3f c7 74 42 3f 07 ea 79 3f 4a f4 ea 3e
       0.7898421 0.7595944 0.9762272 0.45889503
000030 21 5d 90 3e f8 25 34 3f d5 71 fd 3e 3c a6 0c 3f
       0.28196052 0.70370436 0.4950091 0.54941154
000040 01 13 50 3f 16 3e 3f bf 51 84 25 3b 0d 86 99 bd
       0.81279 -0.7470411 0.0025255869 -0.07496271
000050 2c fd e2 bd df 45 fc 3e eb 97 09 be 1e 40 0a bf
       -0.11083445 0.49272057 -0.13436858 -0.54004085
000060 01 41 15 3e 82 e4 85 be a2 f8 14 be 13 7b 5e 3f
       0.14575578 -0.261509 -0.14547971 0.86906546
000070 44 a5 93 be b3 20 31 3e 09 9f 73 3f 7a 6e 47 40
       -0.28837025 0.1729763 0.95164543 3.116118

lstm.bias_hh_l1 f4 [32]
000000 ad 5d 87 3f b7 6f 89 3f 96 61 6d 3e 77 91 ca bd
       1.0575463 1.0737218 0.23181757 -0.098910265
000010 07 ca f1 3d 5f 6f 60 3f ed 47 47 3e 76 69 63 3f
       0.11806112 0.8766994 0.19461031 0.88832796
000020 51 f9 4e 3f 3c fb 4a 3f 57 ac 86 3f ed 51 d0 3e
       0.80849177 0.79289603 1.0521344 0.40687504
000030 a3 6f 8c 3e 0f 2f 3a 3f 36 d0 e2 3e 3c d5 0b 3f
       0.27428922 0.72728056 0.44299477 0.54622245
000040 71 18 55 3f a3 70 4f bf 14 e8 cb bb 5a 1e e8 bd
       0.8324042 -0.81031245 -0.006222734 -0.11333914
000050 c3 8e 0a 3c 31 1b 0d 3f ba 89 ed bd 19 60 20 bf
       0.008456889 0.55119616 -0.11598535 -0.62646633
000060 d1 d9 26 3e 00 f1 4b be f2 45 9b bd 0f ff 5b 3f
       0.16294028 -0.19916153 -0.075817004 0.85936064
000070 6f 44 70 be 33 0e 4c 3e 14 78 62 3f 87 88 46 40
       -0.23463605 0.19927292 0.88464475 3.102083
