models/model48_32_8train.pth (torch, 104355 bytes, 12 tensors)

conv2d_1.weight f4 [8, 1, 2, 2]
-0.34587336 -0.12746896 -0.50339323 -0.3104321 0.77551425 -0.14499193 -0.44528863 -0.5712856
0.35274145 -0.10569226 -1.155046 0.82490134 -0.14176548 0.019427478 -0.99970907 0.13176776
-0.2611173 0.05576962 -0.9129227 0.040427543 0.95502883 -0.4392289 -0.35021612 -0.8539055
-0.42100388 -0.11019723 -0.50897074 -0.26445892 0.15712659 -0.5942722 0.6661792 -0.19858654
00000000: 5016 b1be 3987 02be 61de 00bf f5f0 9ebe
00000010: 1a88 463f c478 14be dffc e3be c63f 12bf
00000020: 879a b43e 2f75 d8bd 8cd8 93bf bc2c 533f
00000030: f82a 11be 6026 9f3c efec 7fbf 21ee 063e
00000040: 2bb1 85be af6e 643d 4db5 69bf 5a97 253d
00000050: c57c 743f 9ce2 e0be 874f b3be 8d99 5abf
00000060: d28d d7be 16af e1bd e84b 02bf 2967 87be
00000070: cbe5 203e 3922 18bf b88a 2a3f 455a 4bbe

conv2d_1.bias f4 [8]
0.2196617 -0.35054564 -0.6800962 -0.39442673 -0.22723216 -0.3314439 0.30786818 -0.36616823
00000000: ffee 603e b87a b3be c91a 2ebf 4df2 c9be
00000010: 8caf 68be 04b3 a9be e6a0 9d3e 677a bbbe

conv2d_2.weight f4 [16, 8, 3, 3]
-0.46565917 0.43141553 0.16946706 -0.94588894 0.07658607 -0.9084899 -1.4169602 -0.12968504
-0.11414326 0.29180822 0.06214524 -0.7903752 -0.13435361 0.13646513 0.5979106 -0.79794365
0.26976502 -0.2109317 -0.14186184 -0.306689 0.28130192 0.06626959 0.13418391 0.3778987
-1.0044533 -0.6508711 0.71083593 -1.8110554 0.55191904 -0.30471882 -0.89522356 0.3546003
0.07554497 -1.1218972 0.5440516 0.8559431 -0.7514048 -0.6201341 0.28203323 -1.1786059
-0.35425776 -0.5961701 -0.7200622 0.08009603 -0.23180415 -1.2632422 -0.6470477 -0.06643203
-0.5126401 0.547621 0.13225727 0.045265913 0.09784471 -0.17257841 -0.082675315 0.29107052
-0.57913995 -1.1115943 0.13501027 -0.18701863 -0.8666052 0.4813048 1.2579607 0.4514109
0.05941832 -0.74567086 -0.32882515 -0.27666283 -0.6899373 -0.11729748 1.0007291 -0.05209709
0.40374133 -0.94205916 0.30857617 0.78733265 -0.6606938 0.49988243 0.424399 -1.3869852
0.08311322 0.52584565 -0.07668085 0.2246656 -0.45246437 0.15781909 0.8253195 -1.2051942
0.08544539 0.18030974 1.2653629 -1.069569 -0.20805906 1.2614511 -1.3522351 -0.5128945
1.180853 -1.6480589 -0.4883834 0.33641624 -1.550143 0.33669642 0.901858 -1.2605803
0.09957793 0.95198894 -1.6919756 -0.017180655 0.29220283 -0.9873371 0.23578957 0.55382603
-1.6644305 0.18300636 0.55063325 -1.1740816 0.26914364 -0.4259913 0.06706911 0.11916846
-0.82446176 -0.1113426 -0.20353243 -1.190862 0.123107135 1.7424579 0.72651327 -0.9708746
0.011521409 0.64539504 -1.1309913 0.1880153 0.33770555 -1.5697043 0.2986492 -0.92634195
0.4921278 0.15951611 -0.8722367 -0.072839156 -0.035374194 -1.0221043 0.12508214 0.39014667
-0.8324903 0.35829404 0.2888284 -0.55436236 0.04552693 0.22060357 -0.629944 0.1294112
0.57033217 0.13228014 0.2901515 -1.2366555 0.3860153 0.2012261 -1.0619656 -0.06399755
1.1913804 -1.5380756 -0.055006325 -0.008737856 0.5182296 -1.5130664 0.24693766 1.2324831
-0.890285 0.071049884 0.88425165 -2.1995108 -0.23750742 0.45192125 -2.242561 0.2379889
0.6563651 -1.6230419 0.15044197 0.88456106 -1.8374416 0.15568335 0.46874022 -1.8840992
0.6002421 0.769293 -1.6557752 0.33744892 0.78180116 0.0984387 0.15547146 -2.0238576
0.28198224 -0.19778273 -1.5754112 0.21697238 -0.33567417 -2.380566 -0.75620645 0.30733404
0.3031377 -0.6163904 0.19724493 0.25078803 -0.59083325 0.22979802 0.03407209 0.0661648
0.0021329809 -2.3235054 -0.04621082 0.0070593865 -1.9628088 0.1306492 0.17588842 -1.7866592
0.48734275 -0.20006116 -0.11795895 0.75074834 0.27641514 0.11431962 0.45000872 -0.037247486
0.60917276 0.18112476 0.09377076 -0.6492401 0.22350907 0.07375203 -0.32700092 0.15239424
0.8313003 -0.8638485 -1.1844711 -0.26091766 0.39507195 -1.0459849 -0.11182056 0.7313831
-0.5204369 -0.10688412 0.38948843 -1.8389434 0.19040383 0.16194558 -2.2192974 0.16358481
0.27297837 -2.9439147 0.028376462 0.44224358 -2.6180556 -0.0008428056 -0.14082791 -2.1488543
00000000: e16a eebe 7fe2 dc3e c688 2d3e c725 72bf
00000010: 28d9 9c3d cb92 68bf f45e b5bf 28cc 04be
00000020: f1c3 e9bd e367 953e 028c 7e3d 0756 4abf
00000030: fe93 09be 84bd 0b3e ab10 193f 0946 4cbf
00000040: a41e 8a3e 7bfe 57be 3b44 11be 5706 9dbe
00000050: ce06 903e 5ab8 873d 8267 093e f07b c13e
00000060: ed91 80bf 7d9f 26bf 58f9 353f aad0 e7bf
00000070: 914a 0d3f 1b04 9cbe 5f2d 65bf 2c8e b53e
00000080: 52b7 9a3d 549a 8fbf f746 0b3f 161f 5b3f
00000090: 115c 40bf 1cc1 1ebf a966 903e 8fdc 96bf
000000a0: 4661 b5be 9b9e 18bf ff55 38bf 6309 a43d
000000b0: 115e 6dbe ecb1 a1bf eba4 25bf 840d 88bd
000000c0: 623c 03bf e430 0c3f 736e 073e c068 393d
000000d0: cf62 c83d 65b8 30be ad51 a9bd 3207 953e
000000e0: 8442 14bf b948 8ebf 2240 0a3e d081 3fbe
000000f0: d7d9 5dbf 956d f63e db04 a13f 541f e73e
00000100: a060 733d 49e4 3ebf c55b a8be c0a6 8dbe
00000110: bb9f 30bf a939 f0bd e417 803f c263 55bd
00000120: 2fb7 ce3e ca2a 71bf b2fd 9d3e a28e 493f
00000130: 3b23 29bf 97f0 ff3e d34a d93e bb88 b1bf
00000140: 4437 aa3d d29d 063f d90a 9dbd bd0e 663e
00000150: 69a9 e7be 549b 213e 2448 533f ce43 9abf
00000160: fefd ae3d 1ea3 383e 69f7 a13f a3e7 88bf
00000170: 6f0d 55be 3b77 a13f 0a16 adbf 0e4d 03bf
00000180: 3126 973f 98f3 d2bf 640d fabe c03e ac3e
00000190: 166b c6bf 7963 ac3e 2ae0 663f b25a a1bf
000001a0: 84ef cb3d 8cb5 733f a892 d8bf 72be 8cbc
000001b0: 9c9b 953e 20c2 7cbf d272 713e 8bc7 0d3f
000001c0: 0f0c d5bf 0566 3b3e 4df6 0c3f 4e48 96bf
000001d0: 32cd 893e 881b dabe 885b 893d 980e f43d
000001e0: ed0f 53bf 9707 e4bd ce6a 50be 2b6e 98bf
000001f0: 981f fc3d dc08 df3f c6fc 393f 3d8b 78bf
00000200: 4bc4 3c3c 9c38 253f 53c4 90bf 1587 403e
00000210: bee7 ac3e 12ec c8bf 8ce8 983e bf24 6dbf
00000220: 2df8 fb3e 3158 233e e84a 5fbf b22c 95bd
00000230: 88e4 10bd 50d4 82bf 8815 003e 4ec1 c73e
00000240: 161e 55bf 5172 b73e 51e1 933e b1ea 0dbf
00000250: 727a 3a3d e7e5 613e 0344 21bf 5f84 043e
00000260: 4a01 123f 7274 073e bd8e 943e ba4a 9ebf
00000270: cca3 c53e 370e 4e3e 7dee 87bf 2611 83bd
00000280: 277f 983f a9df c4bf 504e 61bd 3929 0fbc
00000290: b2aa 043f 29ac c1bf 3add 7c3e 02c2 9d3f
000002a0: b8e9 63bf 9a82 913d 515e 623f c9c4 0cc0
000002b0: 2535 73be 3962 e73e 1f86 0fc0 5db3 733e
000002c0: 8b07 283f d6bf cfbf 760d 1a3e 9872 623f
000002d0: 4931 ebbf 756b 1f3e b8fe ef3e 2a2a f1bf
000002e0: 77a9 193f 63f0 443f 71f0 d3bf 1bc6 ac3e
000002f0: 1f24 483f 3b9a c93d e933 1f3e e286 01c0
00000300: fa5f 903e 8e87 4abe 13a7 c9bf 022e 5e3e
00000310: 7cdd abbe 315b 18c0 bf96 41bf e35a 9d3e
00000320: dd34 9b3e c3cb 1dbf 93fa 493e 4a67 803e
00000330: d940 17bf 2c50 6b3e 2d8f 0b3d 6981 873d
00000340: 7bc9 0b3b 50b4 14c0 8f47 3dbd 6d52 e73b
00000350: 523d fbbf e7c8 053e 181c 343e 40b1 e4bf
00000360: fd84 f93e d5dc 4cbe 7694 f1bd 0b31 403f
00000370: 4986 8d3e 6820 ea3d 8b67 e63e d290 18bd
00000380: bff2 1b3f c578 393e e20a c03d 9934 26bf
00000390: 90df 643e 4e0b 973d aa6c a7be 3c0d 1c3e
000003a0: 19d0 543f 2d25 5dbf c09c 97bf 0097 85be
000003b0: df46 ca3e d5e2 85bf 2e02 e5bd ec3b 3b3f
000003c0: 5a3b 05bf 10e6 dabd 076b c73e 7f62 ebbf
000003d0: 39f9 423e 10d5 253e f808 0ec0 c782 273e
000003e0: d2c3 8b3e 1969 3cc0 c175 e83c c06d e23e
000003f0: 398e 27c0 baef 5cba 3135 10be d486 09c0

conv2d_2.bias f4 [16]
-0.9949797 -1.007864 0.062812485 -0.6096288 -0.01426863 0.055351373 0.050407395 -1.4099941
-0.48137656 -0.29296917 -0.63130575 -2.327333 -0.23795712 -0.05655475 -1.411337 -0.9574478
00000000: fdb6 7ebf b001 81bf d5a3 803d a210 1cbf
00000010: f9c6 69bc 1fb8 623d fc77 4e3d b07a b4bf
00000020: fd76 f6be 0e00 96be 419d 21bf 06f3 14c0
00000030: 08ab 73be f4a5 67bd b1a6 b4bf 4d1b 75bf

conv2d_3.weight f4 [32, 16, 4, 4]
-0.001772567 -0.008455412 -0.046059716 -0.07271949 0.008541636 0.02968895 -0.015393666 0.04245606
-0.00029884867 -0.07781796 -0.042459708 -0.026691983 -0.07549772 0.004382193 -0.009550671 -0.061490934
-0.02439088 -0.062042218 -0.06539351 -0.028405169 -0.027316825 0.026805583 0.0015768139 -0.03494803
-0.053800095 -0.07757369 0.054935385 0.048932552 -0.013365181 -0.017836694 -0.035250615 0.026077362
-0.02185541 -0.07659854 -0.06250372 -0.099313594 -0.02274366 -0.10120255 -0.065712936 -0.060887624
-0.12495605 -0.05950262 -0.14241114 -0.060190726 -0.11052512 -0.09747648 -0.030205397 -0.09825097
-0.043780215 -0.04252901 -0.06464393 0.026275937 -0.054796368 0.032045923 0.017816447 -0.05544845
-0.0030484293 -0.01484638 -0.020045802 0.011789967 -0.023464343 0.021500098 -0.01759623 -0.00855345
-0.041149367 -0.019259397 -0.09168935 0.007169273 -0.069363184 -0.09665195 -0.114325486 -0.1005421
-0.05343947 -0.08846804 -0.018826235 -0.047431912 0.00996672 -0.08904667 -0.040598422 -0.00012638426
-0.07915667 -0.11780113 -0.08637534 -0.03851758 -0.11885114 -0.1374064 -0.072272606 -0.08076978
-0.076997824 -0.04751938 -0.1048398 -0.063923135 -0.085434236 -0.015436476 -0.027268052 -0.05191006
-0.038411994 -0.06984822 0.0048389346 0.043197244 0.032018382 -0.017577883 0.015734518 -0.033615556
-0.043578763 0.007297531 -0.015389049 -0.065251164 -0.07588194 -0.054414377 0.0117217675 -0.020806618
-0.025492935 -0.05799026 0.036767058 0.0152760185 -0.023036191 -0.055268403 0.0020373343 -0.015225599
-0.023101144 -0.05898672 -0.08683432 -0.051362373 -0.055454917 -0.022237131 0.015656985 -0.066073306
-0.038350638 -0.058637485 -0.10562055 0.02747281 -0.0023117617 -0.06640576 -0.02371822 -0.08355393
-0.009573396 -0.010805045 0.008356648 -0.063227646 -0.062217083 0.008683322 -0.04126435 0.020082299
-0.012997186 -0.05801153 0.027058657 0.009133704 -0.04128178 -0.011846408 -0.022710036 0.013096382
0.01945124 -0.0015629941 -0.057400897 0.041047078 -0.03734053 -0.03309455 0.0017602212 0.018056808
-0.012834434 -0.030712744 -0.060386974 -0.10943282 0.009236636 0.056103837 0.027377963 -0.004656581
-0.015241521 -0.036200427 -0.0052149347 -0.014766097 0.051027354 0.0122311115 -0.04671776 -0.0057913153
-0.007943806 -0.033782803 -0.051370613 -0.04885655 -0.056790166 0.022724263 -0.02021532 -0.06695147
-0.039038666 -0.049532376 -0.013682843 -0.001677976 -0.05351458 -0.05840191 -0.057510514 -0.10661343
-0.006433921 -0.0030035393 -0.041152976 -0.005687918 -0.053247187 -0.011508555 -0.08071393 -0.069568284
-0.027090354 0.0012043103 0.0037575609 -0.11334343 -0.08001182 -0.06532794 -0.07502087 -0.08754624
0.007288278 -0.0091457935 0.0032972847 -0.015234861 -0.009380385 -0.06670447 -0.036707614 -0.12433774
-0.04375219 -0.08085013 -0.10542094 -0.035004407 0.013989089 -0.037183836 -0.053991597 -0.06582789
-0.028196435 -0.10444992 -0.054724813 -0.103485495 -0.048035096 -0.122969374 -0.06188517 -0.06892092
-0.06285 -0.054752838 -0.045845766 -0.018629678 -0.09769489 -0.04908769 -0.04226536 -0.17662077
-0.04622975 0.0062704748 0.0094142705 0.043090403 -0.04715114 -0.02774849 -0.008305712 -0.009679744
-0.0926796 -0.037531875 0.049759552 -0.048748612 -0.07676166 0.056795314 0.040174264 -0.0812341
00000000: 7b55 e8ba 9288 0abc 1da9 3cbd f5ed 94bd
00000010: 38f2 0b3c 3e36 f33c b735 7cbc 68e6 2d3d
00000020: caae 9cb9 065f 9fbd 3bea 2dbd 25a9 dabc
00000030: 8c9e 9abd 8098 8f3b 6b7a 1cbc ebdd 7bbd
00000040: 62cf c7bc fb1f 7ebd 08ed 85bd f5b1 e8bc
00000050: 89c7 dfbc 6297 db3c 18ad ce3a aa25 0fbd
00000060: 7d5d 5cbd f4de 9ebd ed03 613d 806d 483d
00000070: a2f9 5abc 421e 92bc f362 10bd 31a0 d53c
00000080: 1e0a b3bc b2df 9cbd f301 80bd ed64 cbbd
00000090: e950 babc 4843 cfbd 8194 86bd 4d65 79bd
000000a0: f5e8 ffbd 05b9 73bd 3ad4 11be 8d8a 76bd
000000b0: fe5a e2bd c0a1 c7bd 4f71 f7bc ce37 c9bd
000000c0: e252 33bd e632 2ebd 0964 84bd a240 d73c
000000d0: 2872 60bd 9642 033d ccf3 913c ea1d 63bd
000000e0: 28c8 47bb 3b3e 73bc 1837 a4bc b52a 413c
000000f0: 4b38 c0bc f920 b03c f825 90bc c523 0cbc
00000100: 3d8c 28bd e2c5 9dbc a0c7 bbbd 39ec ea3b
00000110: 490e 8ebd 75f1 c5bd 7b23 eabd 04e9 cdbd
00000120: 58e3 5abd bb2e b5bd 7a39 9abc f747 42bd
00000130: 744b 233c 1a5e b6bd 884a 26bd 0486 04b9
00000140: e41c a2bd b841 f1bd 8ee5 b0bd 9cc4 1dbd
00000150: 3a68 f3bd 43b4 0cbe a903 94bd a06a a5bd
00000160: 09b1 9dbd aea3 42bd 40b6 d6bd 22ea 82bd
00000170: 25f8 aebd 46e9 7cbc 4061 dfbc a59f 54bd
00000180: e555 1dbd 950c 8fbd ed8f 9e3b 98ef 303d
00000190: b525 033d 7eff 8fbc ade5 803c 77b0 09bd
000001a0: a57f 32bd 2020 ef3b 5a22 7cbc 67a2 85bd
000001b0: fe67 9bbd 9ce1 5ebd a80c 403c a472 aabc
000001c0: 8fd6 d0bc 3287 6dbd 0e99 163d 4448 7a3c
000001d0: 65b6 bcbc 1f61 62bd cc84 053b ca74 79bc
000001e0: 9c3e bdbc 0f9c 71bd 31d6 b1bd 5a61 52bd
000001f0: b224 63bd a52a b6bc 1443 803c 7151 87bd
00000200: 8f15 1dbd dc2d 70bd 964f d8bd a90e e13c
00000210: ed80 17bb beff 87bd b64c c2bc 531e abbd
00000220: bcd9 1cbc a507 31bc 52ea 083c 7f7d 81bd
00000230: 57d7 7ebd 7e44 0e3c cf04 29bd a283 a43c
00000240: 26f2 54bc 809d 6dbd 1eaa dd3c 88a5 153c
00000250: 1517 29bd 7017 42bc 660a babc 3592 563c
00000260: 3558 9f3c 61dd ccba 341d 6bbd fb20 283d
00000270: 62f2 18bd 278e 07bd 39b7 e63a dfeb 933c
00000280: 8547 52bc 4b99 fbbc 5558 77bd 501e e0bd
00000290: 4255 173c 23cd 653d c047 e03c 3c96 98bb
000002a0: 93b7 79bc e646 14bd 0be2 aabb 80ed 71bc
000002b0: 0f02 513d 0065 483c 1f5b 3fbd 13c5 bdbb
000002c0: bd26 02bc d65f 0abd fe69 52bd ce1d 48bd
000002d0: ce9c 68bd 3c28 ba3c 999a a5bc da1d 89bd
000002e0: 02e7 1fbd 76e2 4abd 012e 60bc 88ef dbba
000002f0: 1b32 5bbd d736 6fbd 2590 6bbd 2458 dabd
00000300: a4d3 d2bb 07d7 44bb 0690 28bd b761 babb
00000310: b919 5abd 618e 3cbc 584d a5bd d179 8ebd
00000320: 97ec ddbc f3d9 9d3a 6941 763b 9a20 e8bd
00000330: 3ddd a3bd a8ca 85bd 8ba4 99bd 714b b3bd
00000340: 82d2 ee3b 3dd8 15bc 4217 583b a39b 79bc
00000350: 30b0 19bc 5a9c 88bd b95a 16bd c9a4 febd
00000360: 7f35 33bd c194 a5bd efe6 d7bd c860 0fbd
00000370: 7e32 653c 144e 18bd 4b26 5dbd c6d0 86bd
00000380: 36fc e6bc d7e9 d5bd 2027 60bd 34f0 d3bd
00000390: 73c0 44bd 5ed7 fbbd 4e7b 7dbd 6926 8dbd
000003a0: 80b7 80bd 8344 60bd c5c8 3bbd 449d 98bc
000003b0: 4214 c8bd 2c10 49bd 711e 2dbd 13dc 34be
000003c0: 685b 3dbd 8e78 cd3b 503e 1a3c 907f 303d
000003d0: 8e21 41bd cd50 e3bc ae14 08bc ca97 1ebc
000003e0: cdce bdbd 06bb 19bd acd0 4b3d a0ac 47bd
000003f0: 3835 9dbd 34a2 683d c58d 243d 105e a6bd

conv2d_3.bias f4 [32]
-0.15062685 0.6721727 -0.034598406 -0.15915965 -0.12329212 -0.07083873 0.9488956 -0.14006248
-0.068149105 -0.10202353 -0.1422667 -0.34761304 0.2788443 0.637826 -0.067267194 -0.19282247
-0.03075075 0.007952224 -0.350564 0.49221507 -0.08753573 -0.16442925 -0.12297147 0.14702158
0.086673126 1.1915486 -1.4515451 -0.27961862 0.15479653 -0.20315777 0.27860975 0.17461169
00000000: ed3d 1abe 8313 2c3f 0fb7 0dbd bffa 22be
00000010: 9480 fcbd e513 91bd d2ea 723f 8a6c 0fbe
00000020: c291 8bbd b6f1 d0bd 5dae 11be 56fa b1be
00000030: aec4 8e3e 9148 233f 62c3 89bd 4173 45be
00000040: ffe8 fbbc 0c4a 023c 207d b3be 9d03 fc3e
00000050: ef45 b3bd 2460 28be 77d8 fbbd d38c 163e
00000060: ae81 b13d aa84 983f 3bcc b9bf 2c2a 8fbe
00000070: fb82 1e3e 9708 50be f0a5 8e3e 68cd 323e

lstm.weight_ih_l0 f4 [128, 64]
-0.18834434 0.39962342 -0.112478 -0.138473 0.3007284 0.14778577 -0.5706855 -0.11467762
-0.77400565 -0.04292906 -0.3009936 -0.0573578 -0.9436803 0.011306339 -0.83371204 0.13904196
-0.56666225 0.1588086 -0.14503591 0.10083503 -0.21216393 -0.07421472 0.09900875 -0.24736165
-0.51557046 -0.33066696 -0.4785319 -0.0017115616 -0.49017137 0.25730398 -0.49818805 0.30839348
-0.62930995 0.23974398 -0.65451545 0.18332641 0.08189871 -0.10865765 0.43023708 -0.14984764
0.38015297 -0.37236884 0.035772823 -0.07068143 0.89135814 -0.17480014 0.90471613 0.07906212
0.8787081 0.02789616 1.0384033 0.054460015 0.8121874 -0.7776593 0.73272634 -0.6601506
1.6070502 -0.4576929 1.6676135 -1.122462 2.661969 -0.6584826 0.031340025 -1.5878276
0.10994684 0.10250687 0.271325 0.28181562 -0.1455691 0.19567381 0.156941 0.28795725
0.043867737 0.40355757 -0.026520561 0.43423876 -0.10725247 0.42413217 -0.1515767 0.37291119
-0.45172668 0.23641856 -0.387719 0.25922084 -0.3675665 -0.2011588 -0.6380712 -0.31763747
-0.32464948 -0.30718702 -0.28665304 0.06336074 -0.13915044 -0.0310263 -0.07233092 0.07189167
-0.13545272 0.19611295 -0.27023855 0.14779274 -1.3691032 -1.0167093 -0.5759063 -0.8605774
-0.45490623 -0.24532421 -0.34263173 0.21093126 -1.9686085 -0.41807422 -1.4825047 -0.0906459
-1.2311465 0.022461986 -1.3750571 0.077595286 -0.39808714 0.46238214 -2.032149 0.11616271
-2.1503272 0.13414332 -2.365824 0.37463298 -1.4965224 0.43266717 -1.089354 0.27140477
0.1210526 0.57658833 0.033293996 -0.0076594227 0.0917087 -0.013846134 -0.06380309 -0.3179353
0.18119693 -0.27757335 0.12243921 -0.31922188 0.08913296 -0.28804874 0.1982772 -0.1037556
-0.05640937 -0.29768476 -0.06505562 -0.4165587 -0.16747324 -0.1382205 -0.29544124 0.03746902
0.3730826 0.13249679 0.19572848 0.044611182 0.08714791 0.004589847 -0.50053453 -0.6277392
-0.63861006 -1.2969106 -1.1744647 -2.0362315 0.024626246 0.35236442 0.17587116 0.010257544
0.43616608 -0.107500106 0.48513365 -0.13808964 0.5909013 0.076399215 0.8086943 -0.04119263
0.7963566 0.024769977 1.0333157 -0.25454402 1.842988 -0.15586479 1.7680701 -0.2347475
1.5665052 -0.11412709 1.9508828 0.044610217 1.5348716 -0.32898566 2.4966025 1.6299223
-0.45971027 0.05255423 -0.1646354 -0.17776008 -0.24205945 -0.065351 -0.09574271 0.16471738
0.060294528 0.36330122 0.09266509 0.54979736 0.13284025 1.1515815 0.015419669 1.3046786
0.09100817 0.52955383 0.16678853 0.4040059 0.44471133 0.20468132 0.8896863 0.14199965
0.0010446687 -0.52718765 0.1683735 -0.94654274 0.20604679 -0.009671751 0.3949135 0.015104196
0.92266256 0.54478353 -0.3034243 0.044843856 0.5310274 0.6498845 0.9065765 0.38538864
0.57192993 0.7673575 1.5310911 1.204919 1.7681794 0.89422446 1.3300213 1.1593026
1.1526217 0.9517911 0.87622297 1.3952693 1.266355 1.2570895 0.4045394 1.7482196
0.13671854 0.77434 -0.85837305 1.040334 -0.08153911 1.6202385 -0.05025888 1.6348103
00000000: 57dd 40be 719b cc3e de5a e6bd decb 0dbe
00000010: 13f9 993e 2755 173e 7218 12bf 1adc eabd
00000020: 3c25 46bf 62d6 2fbd d51b 9abe 03f0 6abd
00000030: 0895 71bf 393e 393c 276e 55bf 0461 0e3e
00000040: c710 11bf b99e 223e 4b84 14be 9982 ce3d
00000050: 8041 59be e3fd 97bd 19c5 ca3d 5f4c 7dbe
00000060: 6dfc 03bf 2e4d a9be 2202 f5be 7a56 e0ba
00000070: bef7 fabe 59bd 833e 8112 ffbe c0e5 9d3e
00000080: 751a 21bf 727f 753e 538e 27bf ebb9 3b3e
00000090: 83ba a73d e787 debd 0948 dc3e a971 19be
000000a0: 69a3 c23e 21a7 bebe 8686 123d 6dc1 90bd
000000b0: 0c30 643f cffe 32be 7a9b 673f 52eb a13d
000000c0: 04f3 603f 7d86 e43c 66ea 843f 7711 5f3d
000000d0: 83eb 4f3f ae14 47bf f493 3b3f a1ff 28bf
000000e0: d2b3 cd3f b956 eabe 5c74 d53f d6ac 8fbf
000000f0: b35d 2a40 5192 28bf 665e 003d ef3d cbbf
00000100: cf2b e13d 1fef d13d 1ceb 8a3e 234a 903e
00000110: 1110 15be b75e 483e 24b5 203e 226f 933e
00000120: a8ae 333d 199f ce3e a641 d9bc 8b54 de3e
00000130: 2fa7 dbbd da27 d93e ec36 1bbe 37ee be3e
00000140: b848 e7be b517 723e 1b83 c6be 98b8 843e
00000150: ad31 bcbe 93fc 4dbe a258 23bf 61a1 a2be
00000160: 7538 a6be 9e47 9dbe 30c4 92be 47c3 813d
00000170: 747d 0ebe de2a febc 3c22 94bd f13b 933d
00000180: 1eb4 0abe d5d1 483e b55c 8abe fb56 173e
00000190: c63e afbf 8823 82bf 986e 13bf cd4e 5cbf
000001a0: 78e9 e8be 4536 7bbe 6d6d afbe 5dfe 573e
000001b0: 5dfb fbbf d30d d6be b7c2 bdbf 8fa4 b9bd
000001c0: 3596 9dbf 3302 b83c df01 b0bf 47ea 9e3d
000001d0: 14d2 cbbe 5abd ec3e bb0e 02c0 b7e6 ed3d
000001e0: f69e 09c0 de5c 093e a969 17c0 e5cf bf3e
000001f0: 0c8e bfbf 8d86 dd3e f46f 8bbf 91f5 8a3e
00000200: 6dea f73d 4b9b 133f 495f 083d e5fb fabb
00000210: c5d1 bb3d e5da 62bc 32ab 82bd 6ac8 a2be
00000220: b08b 393e 181e 8ebe 69c1 fa3d 0d71 a3be
00000230: 578b b63d 207b 93be 2e09 4b3e d17d d4bd
00000240: 830d 67bd 236a 98be e23b 85bd 2f47 d5be
00000250: 1b7e 2bbe ad89 0dbe 1344 97be 1d79 193d
00000260: af04 bf3e 3dad 073e 0c6d 483e 37ba 363d
00000270: 9a7a b23d 6d66 963b 0823 00bf 84b3 20bf
00000280: f37b 23bf 2b01 a6bf dc54 96bf 9e51 02c0
00000290: fbbc c93c 1c69 b43e 9217 343e 420f 283c
000002a0: 2951 df3e 0429 dcbd 7063 f83e 5f67 0dbe
000002b0: 4f45 173f 3177 9c3d 9706 4f3f 9ab9 28bd
000002c0: 07de 4b3f 68ea ca3c b043 843f 9853 82be
000002d0: 08e7 eb3f 059b 1fbe 1f50 e23f a661 70be
000002e0: 3e83 c83f 77bb e9bd 87b6 f93f 34b9 363d
000002f0: ac76 c43f cf70 a8be 56c8 1f40 4ba1 d03f
00000300: 255f ebbe 1b43 573d 2f96 28be bd06 36be
00000310: 6fde 77be bfd6 85bd c114 c4bd acab 283e
00000320: 65f7 763d 9e02 ba3e 32c7 bd3d 85bf 0c3f
00000330: 4607 083e 0667 933f c8a2 7c3c b5ff a63f
00000340: 7e62 ba3d d790 073f 9dca 2a3e dcd9 ce3e
00000350: 34b1 e33e fb97 513e 7bc2 633f 5b68 113e
00000360: 44ed 883a c5f5 06bf 1a6a 2c3e a050 72bf
00000370: eefd 523e 4476 1ebc 1a32 ca3e 9777 773c
00000380: 9d33 6c3f ef76 0b3f 6e5a 9bbe 31ae 373d
00000390: 69f1 073f d55e 263f 6615 683f a951 c53e
000003a0: 006a 123f 8b71 443f cbfa c33f c93a 9a3f
000003b0: b453 e23f e5eb 643f 233e aa3f 0764 943f
000003c0: 1c89 933f 95a8 733f 2650 603f 2f98 b23f
000003d0: ec17 a23f 4fe8 a03f ca1f cf3e a9c5 df3f
000003e0: f2ff 0b3e 253b 463f 56be 5bbf aa29 853f
000003f0: fafd a6bd fa63 cf3f 41dc 4dbd 7741 d13f

lstm.weight_hh_l0 f4 [128, 32]
-0.36469966 0.47220618 -0.36707103 0.51080257 0.032343812 0.18586862 0.21452138 -0.007384673
-0.5405598 -1.2103513 0.12025323 -0.14552814 -1.5397716 -0.42154816 0.09304384 0.15077984
0.44462642 0.48963496 0.12591463 0.30184132 0.3488437 -0.4528163 0.112013124 0.3886674
-0.08955939 0.028474674 -0.35755312 -0.14152263 -0.70686215 1.3591768 -0.25955954 0.095924355
-1.5116621 -0.7582114 -2.4808939 -0.25911582 0.18889931 -1.7551435 -0.23336278 0.63175863
0.6915385 1.3065747 0.4137269 -0.8772848 1.5298527 -1.29678 -0.72121996 -1.1500703
1.8090019 -0.8665066 1.2508099 0.60735494 -0.7628587 0.9535159 -1.3717691 0.8514555
-2.7134483 -0.10175305 -1.1111171 -0.34295234 -0.4902837 -1.0397142 -0.5411954 1.5477847
-1.5466374 -2.5301414 0.65786475 2.1137116 -0.20434362 0.32715484 -1.415175 1.1880828
-1.0348855 2.1466756 -1.7912788 -0.37648973 -3.7933364 -2.5944908 -0.6547454 2.0888078
0.2380707 -1.0969795 0.15577222 -0.29034832 0.5448257 1.3385586 2.674078 -1.833211
3.9380248 0.3346434 -0.7161776 0.19076286 0.9019813 0.23123439 -1.7331208 1.965283
0.7359519 0.3798938 -0.45845264 1.6053145 0.6107198 -0.4201982 0.039172616 -4.1402264
0.15082423 -0.80818546 1.5511498 0.62303174 1.6281514 -1.4117308 0.7120079 1.2406245
0.023123244 -0.30874705 1.5766385 -0.40220627 -0.34526598 -1.8468555 0.041349832 1.036503
-2.0771713 -0.013242237 0.38744572 -0.18169878 -1.9734818 0.72036135 1.7314351 -0.06067767
1.1484414 -0.25266036 -0.112355076 -0.6449005 0.6427675 0.29705602 -1.1144471 0.5558844
-0.63421786 -0.10755606 -0.4729647 -0.8903243 -1.153642 0.66713226 0.6326116 2.2098346
-0.47284234 -0.59758574 -0.47363806 -0.88092023 -0.26169366 0.017167246 1.8412021 0.49324128
1.262777 1.0825132 -0.041232094 0.8279068 -1.3374406 0.4840009 -0.87425274 0.34740913
-1.9929392 0.9674101 0.3982776 1.9593014 -1.9146417 -1.6144224 -0.94500256 -0.5890977
0.89543474 1.1379514 -2.5696461 0.50379926 -3.8006313 -0.44646293 1.5808781 1.9407568
-1.3237699 0.00013616282 -0.12051489 0.56826377 1.5994972 1.8632282 -0.33013907 0.1330015
1.4073671 0.41920662 0.12990887 -0.47248322 -1.8852082 -1.8529521 1.6099706 -0.6736722
-1.1593415 -0.4392906 1.4380896 -0.35699353 -0.2554869 -1.0766944 0.6446445 1.8483686
-0.74848306 2.7890685 -1.2329227 -0.9512482 1.5509503 -1.7283969 -0.73743516 2.5669184
-0.7712944 0.15386018 -0.19611707 1.4019921 0.692686 -0.34878984 0.31762516 -0.6935806
1.4403677 0.071090534 -0.521842 1.0669963 -0.5321004 2.8441598 -1.1703886 -1.3253462
-1.0017917 -0.15811057 -0.5701142 0.6175112 0.9983202 0.115477115 0.13746162 -0.8408293
-0.43182668 0.60963243 -0.9591708 0.10844967 1.4567215 0.059104852 0.33377916 -0.44155058
0.52832884 0.6319451 0.7440019 0.14843097 -0.6517708 1.2482371 0.6248762 0.6741172
0.8356764 1.1178427 -0.2420801 -0.15282483 0.74978733 1.2247283 0.34133282 0.67488503
00000000: eab9 babe 02c5 f13e bcf0 bbbe f5c3 023f
00000010: f27a 043d 5854 3e3e 7eab 5b3e 21fb f1bb
00000020: 2162 0abf cbec 9abf 5347 f63d 5405 15be
00000030: 3c17 c5bf 29d5 d7be c58d be3d 0866 1a3e
00000040: 13a6 e33e 6fb1 fa3e c4ef 003e f28a 9a3e
00000050: a49b b23e 8ad7 e7be 2367 e53d 6aff c63e
00000060: ea6a b7bd b843 e93c 3411 b7be 4feb 10be
00000070: ebf4 34bf 81f9 ad3f fde4 84be fd73 c43d
00000080: 257e c1bf 241a 42bf f7c6 1ec0 d4aa 84be
00000090: d26e 413e 8ba8 e0bf a7f6 6ebe efba 213f
000000a0: ab08 313f d73d a73f 03d4 d33e bd95 60bf
000000b0: 37d2 c33f e3fc a5bf dfa1 38bf 8135 93bf
000000c0: 608d e73f 60d3 5dbf 8a1a a03f 9d7b 1b3f
000000d0: b54a 43bf 9e19 743f 2196 afbf fdf8 593f
000000e0: 23a9 2dc0 e763 d0bd 1639 8ebf 7397 afbe
000000f0: 7706 fbbe 5b15 85bf c88b 0abf cf1d c63f
00000100: 37f8 c5bf d6ed 21c0 d369 283f 0d47 0740
00000110: 743f 51be d780 a73e 7424 b5bf 1913 983f
00000120: 2177 84bf 2263 0940 a048 e5bf 43c3 c0be
00000130: 06c6 72c0 230c 26c0 659d 27bf 07af 0540
00000140: cec8 733e d369 8cbf c182 1f3e 89a8 94be
00000150: b279 0b3f e355 ab3f 1824 2b40 a8a6 eabf
00000160: 9908 7c40 6156 ab3e 6a57 37bf 5757 433e
00000170: 3fe8 663f b5c8 6c3e e7d6 ddbf 658e fb3f
00000180: 5867 3c3f 7181 c23e 4eba eabe f27a cd3f
00000190: 2258 1c3f 3824 d7be 7773 203d bc7c 84c0
000001a0: ab71 1a3e 3ee5 4ebf 148c c63f 027f 1f3f
000001b0: 4467 d03f 98b3 b4bf 2646 363f c9cc 9e3f
000001c0: f56c bd3c 1814 9ebe 4acf c93f fbed cdbe
000001d0: b4c6 b0be c365 ecbf 715e 293d 21ac 843f
000001e0: 60f0 04c0 f8f5 58bc 495f c63e 3f0f 3abe
000001f0: 0d9b fcbf 9a69 383f aa9f dd3f 2689 78bd
00000200: 2100 933f b35c 81be 6b1a e6bd 3318 25bf
00000210: 698c 243f ba17 983e 34a6 8ebf 714e 0e3f
00000220: 1a5c 22bf 5a46 dcbd 6e28 f2be 4bec 63bf
00000230: 8baa 93bf 2ec9 2a3f d5f2 213f ee6d 0d40
00000240: 6418 f2be 61fb 18bf b080 f2be fd83 61bf
00000250: b6fc 85be 53a2 8c3c 83ac eb3f 1f8a fc3e
00000260: ada2 a13f cb8f 8a3f fce2 28bd b3f1 533f
00000270: 4131 abbf f7ce f73e 07cf 5fbf 9cdf b13e
00000280: a218 ffbf 30a8 773f 0beb cb3e 63ca fa3f
00000290: fb12 f5bf 65a5 cebf b0eb 71bf 1bcf 16bf
000002a0: 363b 653f 64a8 913f 1575 24c0 fdf8 003f
000002b0: 8b3d 73c0 ca96 e4be 375a ca3f b86a f83f
000002c0: 4b71 a9bf eec6 0e39 83d0 f6bd bc79 113f
000002d0: 53bc cc3f 437e ee3f fd07 a9be 8c31 083e
000002e0: 9b24 b43f 40a2 d63e d506 053e 52e9 f1be
000002f0: 814e f1bf 892d edbf 8413 ce3f c875 2cbf
00000300: 4d65 94bf b3ea e0be 5213 b83f dbc7 b6be
00000310: 2ecf 82be 1fd1 89bf 6c07 253f 5897 ec3f
00000320: 969c 3fbf 1980 3240 69d0 9dbf 0185 73bf
00000330: 8a85 c63f 1c3c ddbf 8dc8 3cbf 6448 2440
00000340: 8d73 45bf 868d 1d3e ead2 48be 7a74 b33f
00000350: df53 313f 9594 b2be c49f a23e 808e 31bf
00000360: f85d b83f ea97 913d 7097 05bf 5693 883f
00000370: bb37 08bf b706 3640 4bcf 95bf f2a4 a9bf
00000380: b63a 80bf bde7 21be 01f3 11bf 3715 1e3f
00000390: ea91 7f3f 447f ec3d bdc2 0c3e 9740 57bf
000003a0: 6318 ddbe df10 1c3f 388c 75bf dc1a de3d
000003b0: da75 ba3f ee17 723d 1ae5 aa3e eb12 e2be
000003c0: 8f40 073f 27c7 213f e976 3e3f 4afe 173e
000003d0: 73da 26bf 3cc6 9f3f e3f7 1f3f f292 2c3f
000003e0: e3ee 553f 7815 8f3f d9e3 77be 1d7e 1cbe
000003f0: 10f2 3f3f e6c3 9c3f 2dc3 ae3e 44c5 2c3f

lstm.bias_ih_l0 f4 [128]
-0.7976664 -0.4705124 2.1834724 -1.8823198 0.49768087 0.841242 0.92165995 0.3874328
-0.80142164 0.24963433 0.10334533 0.22162789 0.22441156 0.5640617 0.06576888 -1.0637155
2.7813864 -0.6277229 0.9457587 0.36000368 -0.7757252 0.94612676 0.028134748 0.19569898
-0.5094583 0.08115347 0.0009099 -0.4144793 -0.66634804 0.99758023 -0.23821326 0.2821542
-0.79428476 0.048249744 -0.69705963 -1.798052 0.38974607 -0.7277619 -0.8078503 -0.96549654
-2.0683877 -0.17472367 -0.23954153 -0.72189516 -0.33820125 -0.685815 -1.1447325 -0.34597847
-1.0966016 0.023701383 -0.43083963 -1.4398779 0.49237624 -0.4431545 0.0915142 0.8339416
-0.9831222 -0.064448535 -0.8823756 0.27326807 -1.1745847 -1.1246281 0.004905606 -1.0443355
0.040232543 0.46808925 -0.61777306 -0.7450078 -0.4594494 -0.4932206 0.14591931 0.4876379
-0.46784595 -0.21304694 -1.6465085 0.14238837 -0.8757005 1.1084085 0.52791816 -0.6203098
0.36865506 0.36069775 -0.004212899 1.0063566 -0.091368295 -0.21402173 0.34093502 0.64882195
-0.350498 0.97670525 0.4695985 -0.736019 1.0953509 1.0120977 0.5579785 -0.6852682
-1.106735 -0.679005 0.22619306 0.030878935 -1.1173462 0.23821282 -0.44158152 0.00809924
-0.5480131 -0.9255414 -1.3266029 0.61178756 -1.3777494 -0.6752992 0.604628 0.9424363
-1.8844177 0.23516709 -1.7283386 0.26478127 0.25544032 0.09878382 -2.2129838 -0.40715358
-1.9302001 0.6671095 -0.764821 -0.8911321 0.82121134 -1.658037 -0.023673365 -1.7059703
00000000: dd33 4cbf 00e7 f0be 03be 0b40 dbef f0bf
00000010: 07d0 fe3e a35b 573f e8f1 6b3f 985d c63e
00000020: f829 4dbf 24a0 7f3e b7a6 d33d 6cf2 623e
00000030: 25cc 653e 5966 103f d6b1 863d d427 88bf
00000040: 3c02 3240 73b2 20bf 3e1d 723f 6752 b83e
00000050: ed95 46bf 5d35 723f d87a e63c 5065 483e
00000060: dc6b 02bf ca33 a63d 5b86 6e3a a136 d4be
00000070: c995 2abf 6b61 7f3f 2dee 73be 8476 903e
00000080: 3f56 4bbf 86a1 453d 8072 32bf 9126 e6bf
00000090: cc8c c73e 9b4e 3abf 47cf 4ebf c82a 77bf
000000a0: 7760 04c0 c3ea 32be 604a 75be 1fce 38bf
000000b0: b728 adbe 9291 2fbf 9886 92bf 1724 b1be
000000c0: 715d 8cbf 6729 c23c 0397 dcbe eb4d b8bf
000000d0: bd18 fc3e 26e5 e2be cc6b bb3d 327d 553f
000000e0: e6ad 7bbf 98fd 83bd 5ee3 61bf cbe9 8b3e
000000f0: cb58 96bf d0f3 8fbf 35bf a03b c9ac 85bf
00000100: e1ca 243d 65a9 ef3e 6026 1ebf d5b8 3ebf
00000110: f43c ebbe 6987 fcbe df6b 153e adab f93e
00000120: 8189 efbe fa28 5abe cac0 d2bf 42ce 113e
00000130: e82d 60bf 54e0 8d3f a525 073f a0cc 1ebf
00000140: 5bc0 bc3e 60ad b83e 5c0c 8abb 4bd0 803f
00000150: 4d1f bbbd 8328 5bbe 098f ae3e 3219 263f
00000160: 7974 b3be 5b09 7a3f 376f f03e be6b 3cbf
00000170: 7534 8c3f 6b8c 813f aed7 0e3f bd6d 2fbf
00000180: 7ea9 8dbf 46d3 2dbf 279f 673e d2f5 fc3c
00000190: 3305 8fbf 10ee 733e f916 e2be adb2 043c
000001a0: 964a 0cbf 48f0 6cbf 20ce a9bf 1c9e 1c3f
000001b0: 185a b0bf 69e0 2cbf e7c8 1a3f 8143 713f
000001c0: 9934 f1bf a4cf 703e 333a ddbf 6991 873e
000001d0: 13c9 823e 2c4f ca3d 87a1 0dc0 6f76 d0be
000001e0: cc10 f7bf b0c7 2a3f 4fcb 43bf 3c21 64bf
000001f0: e83a 523f 8e3a d4bf a5ee c1bc 3c5d dabf

lstm.bias_hh_l0 f4 [128]
-0.5908006 -0.6024977 2.0875392 -1.6684724 0.52902687 0.91624993 1.0872701 0.41438702
-1.0512182 0.012359529 0.26686475 0.099049054 0.1042387 0.4787858 0.06528773 -1.2660204
2.7236154 -0.93742543 0.964739 0.35328072 -0.790775 0.9530854 -0.002449186 0.37252855
-0.7429138 -0.014083176 -0.31143832 -0.43371287 -0.63343924 0.69708264 -0.19951138 0.30595043
-0.8687237 0.1463693 -0.48773754 -1.7460825 0.24961196 -0.6373646 -0.99162257 -0.9046481
-2.0663185 -0.15039356 -0.26939976 -0.6335637 -0.44900244 -0.98519105 -1.1637665 -0.5404188
-0.8853823 0.02800039 -0.31541583 -1.4305681 0.56747055 -0.30730006 -0.09526919 0.93992364
-0.774426 0.06337593 -0.9257693 0.32532197 -1.1041245 -0.93557173 -0.065089315 -1.1984566
-0.019220162 0.6109641 -0.3869931 -1.0459071 -0.5108351 -0.2659001 0.14879091 0.43717983
-0.68488765 -0.021990374 -1.7304467 0.09079704 -0.966185 1.1192247 0.6338717 -0.6420001
0.52174836 0.09429739 0.16958174 1.1658411 0.0775784 -0.19469288 0.57291657 0.6614643
-0.10063068 0.84677094 0.31663176 -0.7605628 1.0572989 1.093565 0.5076048 -0.7663164
-1.0225286 -0.7482173 0.29638204 0.004080524 -1.1477323 0.4959654 -0.24491104 0.16309135
-0.52430415 -0.9066762 -1.1546746 0.6841219 -1.6120629 -0.66684484 0.49618682 0.93949914
-2.0502906 0.36492622 -1.6078879 0.05155544 0.50542074 -0.018085679 -2.1462672 -0.3423553
-1.9693451 0.6897374 -0.6922373 -0.82581717 0.6692003 -1.7328324 -0.10810045 -1.4800224
00000000: b53e 17bf 4a3d 1abf 3e9a 0540 8190 d5bf
00000010: 4e6e 073f 5b8f 6a3f ab2b 8b3f 892a d43e
00000020: 518e 86bf 9f7f 4a3c 7fa2 883e 3bda ca3d
00000030: 197b d53d 6a23 f53e 93b5 853d f50c a2bf
00000040: b74f 2e40 1dfb 6fbf 23f9 763f 36e1 b43e
00000050: 3b70 4abf 68fd 733f 8682 20bb 10bc be3e
00000060: 992f 3ebf 1fbd 66bc d874 9fbe 9d0f debe
00000070: 1329 22bf 0274 323f b64c 4cbe 89a5 9c3e
00000080: ad64 5ebf d5e1 153e bcb8 f9be a27f dfbf
00000090: 479a 7f3e 542a 23bf fada 7dbf 0597 67bf
000000a0: 903e 04c0 c500 1abe c4ee 89be 3b31 22bf
000000b0: a6e3 e5be 7b35 7cbf 4df6 94bf e358 0abf
000000c0: 6aa8 62bf 1361 e53c 2f7e a1be db1c b7bf
000000d0: c045 113f 6f56 9dbe 7e1c c3bd d69e 703f
000000e0: c840 46bf 3dcb 813d 38ff 6cbf 9a90 a63e
000000f0: f453 8dbf a181 6fbf 8c4d 85bd 0767 99bf
00000100: 9a73 9dbc 2568 1c3f f623 c6be 49e0 85bf
00000110: 17c6 02bf 0f24 88be a55c 183e 09d6 df3e
00000120: cc54 2fbf 2825 b4bc 477f ddbf ccf3 b93d
00000130: e657 77bf c142 8f3f 6a45 223f 1e5a 24bf
00000140: 4d91 053f fd1e c13d d6a6 2d3e 483a 953f
00000150: 6de1 9e3d 925d 47be a9aa 123f b955 293f
00000160: 7517 cebd fbc5 583f 8f1d a23e 3eb4 42bf
00000170: 9255 873f f0f9 8b3f 63f2 013f 502d 44bf
00000180: 38e2 82bf 2b8b 3fbf 63bf 973e ebb5 853b
00000190: e4e8 92bf 2def fd3e f6c9 7abe 6b01 273e
000001a0: cc38 06bf ee1b 68bf 61cc 93bf 9d22 2f3f
000001b0: 1458 cebf 58b6 2abf 330c fe3e 0483 703f
000001c0: f637 03c0 9cd7 ba3e 45cf cdbf cc2b 533d
000001d0: 4163 013f 6b28 94bc 715c 09c0 3249 afbe
000001e0: 8013 fcbf a192 303f 7736 31bf c168 53bf
000001f0: b650 2b3f 74cd ddbf c563 ddbd 6071 bdbf

linear.weight f4 [98, 32]
0.49559733 -2.5633583 -2.988694 3.216345 9.217127 -1.7686764 1.4669724 0.2041323
-5.082456 -1.485964 0.041272942 0.60392576 14.12139 -1.2568483 -1.1954772 0.8419181
-4.867556 -0.6371099 1.3540837 -3.4803786 3.541795 -3.8187344 -4.0401154 3.0996697
-3.4084282 0.054089725 -0.038222637 -1.3439244 -2.5457292 4.571975 -0.108338535 8.468223
2.6945133 -17.660347 1.2156923 10.171288 3.6888332 0.49726063 0.37405288 -4.742633
18.924042 7.638054 8.239412 -0.60628486 11.117168 0.23236784 1.0387429 1.0132747
-7.6218276 2.5837898 0.05069201 2.7989287 1.7044076 -0.65092313 -2.780232 2.6260533
-14.323827 -2.2864656 1.7062343 -1.4904774 -12.792223 -22.88503 0.8264109 12.496299
2.9603167 -20.666632 -0.062271558 9.967498 6.209523 0.8066435 -2.0292282 -0.8274862
19.135372 7.4062705 7.5522494 -0.5762549 8.860534 -0.56896055 0.5133215 0.4702807
-9.318639 1.6473627 0.5145519 2.5866973 1.955643 -1.6340842 -7.886376 1.7585218
-13.986738 0.42595875 1.8959175 -1.6964499 -10.762338 -22.866129 -0.94417626 12.495594
1.563101 -1.8525212 -1.9527237 8.661914 6.48591 0.17831877 1.3843262 -4.2605314
6.8039136 8.605305 3.5306492 1.9396182 13.517474 0.6577635 -2.0442362 1.6804327
-6.9073596 -1.276743 1.1105072 -0.025331967 1.0020616 0.43512347 -1.1554447 -1.4242281
-8.978299 0.9166901 0.8401158 -0.07057977 -10.995546 -15.058064 0.59762764 15.096147
7.287335 -6.1687803 1.4503686 0.4707935 2.0021586 1.4635762 -0.32641813 -7.2256866
6.235703 -0.6976077 13.448402 1.6148916 10.568183 0.667605 -0.9671739 1.7369993
-7.7619033 -1.7624662 -0.46483368 0.42097387 0.8663004 -1.0491269 -3.5327477 0.28674164
-11.624426 0.82976925 0.47438222 0.66604704 -1.1710322 -15.069203 -1.3254755 14.026073
9.501666 -5.09625 0.019444019 0.8684105 -1.2423004 -0.55525 0.96533215 -4.037526
6.513845 1.6018654 4.090863 1.6875416 17.433647 2.0952446 0.33019367 0.045596495
-10.847497 -2.3681066 -0.11024992 0.21613379 0.7065131 -1.0405474 3.2328858 -1.0043702
-8.292228 2.7966943 -1.7766614 0.19257621 -1.7579592 -15.930244 -2.484487 7.7823324
3.0256424 -10.713626 -1.362748 -0.9774605 3.3060598 -2.1050518 1.9561163 -7.517344
11.314944 1.4881353 3.2250278 -1.204429 5.985216 0.6956466 1.2411814 2.379302
-6.687312 -0.23861858 -0.032460243 -1.2985761 0.15323932 -1.1014619 -0.17386113 1.8977543
-1.3140252 1.7669233 0.5162889 -1.3489172 0.5102141 -23.090399 0.036466356 5.0109396
3.048826 -4.0533543 -1.7943933 4.4709425 9.537354 0.5829426 -2.602531 -0.6430243
7.005114 4.549001 7.0466466 -0.42599076 14.654227 -0.25998473 -2.128241 1.8231336
-6.795425 -1.856892 -0.9468503 1.8438861 1.0566729 0.24334519 0.6530305 -0.28644535
-1.4703676 3.9560728 0.1527377 -0.94725573 -10.312421 -7.936806 1.1105231 9.144381
00000000: efbe fd3e 100e 24c0 c346 3fc0 99d8 4d40
00000010: 5a79 1341 fd63 e2bf c0c5 bb3f 0f08 513e
00000020: 7ba3 a2c0 1134 bebf d10d 293d e19a 1a3f
00000030: 37f1 6141 68e0 a0bf 6605 99bf f287 573f
00000040: 05c3 9bc0 a219 23bf 9d52 ad3f 86be 5ec0
00000050: c5ac 6240 2566 74c0 a048 81c0 fd60 4640
00000060: b023 5ac0 308d 5d3d 578f 1cbd b705 acbf
00000070: 3aed 22c0 9f4d 9240 98e0 ddbd d77d 0741
00000080: e872 2c40 6448 8dc1 ce9b 9b3f 98bd 2241
00000090: d815 6c40 f298 fe3e dc83 bf3e a6c3 97c0
000000a0: 7064 9741 f06a f440 a2d4 0341 7c35 1bbf
000000b0: ecdf 3141 d6f1 6d3e 87f5 843f fcb2 813f
000000c0: 03e6 f3c0 d05c 2540 6da2 4f3d a621 3340
000000d0: 072a da3f e6a2 26bf 52ef 31c0 4211 2840
000000e0: 652e 65c1 7455 12c0 e365 da3f f7c7 bebf
000000f0: f2ac 4cc1 8b14 b7c1 aa8f 533f d7f0 4741
00000100: d475 3d40 4355 a5c1 7610 7fbd df7a 1f41
00000110: 6ab4 c640 3080 4e3f e0de 01c0 23d6 53bf
00000120: 3e15 9941 2b00 ed40 07ac f140 7185 13bf
00000130: bfc4 0d41 66a7 11bf 0a69 033f a2c8 f03e
00000140: 2519 15c1 c8dc d23f acb9 033f 738c 2540
00000150: 8352 fa3f ac29 d1bf 315d fcc0 3e17 e13f
00000160: aec9 5fc1 4417 da3e 6dad f23f 4525 d9bf
00000170: 8932 2cc1 d5ed b6c1 89b5 71bf f4ed 4741
00000180: b213 c83f 6a1f edbf daf2 f9bf 3397 0a41
00000190: 938c cf40 3299 363e 9a31 b13f 4656 88c0
000001a0: a9b9 d940 54af 0941 28f6 6140 6945 f83f
000001b0: 9347 5841 3063 283f c4d4 02c0 6b18 d73f
000001c0: 1709 ddc0 516c a3bf 1a25 8e3f fc84 cfbc
000001d0: 8e43 803f 81c8 de3e 9de5 93bf 1b4d b6bf
000001e0: 1da7 0fc1 34ac 6a3f d411 573f 208c 90bd
000001f0: c2ed 2fc1 d5ed 70c1 20fe 183f d189 7141
00000200: d931 e940 a666 c5c0 aea5 b93f d80b f13e
00000210: 5e23 0040 7756 bb3f 4720 a7be d338 e7c0
00000220: e18a c740 6b96 32bf a82c 5741 c5b4 ce3f
00000230: 4717 2941 29e8 2a3f b598 77bf fe55 de3f
00000240: 8361 f8c0 7e98 e1bf aefe edbe e389 d73e
00000250: ddc5 5d3f ca49 86bf 8a18 62c0 cdcf 923e
00000260: a6fd 39c1 c26b 543f 3ae2 f23e 0f82 2a3f
00000270: 62e4 95bf 751b 71c1 2ea9 a9bf cc6a 6041
00000280: d306 1841 7b14 a3c0 1049 9f3c 2750 5e3f
00000290: b303 9fbf dd24 0ebf 0220 773f 6a33 81c0
000002a0: 6b71 d040 ed09 cd3f 5ae8 8240 5d01 d83f
000002b0: 1c78 8b41 7d18 0640 250f a93e 64c3 3a3d
000002c0: 598f 2dc1 0f8f 17c0 b6ca e1bd 2d52 5d3e
000002d0: 0bde 343f a830 85bf 9ae7 4e40 348f 80bf
000002e0: f7ac 04c1 0afd 3240 a469 e3bf b332 453e
000002f0: cf04 e1bf 48e2 7ec1 d601 1fc0 de08 f940
00000300: 20a4 4140 036b 2bc1 876e aebf da3a 7abf
00000310: 7c96 5340 2bb9 06c0 0562 fa3f 158e f0c0
00000320: 030a 3541 387b be3f db66 4e40 bb2a 9abf
00000330: e486 bf40 e515 323f 08df 9e3f 7c46 1840
00000340: 76fe d5c0 6e58 74be 08f5 04bd be37 a6bf
00000350: c5ea 1c3e b4fc 8cbf a708 32be 9de9 f23f
00000360: fa31 a8bf 8b2a e23f 822b 043f 52a9 acbf
00000370: 649d 023f 23b9 b8c1 bf5d 153d 9e59 a040
00000380: f71f 4340 14b5 81c0 aeae e5bf f611 8f40
00000390: 0199 1841 ba3b 153f de8f 26c0 3e9d 24bf
000003a0: e529 e040 6b91 9140 217e e140 761b dabe
000003b0: b777 6a41 b81c 85be 1a35 08c0 715c e93f
000003c0: 1f74 d9c0 a3ae edbf c864 72bf 7604 ec3f
000003d0: 0f41 873f 7b2f 793e 022d 273f f7a8 92be
000003e0: 0135 bcbf 4c30 7d40 4667 1c3e 5a7f 72bf
000003f0: adff 24c1 51fa fdc0 9f25 8e3f 624f 1241

linear.bias f4 [98]
-2.5089953 -2.3638165 -2.8910608 -2.205153 -1.6909075 -3.209487 -1.8907553 -2.41248
-1.168816 -1.9623109 -1.4503201 -1.9257209 -1.8057938 -2.158075 -2.0368335 -1.4074881
-1.2398596 -3.0760438 -2.044906 -2.6383889 -1.8331054 -3.361053 -1.5528046 -4.008635
-3.240412 -2.8756454 -3.6419408 -1.9220121 -3.581774 -2.22274 -1.7356899 -0.6922729
-0.20034829 -3.8551896 -1.3862938 -2.6440647 -2.829793 -1.4113984 -2.2767284 -1.224194
-1.6719084 -2.4835358 -1.8486384 -3.072068 -1.8202734 -3.3482401 -1.9257575 -2.1945524
-15.960617 -1.7912146 -2.5205889 -2.1952162 -2.5505145 -2.4279618 -1.6720674 -2.1544008
-1.703429 -2.163042 -1.1448005 -0.62595975 -2.0449045 -1.4557874 -1.647485 -0.9765415
-2.719601 -1.4826465 -2.8828983 -3.888999 -2.909659 -3.2063222 -3.1434822 -3.2582417
-3.0514748 -4.795438 -2.9036775 -4.5135813 -3.3315158 -3.189944 -2.8462114 -3.5425682
-2.0509698 -2.0526216 -2.1461117 -1.730806 -1.1937686 -1.4393995 -1.7497784 -0.73175865
-1.1404715 -1.8792119 -1.3430947 -1.7755 -1.145611 -2.194476 -2.644038 -2.7993178
-2.9514105 -3.056225
00000000: 6193 20c0 c548 17c0 2407 39c0 3a21 0dc0
00000010: a86f d8bf 3c68 4dc0 4504 f2bf 1366 1ac0
00000020: c39b 95bf 012d fbbf 17a4 b9bf 067e f6bf
00000030: 4024 e7bf e71d 0ac0 7b5b 02c0 9228 b4bf
00000040: b8b3 9ebf e7dd 44c0 bddf 02c0 5ddb 28c0
00000050: 33a3 eabf 7e1b 57c0 4dc2 c6bf bd46 80c0
00000060: e962 4fc0 930a 38c0 8f15 69c0 7e04 f6bf
00000070: c93b 65c0 5f41 0ec0 162b debf cc38 31bf
00000080: 1a28 4dbe 6dbb 76c0 1372 b1bf 5b38 29c0
00000090: 541b 35c0 b4a8 b4bf ebb5 11c0 64b2 9cbf
000000a0: 1801 d6bf 40f2 1ec0 2fa0 ecbf c39c 44c0
000000b0: b8fe e8bf 9149 56c0 397f f6bf 8c73 0cc0
000000c0: b05e 7fc1 8546 e5bf 5451 21c0 6c7e 0cc0
000000d0: a13b 23c0 ba63 1bc0 4e06 d6bf b4e1 09c0
000000e0: f609 dabf 486f 0ac0 d388 92bf e63e 20bf
000000f0: b7df 02c0 3e57 babf cae0 d2bf a0fe 79bf
00000100: f10d 2ec0 5cc7 bdbf 6881 38c0 5ce5 78c0
00000110: da37 3ac0 6234 4dc0 d02e 49c0 0887 50c0
00000120: 5d4b 43c0 3a74 99c0 dad5 39c0 426f 90c0
00000130: 8e37 55c0 0b28 4cc0 5428 36c0 70b9 62c0
00000140: 1743 03c0 275e 03c0 e559 09c0 0d8b ddbf
00000150: 69cd 98bf 3e3e b8bf bdf8 dfbf 8954 3bbf
00000160: f8fa 91bf 048a f0bf 87ea abbf 9643 e3bf
00000170: 62a3 92bf 4b72 0cc0 eb37 29c0 0628 33c0
00000180: e9e3 3cc0 3199 43c0
