models/model32_24_8.pth (torch, 85548 bytes, 12 tensors)

conv2d_1.weight f4 [8, 1, 2, 2]
00000000: 8ea2 4f3f 29f6 8fbd 6652 bf3d 09de 243e
00000010: 7ecc 7ebd 275f 9c3e cfca ec3e d1ae 2bbf
00000020: 50f5 253f c2f7 603f f682 32be 1868 593e
00000030: c89c d63d 2f84 eebd 04dd c6be 227a 083f
00000040: d3b6 663f d65d 4c3e ce29 e33d 8b16 d5bc
00000050: 2601 483f 4b06 a7bd b518 b43d a830 323e
00000060: f8f5 2dbe 8122 7dbe ecee d03e 4ee0 5e3f
00000070: 2e47 ad3e fea9 85be 5e38 1ebf d62a 813e
0.81107414 -0.07029373 0.09341888 0.16100325 -0.062206738 0.30541345 0.4624848 -0.67063624
0.6482744 0.8787805 -0.1743277 0.21231115 0.104791224 -0.11646306 -0.38840497 0.5331136
0.9012272 0.1995767 0.11091958 -0.026011726 0.7812675 -0.08155497 0.08793775 0.17401373
-0.16988361 -0.24720193 0.40807283 0.8706101 0.33843368 -0.26106256 -0.6180476 0.25227994

conv2d_1.bias f4 [8]
00000000: 4060 b4be 14e2 0cbf 373c 34bf 8322 ddbe
00000010: 4a37 efbe 3b0d b2be a230 90be 4187 c4be
-0.35229683 -0.5503247 -0.7040438 -0.43190393 -0.4672187 -0.3477572 -0.28162104 -0.3838444

conv2d_2.weight f4 [16, 8, 3, 3]
00000000: 83e1 3c3e 5e30 f3bc b479 093e e784 b83d
00000010: 4eba e6bd 6f37 fd3c 7c4a b03e fd7e e1be
00000020: e13c 093f f430 b2bd 6039 ddbf af30 073c
00000030: f208 083e 61e7 17c0 4279 9d3d ff04 963d
00000040: 30ea 08c0 8500 83bf 45b0 15be b04c 383e
00000050: dea7 fe3d e446 4bbc fca3 ff3e 8eb8 53bd
00000060: 3530 c43d 0967 563e 1134 0f3f b231 003e
00000070: 7010 6b3d 7536 77bf dac9 a93d 4eef b03e
00000080: 98f0 f0bf cf76 dd3a 0bff a63b f7e8 ecbf
00000090: 1588 f2bd cb1f 11bd b9f8 dc3d 3bd9 e73e
000000a0: e350 79bd fb6b e1bd 0c34 ab3e b7bf 87be
000000b0: 3544 c83e 2af2 c13d 6da3 b1bd 9520 013d
000000c0: 4d12 173d d34e 3cbd 498e 903c ace0 c83e
000000d0: c64c dcbe 0410 d93e 053e 123e c16d d43e
000000e0: 3c1e d63d ed7c 7bbd 89dd 0e3d 1dad 03be
000000f0: 3700 a73c a649 99be 1051 ddbc 9972 293d
00000100: 47fd ac3d b9fd 39bf de7a dfbd 1e72 b13e
00000110: 0a26 8fbe cca8 1a3e f026 ca3d ea66 8ebf
00000120: 8841 adbd 812d c5bd 9c31 6ebf de85 973e
00000130: 54b4 25bf 17b2 54c0 5b04 943d 6f34 1bc0
00000140: 0316 3fc0 f6f9 653e 19eb 8bbe 0925 57be
00000150: 6d4e 54be cf36 ffbd dd7f bfbd 1d7c 88be
00000160: 869c 82be 57d1 33be 8e65 9abe 0bfa 07bf
00000170: 2eab 3dbe 7069 d9be 8e0f 03c0 e761 27bf
00000180: d54a 03bf f80e cbbf 4c92 febf 501e b7bd
00000190: 7132 29be 0fff 583d 7b8e 43be f832 96be
000001a0: 326e a23d 5002 2ebf 5b16 9cbe fba0 2dbe
000001b0: 6746 d13e b673 21bf 2e42 5dbf 6d5f 0b3e
000001c0: b67b 5dc0 d29a 34c0 0851 08be 68d7 34c0
000001d0: 30e7 29c0 8284 c83d 45b5 c2be df4f adbf
000001e0: 08d2 8a3e 0ef5 83be 9b22 52c0 a0d8 00be
000001f0: 4160 e2bf 5936 57c0 3a7f 38bf e8a5 41c0
00000200: ec03 66bf 157a 813d d942 9a3e 5be5 ab3e
00000210: 002a 22bf 852b 0bc0 05ed 99bf 15b2 3a3d
00000220: 6beb 7e3e dda1 3e3e 7204 b83e c173 42be
00000230: 0b9b 913d 9e9d 18bf dccb c6bd 5bd4 043e
00000240: e638 b6bb 21ba a8bf f1fa a9bc e539 9ebe
00000250: 4cec f33d 415f c3bf 686d 2dbf df67 4ebf
00000260: c872 9fbf 3952 46bf 95b8 c53e cf95 d83d
00000270: 63fa 50bf 1aca b1ba 78ad 7ebd e903 65bf
00000280: b767 4cbe 6d9d b63e 0da6 473e 4196 20bf
00000290: 1fdc 3a3f 59e6 e2be 5e4b 10bf 7a62 4bbd
000002a0: 283e f3bf f79f acbf feb2 debe 0e13 24bf
000002b0: 1e19 abbe d80c cb3e ae54 01bf 52d8 06bf
000002c0: ab8c a0be 506c 3dbf 8ba1 d6be 4d1c 2b3e
000002d0: 6697 f43c 6979 0d3f c441 38be d0e5 b6be
000002e0: e683 b2bf 8fdb ecbe dd89 c6bf da9e c9bf
000002f0: 1758 53bf 346c 60bc c5f8 7abf f68d cf3d
00000300: ea09 ecbe c459 77be 065e b0bf bdbe cebe
00000310: 66db 0fbf 35a3 ddbf 30b6 89be e37b 92bf
00000320: e729 d23e 7e29 b0be 7968 14bf 8495 633d
00000330: bdb4 4dbe b9f8 103e 091f 24be 96d9 bbbe
00000340: c738 1bbf fc28 b73e 342f 79bf 9b0b 78bf
00000350: 58b2 25be 88b5 f0be 209a 5ebf 72bf 40be
00000360: d8d5 403e c3b2 a13e c71f 75be b4e9 9f3e
00000370: 6bcf 933e 4e8e bf3d a75d e4bd 527c cbbf
00000380: baa6 4abe bbc5 c2be 029f 25c0 311b 14bc
00000390: 36c9 a2bf 8a3d fcbf 8a6f 08bf 93b1 98bf
000003a0: e0fe 8fbf 3a0a 1cbe 2fe7 4cbd 629a 2b3e
000003b0: 8495 21bd 982f f2bd e25a cf3e afd8 233e
000003c0: f8c5 3ebf 5d8a 59bf 20b7 df3c 3bf5 c83e
000003d0: d66a 62bf 95a1 a2bf 44ea f7bd 0743 d9bf
000003e0: 0f80 b7bf 6e35 acbe 819d 00c0 69af fbbf
000003f0: d13e 983c 71ac 0a3e 2410 f0bd d724 e23c
0.18445401 -0.02968615 0.13425332 0.09009724 -0.112660035 0.030910222 0.34431827 -0.44042197
0.5360852 -0.08700743 -1.7283134 0.008251353 0.13284662 -2.3734972 0.07689144 0.07325172
-2.1392937 -1.0234534 -0.14618023 0.17998004 0.12434362 -0.012407038 0.49929798 -0.051689677
0.09579507 0.20937742 0.5593882 0.12518957 0.057388723 -0.9656747 0.08290453 0.34557575
-1.8823423 0.001689637 0.0050963215 -1.8508595 -0.11842362 -0.03543071 0.107896276 0.4528292
-0.060868155 -0.11006924 0.33438146 -0.26513454 0.39114538 0.09470017 -0.08673749 0.031525213
0.036882687 -0.04597361 0.017645972 0.3923391 -0.43027323 0.4239503 0.14281471 0.41489986
0.104549855 -0.061398435 0.03487924 -0.12859006 0.020385845 -0.29939002 -0.027016193 0.041369054
0.08446746 -0.72652775 -0.10912107 0.34657377 -0.2795871 0.15103453 0.09870708 -1.1125157
-0.08459765 -0.0962782 -0.9304445 0.2959432 -0.64728284 -3.3233697 0.07227393 -2.4250753
-2.9857185 0.22458634 -0.27327803 -0.21010222 -0.20733042 -0.12461626 -0.0935056 -0.2665719
-0.25510043 -0.17560326 -0.30155605 -0.5311591 -0.18522331 -0.42463255 -2.0478244 -0.6538376
-0.5128606 -1.5863943 -1.9888396 -0.089413285 -0.16523148 0.052977618 -0.1909732 -0.2933576
0.07931174 -0.6797228 -0.30485806 -0.1695594 0.40874025 -0.63067186 -0.8642911 0.13610621
-3.4606757 -2.8219495 -0.13312161 -2.8256474 -2.6547356 0.09790899 -0.38028923 -1.354
0.27113366 -0.257729 -3.2833622 -0.12582636 -1.7685624 -3.362692 -0.7206913 -3.025751
-0.89849734 0.063221134 0.30129126 0.33573422 -0.63345337 -2.1745312 -1.2025458 0.04557999
0.24894492 0.18616433 0.35940892 -0.18989469 0.0710965 -0.59615505 -0.09706852 0.12971632
-0.005560982 -1.3181802 -0.020749541 -0.30903545 0.119103044 -1.5263444 -0.67745066 -0.80627245
-1.2456903 -0.7746921 0.38617387 0.10575449 -0.8163206 -0.0013564259 -0.06217715 -0.8945909
-0.19961439 0.3566698 0.19496937 -0.6272927 0.7299213 -0.44316366 -0.56365 -0.04965446
-1.9003344 -1.3486317 -0.43495935 -0.64091575 -0.334176 0.39658237 -0.50519836 -0.5267383
-0.3135732 -0.73993397 -0.41920123 0.16710015 0.029857349 0.5526338 -0.17993838 -0.35722208
-1.3946502 -0.4626126 -1.5510823 -1.5751603 -0.8255629 -0.013697673 -0.9803584 0.10134499
-0.46101314 -0.24155337 -1.3778694 -0.40379897 -0.5619415 -1.7315432 -0.2689681 -1.1444057
0.41047594 -0.34406656 -0.5797191 0.05556251 -0.20088477 0.1415738 -0.16027464 -0.36689442
-0.6063351 0.35773456 -0.9733765 -0.9689271 -0.16181314 -0.47013497 -0.86953926 -0.1882303
0.18831575 0.31581697 -0.23937903 0.3123299 0.28869185 0.09353314 -0.11150675 -1.5897315
-0.19790164 -0.3804148 -2.58783 -0.009039686 -1.2717655 -1.970628 -0.53295195 -1.1929191
-1.1249657 -0.15238276 -0.05002516 0.16758111 -0.03944923 -0.11825484 0.40499026 0.16000627
-0.74520826 -0.8497675 0.027309 0.39249596 -0.8844427 -1.2705561 -0.121052295 -1.697358
-1.4335955 -0.33634514 -2.0096133 -1.9662906 0.01858464 0.13542344 -0.117218286 0.027605457

conv2d_2.bias f4 [16]
00000000: 323b 303e aa3b 8c3e a97a 6b3d fcb2 be3e
00000010: b289 27bf 18cf 073e 37e1 373c e53c a038
00000020: 80d7 153e 6060 3b3d 8732 37bc 49c9 833e
00000030: f8f0 a0bd 5994 7c3e 312f 91bd a7b7 443e
0.17210081 0.2738927 0.057490025 0.3724593 -0.6544448 0.13262594 0.011223129 7.640737e-05
0.14632988 0.045746207 -0.01118148 0.25739506 -0.07858461 0.24665965 -0.07089079 0.19210683

conv2d_3.weight f4 [32, 16, 4, 4]
00000000: 5257 18be 23ce 04be c5ad 90be e6df a2be
00000010: 1fc3 40be b854 b8bc 647d 90be a26f bebe
00000020: 32a1 34be ea6e f6bb a09a 44be ce67 7fbe
00000030: 8ecd 38be 707c 11be 2b07 37be 1b94 75be
00000040: bfbd 6d3d 21e7 963d 6c18 713e 224e c5bd
00000050: ee31 ec3d 66ea 5abd 8fbf 893d c575 91bd
00000060: c89d 323d a2f4 703d 4a8e 65bc 03de f0bd
00000070: 69ae 843d 0438 2a3c 4015 b73b aee3 61be
00000080: 850d 80bd e1b6 afbd 1b56 42bd eff9 0ebe
00000090: 6d88 053e 7875 41be 9d91 c8bd b51e a8bc
000000a0: 4b9d 1fbd 7956 adbd 5a43 45bd 3d2f 1abe
000000b0: 2b50 073e 08ec 0dbe 3a7c e5bd c4d1 b8bd
000000c0: 680c edbd 502e 0fbe 4398 81be 4cdf a53b
000000d0: 8853 9ebd a000 ee3b 8da2 af3c 6646 11bc
000000e0: ae02 f0bd 2bfa 92bd 039e 3cbd 6d22 f2bd
000000f0: ed8b 86bd c9a0 09bd 5318 a0bd 1e01 b6bc
00000100: 8bcf 113e 95d7 8d3d 461d 6ebd fcf8 ddbd
00000110: f33e 523e 717a 4cbd 5fea 6cbe e762 b93c
00000120: 2858 27be e47c 363c 9dbe 3d3d ae78 e93b
00000130: 05dd 46bd 4779 a53d f1fa 4c3d 321b 79bd
00000140: 6175 08bd 54bc 123e 9f2c edbd 11fa fa3b
00000150: 3ba4 3a3d f9d0 ca3b a685 0fbe f176 cf3d
00000160: 50a4 403d d2cd 06bd 0098 eabd 2ebf 613d
00000170: e294 18bd d1ff 5c3e 6387 92bd 0ff3 97bd
00000180: b6db 4f3d 997e e83d 2ab5 bdbd bf88 5fbe
00000190: 06e4 2ebd 333d af3c 2f38 afbd e14b 86bd
000001a0: 6b58 223e 86ae 063c 0c34 67bd 011b 25bd
000001b0: 1bbd debc 97af 8cbd 7f3d 36be 8195 1cbe
000001c0: 1a11 1dbe 61c5 dcbd 6d44 debd 446e 24be
000001d0: 771b 41bd 2d41 07be 3b64 42be 623b 74be
000001e0: e759 fdbd 3c8e b1bd 66b8 28be 7689 32be
000001f0: b176 883d 790d e0bb 4d51 34be 4a45 f8bd
00000200: f574 0f3d 9491 5abd 7525 51bd 87dc 6f3e
00000210: 05dd b6bd 1938 7fbd 2965 1cbe 86df 58be
00000220: 6453 e3bd 361b 89be 9ae5 0dbd 170f 55bc
00000230: ac6d e5bd 2222 20bc 387c 0cbe 4d43 2e3e
00000240: 72ae 94be bd4e 72be cba5 3abd 8717 6fbe
00000250: 6502 57be d712 74be a3ba 22be dbe8 84be
00000260: 0a21 80be 3eb5 3fbe 45e0 f7bd a620 29be
00000270: 97e1 dbbe 319a 51be 9e42 b4be a5ae 85be
00000280: 6765 a3bd bc95 f2bd 94ed 72bd 843c b1be
00000290: 2b0b d4bd 6385 01be c046 ecbd 0315 83be
000002a0: 49c5 ab3c 6828 f7bd 8497 62bc efba 86be
000002b0: 189f e6bb 4b02 32be e754 10be cecc 32be
000002c0: bf76 86bc 78c9 dabd f7e2 85be 9dd9 14be
000002d0: 8d3f ecbc 87ef 98be 606c e63c 9084 3fbe
000002e0: ce6c a2bd fadd 7cbc 4cae 24bd 0049 0bbe
000002f0: e4a6 09be 74b7 fabd 7cd1 b5be ad8e acbe
00000300: e65d a8bd 8987 07be 7c33 1ebe 92e7 3abe
00000310: 52d9 d93c 8d4c c5bd 041a e5bd 7bb7 e9bd
00000320: 9c60 073e e16a 4fbd 7aec 1bbe b931 6abd
00000330: b74a d73d 1b9f bc3c defd 51be ab53 00be
00000340: fd87 d3bd 6f95 ec3c 69c9 45be 436d 3cbe
00000350: 403c 033d c8c9 a93a b709 80bd b7af c4bd
00000360: 9861 08bd 3761 3d3d 1ced 95bd a4a3 6ebd
00000370: 71e5 0c3c 5698 cfbd 47b0 9fbd e4bf 7bbe
00000380: d98f 8ebe e412 3dbe e384 60be f539 d8bd
00000390: 5a02 3ebe 9291 87be 8bc7 2bbe 2e44 3fbe
000003a0: 0cb6 f5bd 0a04 76be 4cdb 66be b5f3 52bd
000003b0: 0895 23be 686f 56be 6bbd 1dbe 7637 8ebd
000003c0: 30d6 5d3c 3469 243d 4ce8 24be 538c 23be
000003d0: de94 cebc af44 043e 1772 a2bc 9d95 d7bd
000003e0: 19ce b03d 84fd 973d 4b31 fabd b6cd a6bd
000003f0: 26ec 5d3d f239 b03c 43b2 00bd 76be 08be
-0.1487706 -0.1296926 -0.28257576 -0.31811446 -0.18824433 -0.022501335 -0.28220665 -0.37194544
-0.17639616 -0.007520546 -0.1919961 -0.24941942 -0.18047163 -0.14207625 -0.17873828 -0.23982279
0.058042284 0.07368303 0.23544472 -0.09634043 0.11532961 -0.053446196 0.0672599 -0.07102541
0.043607503 0.05882705 -0.014010975 -0.117610954 0.064785786 0.010389332 0.00558725 -0.22059509
-0.06252579 -0.08579803 -0.047445398 -0.1396253 0.13040324 -0.18892467 -0.097933985 -0.020522455
-0.038968366 -0.08463759 -0.048159935 -0.15057082 0.13214175 -0.1385957 -0.11205335 -0.090243846
-0.11574632 -0.1398251 -0.2531148 0.0050620195 -0.07730776 0.007263258 0.021439815 -0.008866882
-0.11719261 -0.07176622 -0.04604913 -0.118229724 -0.065696575 -0.033600602 -0.078171395 -0.02221733
0.14239328 0.06925885 -0.058133386 -0.108385056 0.20531826 -0.049921457 -0.2313628 0.022630168
-0.16342223 0.011138175 0.04632436 0.007124982 -0.048550624 0.080797724 0.050044004 -0.06081695
-0.033315066 0.14329654 -0.115807764 0.007659205 0.04556678 0.0061894623 -0.14015827 0.10130108
0.0470317 -0.03291113 -0.11454773 0.055113964 -0.03725136 0.21581961 -0.07154729 -0.074194066
0.050746642 0.113522716 -0.0926307 -0.21829508 -0.04269793 0.021391487 -0.08555638 -0.065574415
0.15854041 0.008220321 -0.05644612 -0.040308956 -0.027189782 -0.068694286 -0.17796896 -0.15291406
-0.15338555 -0.107798345 -0.10852895 -0.16057688 -0.047145333 -0.13208456 -0.18983547 -0.23850778
-0.12370663 -0.08669707 -0.16476592 -0.1743525 0.066632636 -0.0068375436 -0.17609139 -0.12122591
0.03502365 -0.05336149 -0.051061112 0.23423968 -0.08928875 -0.06230936 -0.15272965 -0.21179017
-0.1109989 -0.26778573 -0.034642793 -0.013004086 -0.11202559 -0.009773763 -0.1371926 0.1701786
-0.2903934 -0.23662849 -0.04556827 -0.23348819 -0.20997007 -0.23835312 -0.15891509 -0.25958905
-0.25025207 -0.18721482 -0.12103323 -0.1651636 -0.4294555 -0.20468976 -0.35207075 -0.26109806
-0.07978325 -0.11844966 -0.059308603 -0.34616482 -0.103536926 -0.12648539 -0.11536932 -0.25601968
0.020968096 -0.12068254 -0.013830069 -0.26314494 -0.0070380084 -0.17383687 -0.14094888 -0.1746094
-0.016414044 -0.10682958 -0.26149723 -0.14536138 -0.028838897 -0.29870245 0.02812785 -0.18702912
-0.07930909 -0.015433783 -0.040205285 -0.13602066 -0.1344257 -0.12242022 -0.35511386 -0.33702603
-0.08221035 -0.13235296 -0.15449327 -0.182524 0.026592884 -0.096337415 -0.11186603 -0.11411949
0.13220447 -0.050639037 -0.15226927 -0.057176325 0.105122976 0.023025086 -0.20506999 -0.12531917
-0.10328672 0.02887985 -0.19315113 -0.18401055 0.03203988 0.0012953812 -0.06251853 -0.096038274
-0.033296198 0.04623529 -0.07320616 -0.05826153 0.008599625 -0.10136478 -0.07797294 -0.24584919
-0.27844122 -0.18464237 -0.21925692 -0.105579294 -0.18555585 -0.2647825 -0.16775338 -0.18678352
-0.11997613 -0.24024978 -0.22544593 -0.05150195 -0.1597482 -0.20940936 -0.15404288 -0.06944172
0.013539836 0.040139392 -0.16104239 -0.15971498 -0.02521747 0.12916826 -0.019829793 -0.10526583
0.0863306 0.07421401 -0.12216433 -0.08144705 0.054180287 0.021512005 -0.031420004 -0.13353905

conv2d_3.bias f4 [32]
00000000: 5d44 85be 6462 1cbe 3e82 9dbe 382d a6be
00000010: a460 423e 5fcd 80bc d2c7 9a3e 605c e53e
00000020: b2fe 07be e268 553e db14 b3bc 7c4d 3c3c
00000030: c43f 1f3f 01c4 2abd 2b18 96bd abbe edbd
00000040: aba0 db3e 934a 2fbe 6d39 8bbd 726e d4be
00000050: 8b49 9a3e 1fe1 01bf 51ea ba3e 4674 e33c
00000060: 5eca f13e 0c39 f6be 9a6d 0a3f aa4c 993e
00000070: 3cd3 753e 83a2 8e3e 6700 b53e bfe8 843e
-0.2602872 -0.15271908 -0.3076343 -0.32456374 0.18982178 -0.015722929 0.30230576 0.4479704
-0.13280752 0.20840791 -0.02186053 0.011493083 0.62206674 -0.04169083 -0.073288284 -0.11608633
0.42896017 -0.17118292 -0.067980625 -0.41490513 0.30134234 -0.5073413 0.36506894 0.027765404
0.47224706 -0.48090398 0.5407349 0.29941303 0.24006361 0.27858362 0.3535187 0.2595882

lstm.weight_ih_l0 f4 [96, 64]
00000000: da71 85be 5fde 003e 376a aebf 1ecb 803f
00000010: 4d11 b4bc 6487 493e 435c 9e3d 6de4 5e3d
00000020: 9778 a83e aaab 963d 8745 703d 6372 92be
00000030: 99ba b13e a185 e43e 3d8d 02be f158 12be
00000040: c6bb 44bb 9ecd efbe 7071 16bc 572b 933e
00000050: c6f5 cebd aa0c 173e 95f5 58be 3a55 95bd
00000060: 0cd4 2d3f 41ac 643f 3202 8c3f 0f4a 4e3f
00000070: 4349 1f3f e24d 21be 64fe 643f a43e c0bd
00000080: 8501 5c3e e032 523f 32b3 283f 816e bb3e
00000090: bc09 323f e881 923f a9ef e43e dabe 403f
000000a0: b9bb dfbc 5f30 ce3d 1a6c 56be e076 9f3e
000000b0: 146e 003e e875 f23e 4e8d a6be 3495 9f3e
000000c0: 01f9 033f 8a63 2a3f d568 203f ff4b 133f
000000d0: 3dff 453f a77e 393f fb1f 293f 4c28 853e
000000e0: 8098 a33f 44cb 403e 0c40 b03f 2c3c 0ebf
000000f0: 41e6 683f 87c5 a2be ddce ce3f 21dc f53e
00000100: d00e 3b3e e0ff 203f 097d f63d 8ec7 9d3e
00000110: d44c 993c ee3c 0c3d c069 103e b693 b63d
00000120: 04f5 9ebc 4489 e73c f621 203e c307 4cbd
00000130: 8d90 53bd 59c9 7c3e 40fe 263e ef5e bf3d
00000140: 7e4a 4b3e e263 333e 7c11 293d be07 c33e
00000150: 9543 4f3e e313 d03d f7f0 0cbe e8f2 333e
00000160: 8077 8dbd 2d0f 743e d05f 4dbe da92 76be
00000170: ff46 293d c68e 663d ca6e 6bbb 6078 ebbd
00000180: 0d43 94bd aba7 0dbe 0c70 2bbd 6b35 343e
00000190: d1a4 653e 57b1 903d faf6 3e3e a0fe 123e
000001a0: d9a4 93bd 8416 c4bd 8b8c c73d 640f e33d
000001b0: df15 c83e 73ae 8a3e 0a6c f63e bf54 8d3e
000001c0: 00f1 613d 7b99 b43e 57ac b13a 3a44 cd3e
000001d0: abb2 633d ff56 b03e 5147 7c3e ba44 f83d
000001e0: 3f22 533e 45b0 513e 4ab6 423d ed37 de3e
000001f0: e804 5c3e 25ad ce3e dff0 053d 4b06 ae3e
00000200: 877a d43e 2c35 113d 68e2 c13d dafe a73e
00000210: 49a3 353e ec02 4c3d cfad 763e 37b1 b63e
00000220: f14e ea3d 8e6a 2b3e d447 c93e 64a6 863e
00000230: ea8c 903e fdf5 b33e 5578 a03d 7a81 3c3e
00000240: eef3 0f3e 6265 3d3e 8c9f a93c a0ce 293e
00000250: 91ff 2b3e 8947 813e 93c9 8e3e 1c4d d43d
00000260: e23e 233d 5c21 3fbc 1d31 1e3e e4a5 523e
00000270: ece9 d03d 3b6c 693e b955 153e 5e16 403e
00000280: 2601 ecbc 0ae4 a5bd 133b 193d 2836 723e
00000290: 6d73 633e ac34 9c3e 107c 773e b9c9 da3d
000002a0: 4f6c 353d b4a1 f13c a1f5 943c d0cb dabc
000002b0: ada7 123e e2ce 423b 016e c8bd af4a 933e
000002c0: dba9 933e 2558 2d3e 0cb5 993e 116e ae3e
000002d0: 2dcf b63e efe0 853e f8bb 833c cc56 2dbb
000002e0: 3c89 e33e 3f84 8f3d 1f56 db3d 7ea7 4b3e
000002f0: a8c3 a03e 646f 173e 5a3a 4f3c 7b86 ab3e
00000300: 54cd acbc 02be ab3d 0a96 0a3e d1c0 d93d
00000310: 64cc d5bc 4f49 cb3c 1518 8c3b c5d6 69bd
00000320: 86f4 223e 452b 53bb 1cb8 123e 2620 493e
00000330: ac38 6c3e b6f1 8a3d c700 393e 8b29 15be
00000340: 9ca8 0b3e d9c6 8b3d c50e 233e 79b4 35bc
00000350: 6096 aa3d f06b 083b 275f bebd abd2 f53d
00000360: 5786 9d3d 1edb c83d 9476 743e 5c69 403e
00000370: 8d78 8cbd 6415 cd3a 0633 7d3b 9ef0 8ebd
00000380: 7d02 97bd 7d49 613e fc9d aabd 9ed7 633d
00000390: 6e82 313c 0d71 4b3e 80f7 cc3d ff5e cebd
000003a0: ec01 9cbd 28da 80bc 6dc4 7a3e f73c 973d
000003b0: fd41 293e b16e e0bd 6454 1a3e 3e31 913d
000003c0: 8ec6 6b3e 6a85 d43d e384 783e 57b7 b03d
000003d0: 5f53 91bd 8408 2e3e 8576 493e 21b3 bd3d
000003e0: 0546 4d3e c7c9 283e a138 833e 0e5d 41bd
000003f0: e2b8 ccbd 2aaf 2cbe 3c01 083e 6f44 d33d
-0.26063424 0.12584828 -1.3626164 1.0061986 -0.021980906 0.19680554 0.07732441 0.054417063
0.32904503 0.07356961 0.058660056 -0.28602895 0.34712675 0.446332 -0.1274919 -0.14291741
-0.0030019148 -0.4683656 -0.009182319 0.28744003 -0.10105471 0.14750925 -0.21187432 -0.07291646
0.6790168 0.8932534 1.093817 0.80581754 0.62221164 -0.15752366 0.8945067 -0.09386948
0.21484955 0.8210888 0.6589843 0.36607745 0.69546103 1.1445894 0.44714096 0.75291216
-0.027311193 0.1006782 -0.20939675 0.31145382 0.12541991 0.4735558 -0.32529682 0.3116852
0.51551825 0.66558135 0.6265996 0.57537836 0.7734259 0.7245888 0.66064423 0.26007307
1.2780914 0.1882754 1.3769546 -0.55560565 0.9097634 -0.31791326 1.615688 0.48019508
0.1826737 0.62890434 0.12035567 0.3081631 0.018713392 0.034237795 0.1410284 0.089148924
-0.019403942 0.028263696 0.15637955 -0.04981209 -0.051651526 0.24686183 0.16307926 0.09344279
0.19852635 0.17518571 0.04127644 0.38091844 0.20240624 0.10160043 -0.13763796 0.1757313
-0.069075584 0.23833914 -0.20056081 -0.24079457 0.041327473 0.056288503 -0.003592419 -0.11497569
-0.072393514 -0.13833492 -0.041854903 0.17598502 0.22426154 0.07065075 0.18648902 0.14354944
-0.072091766 -0.09574607 0.09743603 0.1108692 0.39079186 0.2708622 0.48129302 0.2760372
0.055161476 0.35273346 0.001355539 0.40091115 0.055590313 0.34441373 0.2463658 0.121224836
0.20618533 0.20477398 0.047537126 0.43402043 0.21486247 0.40366474 0.032700416 0.33989176
0.4149973 0.0354511 0.09467012 0.32811624 0.1773807 0.049807474 0.2408974 0.3568208
0.11440838 0.16739866 0.39312613 0.2629882 0.2823251 0.35148612 0.078354515 0.18408766
0.14057896 0.18495706 0.02070596 0.16582727 0.1679671 0.2524989 0.27888164 0.1036627
0.03985489 -0.011665668 0.15448423 0.20571095 0.10200867 0.22795193 0.14583482 0.18758532
-0.028809141 -0.081001356 0.037409853 0.23653471 0.22212 0.30508935 0.2416842 0.10683007
0.044292744 0.029496051 0.018183531 -0.026708513 0.14321776 0.0029725363 -0.097866066 0.28767917
0.28840527 0.16928156 0.3002094 0.3406835 0.35704938 0.26148173 0.016080841 -0.002644944
0.4444064 0.07007646 0.10709786 0.19888112 0.31399274 0.14788586 0.012648189 0.33501038
-0.021094002 0.083858505 0.13533798 0.1063248 -0.026098438 0.02481523 0.0042753317 -0.057089586
0.15913591 -0.0032221836 0.14328045 0.1964117 0.23068494 0.06784384 0.18066703 -0.14566629
0.13638538 0.068250366 0.15923603 -0.011090391 0.08329463 0.002081629 -0.092954926 0.12003072
0.07691639 0.09807418 0.23873359 0.18790191 -0.06858931 0.0015646634 0.0038635149 -0.06979488
-0.073735215 0.2200069 -0.083309144 0.05562555 0.0108343195 0.19867344 0.100081444 -0.10076713
-0.07617554 -0.015729025 0.24488993 0.07384675 0.16529079 -0.10958613 0.15071255 0.0708947
0.23024961 0.10377009 0.24269442 0.08628719 -0.0709598 0.16995436 0.19674118 0.09262682
0.20046242 0.16483222 0.25629142 -0.047207884 -0.09996201 -0.16863695 0.13281721 0.10315787

lstm.weight_hh_l0 f4 [96, 24]
00000000: f110 3c3d a688 79bf fa88 e3bd adc5 92be
00000010: c218 5a3d 1032 643e f7bd 323f ddbe bebd
00000020: 02a4 493f 50e3 943f d4a3 043e b4e4 d6ba
00000030: 7ba2 5bbf 307a 033f 3ee2 d0be ffcb 873e
00000040: 5e86 903d 665a 7ebf b867 ab3e faf2 f9bd
00000050: efd2 74bf 671f f13f dca9 1d3f ded8 0a3f
00000060: 2cc1 28bf 7a09 14be 6c45 f53e ce0e cebe
00000070: 1a0a fb3d 014f 59be 4ab5 063d 536f f9bd
00000080: b7be e13e deb3 b43d f6c0 cfbe 0c7a 1ebf
00000090: 882f e6bc 55f8 74be 0b5c c13d f87d 9cbe
000000a0: a1a8 0cbe 9ec5 bdbe 750f f43e 809e 44be
000000b0: 8a64 ec3c f620 2ebd 77fa b3be 5226 db3d
000000c0: 49a5 85bd 9b62 933c 4b99 0c3c 7122 153e
000000d0: 9b2e 453b 252d 65bb 7804 9c3e cce4 1cbd
000000e0: 48f8 6ebe 033e c03c 595e 1d3d 190c 053e
000000f0: 01ae 2c3d f1b3 adbd 8c1f fc3d 1b7d 913d
00000100: f61c 403e 25c7 373e 3c2a fdbc b34f cdbc
00000110: 189d 3b3d 7354 eabd 2ccf 00be 1fab ef3d
00000120: 7e27 92bd 8634 5ebd 50b0 2c3e 7f4d 1ebe
00000130: 1a0e 2f3e e572 b6be 9853 3b3e 0cb1 52be
00000140: 30de 2e3e 5c09 a23e c1c4 3b3e 8526 3ebe
00000150: 4216 453b d66f 79be 3546 473e 0ab9 3abc
00000160: e7fb b5be bd51 8fbe 4e3e 9e3e 071e c4bc
00000170: 90ec eebd cc28 5bbe 3535 13ba de56 67be
00000180: 3e2f 9bbe d5e5 1b3e a394 8e3e 1795 08bb
00000190: d2db f03d 3c7f 48be d265 5f3e 9e87 86be
000001a0: 3c91 75bd be52 263e 7765 a1be f6c0 03bd
000001b0: f2d3 acbd 79d3 613e 263a 2e3e 0206 b83d
000001c0: 642c aabb 8a93 a9be f319 40bc 1870 95bc
000001d0: 13ed b43e e0c3 a1bc 7697 083d 4d41 453c
000001e0: 226b 3abd deeb f13d 922d bc3e 60e5 84be
000001f0: a351 913d 3d0e a43d 0f64 a13d 5b54 f7bd
00000200: 587a 8cbe f49c 213e 5d91 fabd 8f71 59be
00000210: e5e2 273e 829c ac3d 155f 233e 4cc0 7dbc
00000220: 8bcb 86bc b070 34be 9273 133e d2c0 483e
00000230: 17cf 483e 3893 d23d b2a7 85bd 3077 b9bc
00000240: ff6e 0a3f 23c4 60bf 4518 05be 47f3 0cbf
00000250: ba32 013e 511d 9b3e 680e 10be 8f51 ef3e
00000260: c157 0f3d 190b 013f 1991 ec3e a8ce 723e
00000270: 5f4d 42be 42b2 b7bf b071 96bc 6dfe 1f3e
00000280: 55ca 92bf 51ef 10bf 8357 903e 4eb1 f0be
00000290: ec87 47bf da41 233f 4990 733e 4944 ba3e
000002a0: dbee e53e 4913 81bf 7cb7 9b3d 209b e23d
000002b0: 3d6a cbbd 41f4 db3e a6bc debc df05 60bf
000002c0: 4a92 733f abab 323f 3e18 4ebf aa7c c33c
000002d0: ea31 393f 1d26 22bf e7ae a33f 6aa8 5b3f
000002e0: add1 8d3f 3e8c 063e e02f 07bf 22b3 3f3f
000002f0: 13b4 a43e 1190 463f a89a 113f fffd 0ebe
00000300: 3e4f 3d3d 02d9 cabc d062 373f 530c 35bf
00000310: c326 20bf 0123 83bf 6ca8 2bbf 9aab 0fc0
00000320: 86ce adbb 970f 1ebe 55df 3ebe 769d a33e
00000330: d712 3bbe 02d2 8b3e f8ea 41bf dfb1 dfbf
00000340: 4c30 1cbd bdc2 c7be 8e81 18be e9a8 53be
00000350: 38e9 a03f f5b3 97bf c240 853f 21cf 323f
00000360: 584f 113e 3902 4e3f ee77 babf 6789 4abe
00000370: bbe4 0e3d bbf3 1cbd b1fc 923d b553 41bf
00000380: 5cfa 08bf 4406 b6bf c33b f2be 8e61 eabf
00000390: 2f30 38bf 29d5 f5be e81e 82bf efd3 d43d
000003a0: 38db 8dbf a0ad 90bf 019c adbd a407 26bf
000003b0: 01ee 70bf f1fc 0240 1590 453f 46bc 813f
000003c0: 1c15 a23d 6895 96be a17c bfbd abb4 84bc
000003d0: b97f 5e3f ed73 c1bd 5602 f4bf 8075 af3f
000003e0: 51ae 063f c569 3ebf 8dd1 cabd 0be7 6e3f
000003f0: b7a4 123e aba4 5dbf cda7 03bf dd81 1ebc
0.045914594 -0.97474134 -0.111101106 -0.2866644 0.053246267 0.22284722 0.69821113 -0.09313748
0.7876588 1.163187 0.1295312 -0.0016395063 -0.857948 0.5135832 -0.4079761 0.26522824
0.070568785 -0.9935669 0.3347757 -0.12204547 -0.9563436 1.8837708 0.6158731 0.54237163
-0.65919757 -0.1445674 0.47904527 -0.4024567 0.12257786 -0.21221544 0.032887734 -0.121794365
0.44090816 0.088233694 -0.40576905 -0.6190498 -0.028098837 -0.23922856 0.09441384 -0.30564857
-0.13736202 -0.37064832 0.47668043 -0.19201088 0.028856535 -0.042511903 -0.35152027 0.107006684
-0.06525666 0.017991355 0.00858147 0.1456392 0.0030087593 -0.0034969535 0.3047216 -0.038304135
-0.233369 0.02346707 0.038420055 0.12992896 0.04215813 -0.08481587 0.123107046 0.0710394
0.18761048 0.17947061 -0.030903928 -0.025062418 0.045804113 -0.11441889 -0.1257903 0.11702561
-0.07136439 -0.05424931 0.16864133 -0.1545925 0.17095223 -0.35634533 0.18293607 -0.2057535
0.17076945 0.31647766 0.18336774 -0.18569382 0.003007308 -0.24359068 0.19460376 -0.011396656
-0.3554375 -0.2799205 0.3090691 -0.0239401 -0.116662145 -0.21402282 -0.00056155334 -0.22591731
-0.3030948 0.15224393 0.27847776 -0.0020840818 0.117606774 -0.19579786 0.21816185 -0.26275343
-0.05995296 0.16242501 -0.31522724 -0.032166444 -0.08438863 0.22053327 0.1701437 0.08985521
-0.00519328 -0.33120376 -0.011724937 -0.018241927 0.35337123 -0.01974672 0.03334757 0.012039495
-0.045512326 0.11812566 0.36753517 -0.2595625 0.07095649 0.08010528 0.07880413 -0.120766364
-0.2743709 0.15782529 -0.12234757 -0.21234725 0.16395147 0.08428289 0.1595424 -0.015487742
-0.016454479 -0.17621112 0.14399555 0.19604805 0.19610249 0.10281986 -0.06526126 -0.02263984
0.54075617 -0.8779928 -0.1299754 -0.5505871 0.12617007 0.30295804 -0.14067996 0.46741912
0.034995798 0.5040756 0.4620445 0.23711646 -0.18974827 -1.4351275 -0.018364757 0.156244
-1.1467997 -0.5661517 0.28191766 -0.47010273 -0.77941775 0.63772357 0.23785509 0.36380222
0.44908795 -1.008401 0.07603356 0.11064744 -0.09932373 0.42959788 -0.027189564 -0.8750896
0.95145094 0.69793195 -0.8050574 0.023863155 0.7234179 -0.63339406 1.2787751 0.85803854
1.1079613 0.13139436 -0.52807426 0.7488271 0.32168636 0.7756358 0.5687661 -0.1396408
0.04621815 -0.02476168 0.7163515 -0.7072193 -0.62559146 -1.0245057 -0.67053866 -2.2448487
-0.0053041605 -0.15435635 -0.18639882 0.3195607 -0.18268906 0.2730866 -0.7574916 -1.7476157
-0.038131997 -0.3901576 -0.14893171 -0.20669903 1.2571173 -1.1851794 1.0410388 0.69847304
0.14190423 0.8047214 -1.456785 -0.19778977 0.034886103 -0.038318377 0.07177103 -0.7551835
-0.5350702 -1.4220662 -0.4731122 -1.8311021 -0.7194852 -0.4801419 -1.0165682 0.103919856
-1.1082525 -1.1302986 -0.08477021 -0.6485541 -0.94113165 2.0466883 0.77172977 1.0135581
0.079141825 -0.29410863 -0.09349943 -0.01619943 0.8691364 -0.09445939 -1.9063213 1.3707733
0.52609736 -0.7438014 -0.0990325 0.93321294 0.14320646 -0.8657939 -0.5142792 -0.0096745165

lstm.bias_ih_l0 f4 [96]
00000000: 5162 36bc 458a 723e 34b0 4e3e 5016 1b3f
00000010: 3301 123d f757 04be d191 71bf 5b21 69bf
00000020: bca2 41be a203 923e e447 f13d 8136 6b3e
00000030: 4140 bf3e e840 aa3e b25f 073e ebf3 ab3b
00000040: a8bc 403f 61e0 323f 65b3 9b3e e93e 96be
00000050: 40fd 083f baba 60bf ed46 db3e ef18 18bf
00000060: 5b9b 5bbe a22a 273e 17aa 993e eab9 0a3f
00000070: 4e7c 9a3e 44f3 913e d831 323f b10f df3e
00000080: e06a 0b3e 23f0 72be 5e40 36bf 2b30 0b3f
00000090: 5861 64be cfe6 27bf 8d7a c23e b42d 32b8
000000a0: 4c3a 463f 7acc 243f 58d9 ab3e 375d 263f
000000b0: f2b2 d5be e92d 33be d145 073f 2c73 783e
000000c0: 6a36 503e 6c5a 0d3c 91cb 73be 3997 0ebf
000000d0: 825b 39bd 31a1 333e a45b 0b3c cc74 adbe
000000e0: ec77 023e 31d5 b43d 0df8 d73e 6dc1 24bf
000000f0: d075 923e 06c0 8fbe 58e4 6f3d 14f1 dfbc
00000100: ef00 52bf 7c80 46bf a4e7 eb3e d226 043d
00000110: 39bf 7abe 9960 f23e 051f 07bf 1cb7 08bf
00000120: 4e9f c83d 8713 11c0 7c24 f0be 4f3e aabe
00000130: 7dd4 7abf 7cb1 95bf 167e 343d de7f 61bf
00000140: e392 683f 52d8 483f 0891 1a3f 6c11 6d3d
00000150: 244d 55bf 2b90 0ebf 8f0c d73e d96b 2dbf
00000160: 8f1c c0be a002 1bbf 4be9 8abf 5699 2a3f
00000170: 3c2d 66bc 8531 27bf 76f9 cbbf 16e5 013f
-0.011131839 0.23685558 0.20184404 0.6058092 0.035645675 -0.12924181 -0.94363123 -0.9106652
-0.18909734 0.28518397 0.1178129 0.2297001 0.3735371 0.33252645 0.13220099 0.005247583
0.75287867 0.69873625 0.30410305 -0.29344872 0.5351143 -0.8778492 0.4282755 -0.59413046
-0.21445982 0.16324857 0.3001258 0.5418993 0.30172962 0.2850591 0.69607306 0.4356666
0.13614988 -0.23724417 -0.71191967 0.54370373 -0.22302759 -0.6558656 0.37984124 -4.248107e-05
0.77432704 0.64374506 0.33564258 0.64985985 -0.41738087 -0.17497982 0.52840906 0.24262685
0.20333257 0.008627515 -0.23808123 -0.556995 -0.045253284 0.17541958 0.008505736 -0.3387817
0.12741059 0.088297255 0.42181435 -0.64357644 0.2860551 -0.2807619 0.058567375 -0.027336635
-0.82032675 -0.775398 0.46075165 0.032263584 -0.24487008 0.47339323 -0.5278171 -0.534044
0.0979601 -2.2668169 -0.46902835 -0.33250663 -0.9798048 -1.1694789 0.044065557 -0.88085735
0.9084913 0.7845508 0.6037755 0.057877943 -0.8332083 -0.5568873 0.4200177 -0.6774269
-0.37521788 -0.6055088 -1.0852445 0.6664022 -0.014048871 -0.65309936 -1.5935504 0.5074018

lstm.bias_hh_l0 f4 [96]
00000000: 13b7 5fbe 300a b33e 6c46 f43c d646 df3e
00000010: 0959 32bd 1d29 07bd 4ac9 16bf 9576 87bf
00000020: 61f4 95be f318 993e 623d 9a3e 928e 823e
00000030: 1465 543e 2131 983e bfeb e1bb d4e7 3cbd
00000040: 05be 103f 34ae 013f 7092 373e 2e75 afbe
00000050: 2e84 b03e 709c 33bf 2d1a 8d3e e608 47bf
00000060: 1f27 e4be 31bb dc3d 7ac5 9c3e 0124 cf3e
00000070: 6879 6f3e 558b a63e 5f84 cb3e b0de 073f
00000080: 335a 6b3d 312e 96be fe87 3bbf 23ef e13e
00000090: 0413 51be e7ea 07bf 268d 843e 4fec 61bd
000000a0: 247b 133f 813a f73e 8624 d33e 3560 b03e
000000b0: 9a74 26bf c968 0bbd 9054 013f 2f97 623c
000000c0: 95aa bc3d 4b85 ed3d 2063 2dbd b56e d6be
000000d0: 6258 833d dfa9 c03d a9c5 2dbe a487 80be
000000e0: 7fc0 c33e 7b84 34bd 356a 2e3f 976b cabe
000000f0: 4bd4 1a3e 6cab 8abe 6513 7a3d afda 0fbc
00000100: 1e9e 55bf 66e9 fbbe 125c 3e3e aef5 223e
00000110: ca29 c4be 124f fe3d ab3b bebe 7735 d4be
00000120: 583d 643e 34d2 0fc0 7f04 51bf 41af b0be
00000130: 481f 88bf c87d a5bf dd5b 7d3d 9799 6cbf
00000140: 2c86 2d3f 470c 693f c450 5b3f af29 eabc
00000150: f975 63bf b789 eebe 3100 853e a1af 43bf
00000160: 325f 95be efcf 7fbe 5d88 92bf 4c61 f73e
00000170: bb22 a83a 794a 03bf dd1f aebf b0ee fb3e
-0.21847181 0.3496871 0.029818736 0.4360873 -0.04354194 -0.032998193 -0.5890089 -1.0583063
-0.2928801 0.29901847 0.30124956 0.25499398 0.20741683 0.29724982 -0.006894558 -0.046119526
0.56539947 0.5065644 0.17926955 -0.34269089 0.34475845 -0.7016058 0.27559033 -0.7774795
-0.44561097 0.107778914 0.30619413 0.40457156 0.23386157 0.32528177 0.3974943 0.5307417
0.057459068 -0.29332116 -0.7325438 0.4412776 -0.2041741 -0.5309281 0.25888938 -0.055157002
0.5760977 0.48286822 0.41238803 0.344484 -0.6502167 -0.034035478 0.5051966 0.01382999
0.092122234 0.11597689 -0.04233086 -0.41881338 0.06413342 0.094074 -0.16969933 -0.25103486
0.382328 -0.044071656 0.6813081 -0.3953521 0.15120046 -0.2708391 0.061053652 -0.008780166
-0.8344439 -0.49201506 0.1858981 0.15914032 -0.38313133 0.12417425 -0.37154898 -0.4144704
0.22289026 -2.2472048 -0.81647485 -0.34508708 -1.0634546 -1.292901 0.061855186 -0.9242186
0.67782855 0.9103436 0.85670114 -0.02858433 -0.88851887 -0.46589443 0.2597671 -0.76439863
-0.2917419 -0.24981664 -1.1447865 0.4831642 0.0012827733 -0.5128551 -1.3603474 0.49205542

linear.weight f4 [98, 24]
00000000: 6edc ec3f d66e e4bf f805 4dc0 d9b1 b1bf
00000010: 490e 04c0 23c4 7dc0 866f 423f 7a38 5f40
00000020: d352 db3f 6edc cabf abbf 9a3f 27f8 d93e
00000030: 7056 923e e7fe e8c0 fab2 643f 9d7c 923d
00000040: 68e9 f7c0 df72 b5c0 29e5 2dc0 e138 c83e
00000050: c830 2fc0 f2cd 0640 f7f4 e5bc 7fcc ccbd
00000060: 22f7 e840 8eb9 63c1 119c 083f 61c5 3d41
00000070: 79cf 0ac0 cee9 b340 ff52 7cc0 8239 cd40
00000080: 830f 3340 e3d2 a1bf 9f69 d940 8ee3 a83f
00000090: 5c7f 683f d7dc d240 3e7e babf b133 5840
000000a0: d751 bb40 283a 9d40 e707 9bc0 6b21 8c3e
000000b0: defc ebbf 7c7d e440 b697 d140 696f eb3e
000000c0: d2db dd40 8a77 78c1 636f acbe 05af 6141
000000d0: 3ba5 22c0 9d4d 0c41 e54c 14c0 ca12 c240
000000e0: d9f1 3240 b57d 65bf 849f b940 6439 db3f
000000f0: 69bd 193f 161a d640 c70d a3be dfc7 6d40
00000100: f0d6 8240 72f8 6b40 bb76 e6c0 6793 05be
00000110: 2d79 07c0 1557 f440 43fa cf40 836f d5be
00000120: 0119 d03f 1dac 07c1 607f 34c0 c6d4 6140
00000130: 0828 d0bf 5465 3e41 a8d3 89bf fee1 bc40
00000140: aecd 1f40 cd28 883f 9130 3540 98b2 e23e
00000150: 232a d33d 6457 bf40 5fbc 84bf b35f 833e
00000160: 1487 b540 ef2d 1340 e9a3 4bc0 b079 69bf
00000170: 94f9 1ec0 0730 eb40 a9c9 e33f f90e 4fbf
00000180: 0eff 0a41 1bfc 05c1 fc33 78c0 2320 2c40
00000190: f280 8cc0 dfc6 3440 6e7e b0be 17d0 b140
000001a0: 6140 443f 1802 693e 97c6 8140 5b3d 643f
000001b0: 4652 533f 3b2f aa40 6e79 b43f 296a ab40
000001c0: baa9 b53f 6635 a240 77d0 05c1 6879 9e3f
000001d0: 0b21 4a3f a6bf ed3f 4211 1841 5da1 aebf
000001e0: 2bd3 1a40 b27d 19c1 fc2f fcbf 3634 9d3e
000001f0: e320 f4bf 2b66 0841 ad8b 3ac0 ea76 ca40
00000200: 883c 1b3f 63ff fb3f c0df 0a3f 3a9c cd3d
00000210: 7e34 1141 5b8f 0741 4142 853f be1b 5a40
00000220: cdb7 e940 3888 6540 6f11 2fc0 f53f 93bf
00000230: 348a 33bf ff8e 1641 1762 fc40 9c50 ddbf
00000240: 1994 c640 e2d1 5ac0 e785 21bf d557 9e3e
00000250: 2aa3 0ac0 4c1b fd40 54e2 d5bf 4891 b040
00000260: 99bb bd3f 5a9e 2d40 808d 7ebf c297 803c
00000270: 33fc 1e40 77d2 f140 6211 80be 1c71 ee40
00000280: 74ca 6240 794b 2340 6d95 64c0 ec1c adbf
00000290: 36ef af3e 9075 7440 11cb d540 ac35 96bf
000002a0: 4845 4e3f 4c25 bfc0 b6a4 2fc0 601b 6940
000002b0: 1947 efbf d858 3d41 9e3f 06c0 2419 7d40
000002c0: 7513 673f f07b 913d 37f2 be3f 8184 a0bf
000002d0: 2921 853f ad31 0a41 1d38 5abf c679 c53f
000002e0: 5fad f840 8f96 be40 d701 89c0 833a 6abf
000002f0: 2632 b7c0 55a3 1841 49f8 0040 952e 13c0
00000300: 829b 7b3d 2add 22c0 c5b1 c3bf b379 dbbe
00000310: fb49 65bf 58a4 5a3f 69b7 823f 008c 913f
00000320: 9419 8fbe 3ef5 1240 e4c4 8dbe 7d29 b9bd
00000330: 73cb 2040 cf0a f540 57e9 c8bf d654 0d40
00000340: b83b 7b40 a896 8640 f333 81c0 a730 b0be
00000350: 6672 0d3d 2804 f33f 4483 833f bf0a 59bf
00000360: ad84 b240 de90 c9bf 0c6c 08c0 4298 1140
00000370: db0b 8bbf ee0a 323e f6d7 adbf 20a1 98bf
00000380: 80ec 113e 7a07 f23e 86c3 bcbc dca4 59bf
00000390: 257e 8640 238a ea40 db45 fdbe 3df2 8cbe
000003a0: c400 b340 09a9 3c41 bd71 9ac0 6998 aa3e
000003b0: ffb5 fcbd f060 ee40 f630 db40 5a54 92be
000003c0: bce8 233f 85ad bfbf d5b3 e3be b7ed 1540
000003d0: 7788 1bc0 bc72 2740 546d 783f 1a65 0741
000003e0: d806 393f f0fb 00bf 173e 3d3d ac3f 50bf
000003f0: 37a5 88bc 3a72 cf40 858e 29bf 1b10 643f
1.850477 -1.7846324 -3.2034893 -1.38824 -2.063372 -3.9650962 0.7595142 3.487822
1.7134651 -1.584852 1.2089742 0.42572138 0.28581572 -7.281116 0.89335597 0.07152674
-7.747242 -5.6702724 -2.7171118 0.39105895 -2.7373524 2.10632 -0.02807091 -0.09999942
7.2801676 -14.232801 0.5336314 11.860688 -2.1689131 5.6222906 -3.9425657 6.41327
2.7978218 -1.2642483 6.794143 1.3194444 0.90819335 6.589458 -1.4569776 3.378155
5.85374 4.913349 -4.8447146 0.27369246 -1.8436544 7.140318 6.5497694 0.45983437
6.9330835 -15.529184 -0.3367873 14.105229 -2.5413349 8.768949 -2.3171933 6.0647936
2.7960112 -0.8964494 5.800722 1.7126889 0.6005464 6.6906843 -0.3184645 3.7153242
4.0887375 3.687039 -7.2019935 -0.13044511 -2.116771 7.63563 6.4992995 -0.4168664
1.625763 -8.47952 -2.8202744 3.5286117 -1.6262217 11.899738 -1.0767717 5.902587
2.4969287 1.0637451 2.8310893 0.4427688 0.10310771 5.979418 -1.0369986 0.2565895
5.672739 2.2996786 -3.1818793 -0.91201305 -2.483983 7.3496127 1.7795917 -0.8088222
8.687269 -8.374049 -3.8781729 2.6894615 -4.3907404 2.8246381 -0.34471458 5.5566516
0.76660734 0.22754705 4.055492 0.8915612 0.82547414 5.3182654 1.4099557 5.356709
1.4192421 5.0690184 -8.363395 1.23808 0.7895667 1.8574111 9.504213 -1.3642994
2.4191387 -9.593187 -1.9702144 0.30703896 -1.9072536 8.524943 -2.9147751 6.327016
0.6063924 1.9687313 0.54247665 0.100395635 9.075315 8.472499 1.0410844 3.4079432
7.3036866 3.5864391 -2.735439 -1.1503893 -0.70132756 9.409911 7.886974 -1.7290225
6.2055783 -3.4190602 -0.63094944 0.30926386 -2.1662087 7.909582 -1.6709695 5.5177345
1.4822875 2.71279 -0.9943466 0.015697364 2.484143 7.5569415 -0.25013262 7.4513073
3.5436068 2.5514815 -3.5716202 -1.3524451 0.3436219 3.8196754 6.6810384 -1.1735129
0.80574465 -5.973303 -2.7444282 3.6422958 -1.8693572 11.83419 -2.097633 3.9546595
0.90264064 0.07103717 1.4917668 -1.2540437 1.0400745 8.637128 -0.8524187 1.5427787
7.7711635 5.9558787 -4.2814746 -0.9149553 -5.7248716 9.539876 2.0151541 -2.2997181
0.0614276 -2.5447488 -1.5288626 -0.42866287 -0.8956601 0.8540702 1.0212222 1.137085
-0.27949202 2.2962184 -0.27689278 -0.090411164 2.5124176 7.6575694 -1.569621 2.208303
3.92552 4.2058907 -4.0375915 -0.3441212 0.034532927 1.8985643 1.0274434 -0.8478202
5.578696 -1.5747335 -2.1315947 2.274918 -1.0862993 0.17386982 -1.3581531 -1.1924171
0.14250374 0.4727133 -0.023042452 -0.8501718 4.2028985 7.3293624 -0.49467358 -0.27528563
5.5938435 11.791268 -4.826384 0.33319405 -0.123394005 7.449333 6.8497267 -0.2857998
0.64027 -1.4974829 -0.44473138 2.342634 -2.4302042 2.6163778 0.9704182 8.462183
0.7227607 -0.50384426 0.04620179 -0.81347156 -0.016680343 6.4826937 -0.6623309 0.89087075

linear.bias f4 [98]
00000000: a7b6 19c0 603e 2fbf 9793 9fbf 34e3 f6bf
00000010: 4c4f 54be 9633 bcbf f173 31bf e4f0 7cbf
00000020: 98fc 22bf 00bc bfbe f281 48bf 926d 2dbf
00000030: ecbb 073e 56b9 723e a817 13bf fad5 debe
00000040: 7eeb cfbe a7a5 5ebf 65c2 3bbf 3b71 8dbf
00000050: 6635 4dbc 493b aabf 11f1 8dbf 581b 13c0
00000060: d929 bdbf 4b36 02c0 81f1 01c0 202a d9bf
00000070: 083a 6bbf 28fa a0bf 0a3a aebf 1488 063f
00000080: fdab 04bf 1b95 1dbf b213 44bf b002 adbf
00000090: f887 55bf b372 90bf 81e1 ddbf 271b 64bf
000000a0: 058d 03bf 16f6 2ebf c3c4 20bf ce04 43bf
000000b0: 9d2f 1fbe 31b4 5cbf a571 34bf 767e 84bf
000000c0: 9cea 20c1 6865 45bf 516e bcbf 3312 5dbf
000000d0: dcc8 acbf 29dd 1c3d bd9e a7bf 995a 2cbf
000000e0: 014f 1cbf aace 90bf 052c e83c 36e0 d3be
000000f0: 1558 42bf 8949 33bf 62dd 95bf 3a1e a0bf
00000100: 6f82 bfbf 84aa c1bf e76f 10bf 2a00 abbf
00000110: 94b2 c7be e42a bcbf 34e4 febf a91d a8bf
00000120: 5d93 15c0 f978 b1bf a9a8 88bf 3d13 babf
00000130: 6347 e7bf 4f21 72bf c3b6 abbf e365 cabf
00000140: c904 8bbf 3f28 c2bf 6ecc c4bf deb7 87bf
00000150: 7a76 21bf 2542 46bf c3f3 70be 048f b83b
00000160: 76c2 fbbe 0c0e 3dbf e60c 8abf 63b8 69bf
00000170: 2abc c5bf 433b 14bf 33be ebbf f00c 8bbf
00000180: d7a5 01c0 555a f8bf
-2.4017732 -0.6845455 -1.2466916 -1.9288087 -0.20733374 -1.4703243 -0.6931754 -0.9880507
-0.6366668 -0.3744812 -0.7832328 -0.67745316 0.1325528 0.23703513 -0.5745797 -0.43522626
-0.40609354 -0.86971515 -0.733435 -1.105018 -0.012524938 -1.3299342 -1.1089193 -2.298544
-1.4778396 -2.0345638 -2.0303652 -1.696598 -0.91885424 -1.2576342 -1.3611462 0.5255139
-0.51824933 -0.6155564 -0.7659255 -1.3516445 -0.83410597 -1.1285003 -1.7334443 -0.8910393
-0.51387054 -0.6834425 -0.62800235 -0.76179206 -0.15545507 -0.8621245 -0.7048591 -1.0351093
-10.057278 -0.7710786 -1.4721166 -0.86355895 -1.3498797 0.038296852 -1.3095318 -0.6732574
-0.6105805 -1.1313069 0.028341303 -0.41381997 -0.7591565 -0.7003408 -1.1708186 -1.2509224
-1.496168 -1.5130162 -0.5642075 -1.3359425 -0.39003432 -1.4700589 -1.9913392 -1.3134052
-2.3371193 -1.3865043 -1.0676471 -1.4537121 -1.806866 -0.94582075 -1.341515 -1.5812343
-1.0860835 -1.5168532 -1.5374887 -1.0602987 -0.63071406 -0.7744468 -0.23530488 0.005632283
-0.491718 -0.7384956 -1.0785186 -0.91296977 -1.5448048 -0.57902926 -1.8417419 -1.0863323
-2.025747 -1.9402567
