models/model168.pth (torch, 15799 bytes, 24 tensors)

lstm.weight_ih_l0 f4 [32, 4]
000000 a7 7f 9e be 4e bc 17 3e 8a 08 0e be ef f9 33 3d
       -0.30956766 0.14817926 -0.13870445 0.043939527
000010 89 6f 50 be b2 5d a1 3e 6a f2 40 bd e1 25 f0 3e
       -0.20355047 0.31516796 -0.047106184 0.469039
000020 c1 c1 18 be 95 11 44 3e d3 57 51 3d b0 72 a9 3d
       -0.14917661 0.19147332 0.051109146 0.08273828
000030 6c 4c a6 bd 47 13 54 3d c6 1c 16 be 78 36 cf bc
       -0.08120045 0.051776197 -0.14659414 -0.025294527
000040 33 18 2c 3e 80 f2 85 be cf 1f 2a 3e a8 6b 2b 3c
       0.16806106 -0.26161575 0.16613697 0.010462679
000050 ab fd 77 be 83 7a 89 be 9a b8 eb 3d c4 f5 c0 be
       -0.2421786 -0.26851282 0.11509819 -0.37687504
000060 de ef 29 be 13 ce 96 3e 75 f3 6b be ef 62 b2 3c
       -0.16595408 0.29454097 -0.2304209 0.02177569
000070 39 06 8d 3d 2e d8 f1 bc b6 d0 0c be 84 3a 7f bd
       0.068859525 -0.029522028 -0.13751492 -0.062311664
000080 98 34 16 3e b4 99 a3 3e 04 8d 96 3d 4c c7 38 be
       0.146685 0.31953204 0.07351115 -0.18044776
000090 6b 4f fc 3e 3d 5c 97 3e 0b c0 28 3e 36 89 f7 3e
       0.4927934 0.2956256 0.16479509 0.4834687
0000a0 4c 5f d8 be 6f 66 3d 3e ae bb 6e 3d e0 de 38 be
       -0.42260206 0.18496107 0.058284454 -0.1805377
0000b0 3a 96 ae be 8b dd 65 be 89 66 f7 3d 32 d9 0b 3e
       -0.3409899 -0.22447793 0.12080104 0.13657072
0000c0 ee e9 de bd 7c c2 46 3e f8 41 26 3e d9 60 a6 3e
       -0.10884462 0.19410127 0.16236103 0.32495764
0000d0 7e 5b 8e be f5 60 db 3c 02 a8 85 be 25 4f cc be
       -0.27804178 0.026779631 -0.26104742 -0.39904132
0000e0 fa 78 a0 3e 1d b2 ee bd 46 cd 9f 3e d3 ee cc 3c
       0.31342298 -0.11655066 0.312113 0.025016224
0000f0 c0 d6 a5 3c f4 e3 3d be a5 01 75 bd 6e fb 72 be
       0.020244002 -0.18543988 -0.05981602 -0.23728725
000100 b0 82 74 3d a5 34 c4 be ee 1e 23 be bd d6 a7 be
       0.059694946 -0.38321415 -0.15929767 -0.3278102
000110 29 64 25 bd 61 14 93 be a0 18 25 3e 9c 27 a4 be
       -0.040378723 -0.28726485 0.16122675 -0.3206147
000120 a3 94 b8 be 4c d2 dc 3d 34 70 15 3e 4b 89 27 3e
       -0.360509 0.107822984 0.14593583 0.16360967
000130 30 db dc 3e 01 10 00 be d7 d1 ae bd 57 8a 64 be
       0.43135977 -0.12506105 -0.085361175 -0.22318397
000140 98 2f 98 be 65 15 d5 3d e9 7b 0a 3d 76 21 6a 3e
       -0.2972381 0.10404471 0.033809576 0.22864327
000150 ce 9f a0 3c 06 15 7d be 45 3b 9b be 82 0a c3 bd
       0.01960745 -0.24715051 -0.30318657 -0.095234886
000160 c4 9c 06 3f 44 39 09 3e c8 d4 7f bd 00 28 89 3e
       0.52582955 0.13400751 -0.062458783 0.2678833
000170 db a7 cb 3d c2 f8 15 3d 31 08 38 3e bb eb 8a 3e
       0.09944125 0.036614187 0.17971875 0.27132973
000180 fa b2 01 be 13 7b 72 3d f8 dd 9c be 16 67 35 3e
       -0.1266593 0.059199404 -0.306381 0.17715105
000190 c1 7c c2 3c a0 d6 b4 bd 70 74 9d 3d 1f 85 af 3e
       0.023741128 -0.08829999 0.07688224 0.3428125
0001a0 17 55 16 bf 03 4d 14 be 82 7e 47 bd f2 d8 c0 bd
       -0.58723587 -0.14482503 -0.04870463 -0.09416379
0001b0 c6 99 38 be 2e 2f 1d 3d 47 43 77 bd 4f 16 4c bd
       -0.1802741 0.038375072 -0.060366895 -0.049825963
0001c0 62 b6 68 be ac a0 72 be 20 42 12 3e 7d 46 b8 3e
       -0.22725824 -0.23694104 0.14283037 0.35991278
0001d0 4a 72 93 be 3c fb a6 be c1 00 89 be 37 27 8e be
       -0.28798133 -0.32613552 -0.26758388 -0.27764294
0001e0 96 f5 0d 3d 0d 35 02 3d 34 3c fc bd 31 b9 5e 3e
       0.034658037 0.031788874 -0.1231617 0.21750332
0001f0 92 c7 ba 3d d9 0f 81 be 55 cb 7b 3d 5c 0d 82 bd
       0.09120096 -0.25207403 0.06147321 -0.06350204

lstm.weight_hh_l0 f4 [32, 8]
000000 9a 53 33 3e 4a 11 f3 be 20 74 03 3f db 7b 88 3b
       0.1751236 -0.47474128 0.5134907 0.0041651553
000010 d2 43 ec 3e fa 39 42 3e a8 10 27 3e 54 6a 71 be
       0.46145493 0.18967429 0.16314948 -0.23575717
000020 32 b7 d0 bd f5 c0 89 3d 7f 01 c7 3d d1 09 50 3e
       -0.10191192 0.06726257 0.09717082 0.20316245
000030 e3 49 eb bd 53 61 d4 3e b3 a6 da 3d 17 6a bf bd
       -0.11488702 0.41480502 0.106763266 -0.09346407
000040 ec 37 84 3d 27 66 82 be 9a 78 14 3d dc 74 c4 bd
       0.06455979 -0.2546856 0.036247827 -0.09592602
000050 0f a7 07 be 0e 96 36 be c9 2b 50 be 0e 9c 8c be
       -0.13247322 -0.17830679 -0.20329203 -0.2746281
000060 49 22 44 be b8 54 04 be 70 90 c6 3e 3f 68 ac be
       -0.19153704 -0.12922943 0.38782072 -0.33673283
000070 2a 19 02 3f 86 fb de 3e d5 c6 75 be ed ab ad be
       0.5081965 0.43551272 -0.2400163 -0.3392023
000080 53 1d a8 3d db 97 db be 92 71 97 3c 4a 63 91 be
       0.08208718 -0.42889294 0.018486772 -0.28396064
000090 21 19 6b 3d 54 02 ac 3d 02 a6 b1 be dd b3 03 be
       0.05739701 0.083988816 -0.34696966 -0.12861581
0000a0 02 e6 1f be 6d 4e 8a 3e 70 9d 8e be 41 2f 85 bd
       -0.15615085 0.2701296 -0.2785449 -0.065031536
0000b0 c3 3f a0 3e f2 8e 29 bc 5e fc 05 3c cd 9b 86 be
       0.31298646 -0.010349022 0.008177845 -0.26290742
0000c0 9f 08 e8 3c 3b 22 d5 bd e1 c8 21 3f 27 8a 78 3d
       0.028324423 -0.104069196 0.6319714 0.060678627
0000d0 7e f8 fc 3e bb ed 08 3e 28 ef a9 3e e1 61 73 3d
       0.49408334 0.13371937 0.33190274 0.059419516
0000e0 cc a5 5a be b8 8b 2b 3e b1 b4 1e 3e d1 71 9a 3e
       -0.21352309 0.16752517 0.15498616 0.3016496
0000f0 2e 6f 92 3d 94 53 a5 bd 89 81 5c 3e da 41 82 3d
       0.07150112 -0.08072582 0.21533789 0.063602164
000100 5a e8 83 3e 0c da 98 bd 03 f8 23 3e a2 b7 95 be
       0.25763208 -0.07463464 0.16012578 -0.29241663
000110 89 87 df ba c1 24 88 3e 4e 0f c9 3d e9 11 8a be
       -0.0017053942 0.2659054 0.09817372 -0.2696679
000120 6a da bb bd 15 88 10 3e 88 45 8c 3d 0a ee 51 be
       -0.091725186 0.14114411 0.068491995 -0.20500961
000130 62 d1 9a 3e 3a 4c 26 bd d1 ec 3e 3e c3 8e 26 bc
       0.3023787 -0.04060004 0.18645026 -0.010165873
000140 6e 26 67 3c ca 54 2b 3e 0b a5 21 3e 54 6e 85 bd
       0.014108283 0.16731563 0.15785615 -0.06515184
000150 e7 70 2e 3e bb 5c 2e 3e 42 79 16 3e 7a c3 c4 be
       0.17035256 0.17027561 0.14694694 -0.38430387
000160 c3 40 92 be 07 77 9c be ca 19 50 3e d4 b0 a1 3d
       -0.28565034 -0.3055956 0.20322338 0.078950554
000170 2d 6d ef 3e c1 70 b7 3e ff 99 6a bd 48 d2 ae 3d
       0.46762982 0.35828212 -0.05727577 0.08536202
000180 03 77 5b 3d a4 2d b9 be e4 a8 ad 3d e3 36 81 be
       0.053580295 -0.36167634 0.08479479 -0.25237188
000190 dd cc 7d 3e a1 d8 10 3e 38 34 9f be f6 5b 3f be
       0.2478518 0.14145137 -0.31094527 -0.18687424
0001a0 16 00 fa 3d 6e e0 48 3e 2c f7 19 3e f5 4d 96 3c
       0.12207048 0.19616863 0.15035695 0.01834772
0001b0 2d 3f 9b 3e ce 00 23 be 11 a9 95 bd 60 21 8c be
       0.30321637 -0.15918276 -0.073076375 -0.27369213
0001c0 b9 8d 81 3e 76 e7 e8 be 90 34 0e 3e bd b3 5b 3e
       0.25303438 -0.4548909 0.13887239 0.21455283
0001d0 99 ad 2e bc 15 d5 c3 3e 0a 00 b9 3e e4 dd fa be
       -0.010661506 0.38248506 0.36132842 -0.48997414
0001e0 81 40 17 bd f5 ac 9c be b9 f6 c3 3d 7a 70 0c be
       -0.03692675 -0.30600706 0.09568543 -0.13714781
0001f0 21 06 94 3e 63 8d 78 3d 76 e4 b5 bd 70 57 d0 be
       0.28910926 0.060681712 -0.08881466 -0.4069171
000200 10 a2 d6 3c 42 b8 a3 3e bd 3c 24 3e 0d 13 5b 3e
       0.026200324 0.31976515 0.16038795 0.21393986
000210 dc f3 8b be fa 4d 48 3e 08 11 29 be bd 8e 44 be
       -0.27334487 0.19560996 -0.16510403 -0.19195075
000220 2d 07 1b be 55 f1 b3 3d 96 74 5e 3e da bc c3 3e
       -0.15139456 0.08786265 0.21724162 0.3823002
000230 74 17 cc be 83 b2 91 be f7 f0 b9 3d 5c d3 38 bb
       -0.39861643 -0.28456506 0.090791635 -0.0028202152
000240 77 eb 93 3e 5d 7f ae be f4 e3 b0 3e 24 b1 01 be
       0.28890583 -0.34081545 0.34548914 -0.1266523
000250 0e eb 7e be 3f 6b 12 3e 28 d6 02 3e 09 0c 8f bd
       -0.24894354 0.14298724 0.12777007 -0.069847174
000260 98 76 19 bd 7d e8 4f bd f2 a4 88 3a 4b fb 46 bd
       -0.037466615 -0.050758827 0.0010425134 -0.048579495
000270 59 b2 15 3e 98 55 ab 3d 4b 81 54 be a7 3a 9a 3c
       0.14618815 0.08365935 -0.20752446 0.018826796
000280 88 e0 e4 bd d3 7c 3b bc 01 4a 01 be ba 04 20 3e
       -0.111756384 -0.011443335 -0.12625886 0.15626803
000290 1e 9d dd bc 58 3a df 3e 5e cf 32 3e 21 ba cf be
       -0.027052458 0.435992 0.17461917 -0.40571693
0002a0 bb 3f 6e 3e eb 94 d7 3d 3d 42 4a 3d 35 bb 96 3c
       0.23266499 0.10526451 0.049379576 0.018399814
0002b0 63 4d bf bd b6 97 99 3e 06 bd 2b 3e 1b 39 2f bc
       -0.09340932 0.2999856 0.16771325 -0.010694767
0002c0 a0 29 19 3d 19 63 57 3e 4c 85 5d 3d a3 b7 9c be
       0.037393212 0.21033897 0.0540822 -0.30608854
0002d0 b4 72 14 be 95 f4 49 3e 7d 12 c2 bc ee f9 59 3e
       -0.14496881 0.19722207 -0.023690457 0.21286747
0002e0 3e 18 50 3e 35 77 77 3d 9e 13 11 3e 2b 02 b6 3e
       0.20321748 0.06041642 0.1416764 0.3554853
0002f0 74 9d 6b be 57 02 8c be ad ec 5a 3e 06 3d 8c bd
       -0.23009282 -0.27345535 0.21379347 -0.06847577
000300 43 b9 ab 3e 95 3d d8 be fe 84 b9 3d e0 4d 91 3c
       0.3353978 -0.42234483 0.09058569 0.017737329
000310 ab 9c fd 3e b6 4c 01 3f 17 f6 4e bc 9f 77 03 bf
       0.4953359 0.50507677 -0.012631915 -0.513544
000320 93 6b a9 bd e3 ef ae be 61 a2 62 3e 96 95 b6 bc
       -0.08272471 -0.34167394 0.22132255 -0.022288125
000330 65 22 07 3f e2 f8 85 3d 06 a6 13 bd 07 ee 80 bd
       0.52786857 0.06541611 -0.036047004 -0.062954
000340 41 0f 01 be 1d d4 ad be 05 d9 b1 3d b5 ad 00 be
       -0.12603475 -0.33950892 0.08683971 -0.12566264
000350 f6 9b 47 3d 21 de f0 3b ff 07 c2 be 8c 29 5c be
       0.04873272 0.0073506986 -0.37896726 -0.21500224
000360 2e e6 16 be 3d f7 f9 be 79 e3 d5 3e f5 2d 95 3c
       -0.14736244 -0.4882144 0.4177511 0.01821039
000370 c3 5d aa 3d 38 9b 06 3a b2 ee 73 be 00 db 30 bf
       0.08318665 0.0005134824 -0.23821524 -0.6908417
000380 0f aa 44 3e 8b 42 0a be 9d 5f bf 3e e6 61 59 3d
       0.19205497 -0.13501947 0.37377635 0.05307188
000390 84 c8 43 3e b0 e9 90 3e 4d 61 a0 3e 86 b9 d5 be
       0.1911946 0.2830329 0.31324235 -0.41743106
0003a0 17 82 f3 3d 8b 56 a7 3e 66 33 d0 3d a9 a9 52 3e
       0.11890047 0.32683215 0.101660535 0.20572533
0003b0 6d c3 3a bc 3f 15 ef 3e 92 a2 e3 bc 69 e0 02 bf
       -0.011399132 0.46695897 -0.02778748 -0.5112367
0003c0 f1 eb 0b 3e b9 89 2b bf 4a a3 08 3f a2 c0 a9 be
       0.13664223 -0.67007023 0.5337416 -0.3315478
0003d0 75 d3 d9 3e fb 7c 23 bd 5d 88 93 3e 4f 85 98 be
       0.4254414 -0.039914113 0.28814974 -0.29789206
0003e0 23 37 d9 3e 40 61 c6 be 42 98 9c 3e ef 08 fe bd
       0.42424878 -0.3874607 0.30584913 -0.12404048
0003f0 62 3d 9c 3e 9f 46 ee 3e 7e da f4 bc 9a 71 5d be
       0.3051558 0.46538255 -0.029889341 -0.21625367

lstm.bias_ih_l0 f4 [32]
000000 4e 59 d7 bd 89 d8 0c be 0f 64 a5 3d e8 c5 86 3e
       -0.105150804 -0.13754477 0.08075725 0.26322865
000010 fb c9 46 3e 8b 25 e4 3d e4 a5 70 bd 76 43 56 3d
       0.19412987 0.11139973 -0.058751956 0.05231043
000020 64 6b 0e 3d ba 56 22 3e 92 da 42 3d af bf 8d 3c
       0.034770384 0.15853396 0.047571726 0.017303316
000030 ae fa f1 3e ac db 8f 3e b3 b7 e3 3e cf e3 85 3d
       0.47261566 0.28097284 0.4447609 0.06537592
000040 db 88 52 be fa a9 2a be 50 43 ac 3e 85 06 23 bd
       -0.20560019 -0.16666403 0.33645105 -0.03980114
000050 3e e6 d7 3e 1a 6f 3a 3e a8 b4 00 3e e0 80 96 be
       0.42167848 0.18206444 0.12568915 -0.293952
000060 7c 22 e0 3e 47 d9 9e 3e 6d 81 18 be f9 ed d8 3e
       0.4377631 0.31025144 -0.14893122 0.4236906
000070 a5 6b 04 bd ae bb ac 3d 24 ee 61 3d 1d e5 a3 3e
       -0.03232922 0.084342346 0.05515875 0.32010737

lstm.bias_hh_l0 f4 [32]
000000 03 46 46 3b 95 97 03 bd cd 5c 20 be f6 3a 0c 3f
       0.0030254133 -0.03212698 -0.156604 0.5477747
000010 19 e6 c0 b9 bb 77 2f 3e 65 cf 5a 3d f6 f3 74 3e
       -0.0003679253 0.17135517 0.053420443 0.23921189
000020 68 60 d1 3d 72 78 11 be b6 0a b4 3c 14 31 13 3d
       0.10223466 -0.14206102 0.021977764 0.035935476
000030 e8 d3 d8 3e e3 61 c7 3c e6 7d b9 3e 6b 02 73 3e
       0.42349172 0.024338668 0.36228865 0.23731391
000040 af cc 0e 3e db be 82 bd 0f 7c c0 3e 3d cf 66 be
       0.13945268 -0.06384059 0.3759465 -0.22539993
000050 f0 c3 08 3e 44 5c aa 3d 43 d2 4d 3e d9 41 40 be
       0.13355994 0.083183795 0.2009974 -0.18775119
000060 2a 40 c1 3e cb 65 f6 3e bd da f4 3d ff 1c 9e 3d
       0.37744266 0.48124537 0.119557835 0.07720374
000070 e6 f2 d0 3e b5 9a 9a 3e cf 81 4f 3e 51 72 80 3e
       0.40810317 0.30196157 0.20264362 0.25087216

lstm.weight_ih_l1 f4 [32, 8]
000000 25 fb 66 bd 56 10 b1 be 22 e8 0c 3f f9 96 0f bf
       -0.056391854 -0.34582776 0.55041707 -0.5608974
000010 40 ee c5 bd 44 09 1d bd 4a 01 d9 3d 07 b9 8e bd
       -0.09664583 -0.038338915 0.10595949 -0.06968885
000020 c3 48 05 3f 5e d3 9e 3e b7 b6 20 3d 4b 7f c1 3e
       0.5206415 0.31020635 0.03923675 0.3779243
000030 89 e5 cf 3d 5a a8 64 3e 24 6c 05 bd f4 30 a0 3d
       0.10151202 0.22329846 -0.032573834 0.07821837
000040 ad b8 a7 3d e9 25 e2 be 16 9e 89 3e 5c 23 f1 be
       0.08189521 -0.44169548 0.26878422 -0.4709729
000050 a0 87 13 3b 51 3a a9 bd fa 71 89 3e 27 48 08 3d
       0.0022511259 -0.08263076 0.2684477 0.033271935
000060 af ff aa 3e 19 4a a5 bd 59 3f a1 3d de 52 0e 3d
       0.33398196 -0.08070774 0.07873411 0.034746997
000070 b4 28 6b 3c 69 15 08 be ea 8c 9b be e8 a0 6e 3d
       0.014352966 -0.13289417 -0.30380946 0.05825892
000080 97 1b 42 bd 09 e4 43 be 1f 1d 8c 3e ef 10 6a 3e
       -0.047389593 -0.19129957 0.27365968 0.22858022
000090 cb fb 14 3e bc 71 17 be 5a 45 4e bd 3d 36 80 be
       0.14549176 -0.1478948 -0.050359108 -0.2504138
0000a0 f1 aa 01 be 57 0d 49 be fc 2c b1 3e e4 5c 8e be
       -0.12662865 -0.19633995 0.34604633 -0.27805245
0000b0 f1 8e 93 3e 9b ca b5 3e 43 3c ae bd 4c c6 21 be
       0.28819993 0.35506138 -0.08507588 -0.157983
0000c0 dd 89 97 be 8d 58 7e 3d b1 e1 8b 3d 6b ec 35 be
       -0.2959737 0.062096167 0.068301566 -0.17765968
0000d0 32 f1 04 3e de 23 0c 3e 5e 35 63 3a 89 4b 61 be
       0.12982634 0.13685557 0.0008667315 -0.2200147
0000e0 b2 d3 25 be 32 fc 82 be bb 94 08 be bb 24 8c be
       -0.16194037 -0.25583035 -0.13337986 -0.27371773
0000f0 a4 ed c6 bd 18 ec bb 3e 79 57 a9 be 01 ea 2f 3e
       -0.09713295 0.36703563 -0.3307455 0.17179109
000100 7d 24 af be 32 95 3f 3d db e0 2f 3e 16 ae e4 bd
       -0.34207526 0.046773143 0.1717562 -0.11166017
000110 6e 91 e2 3d 0a d7 56 be 41 c6 46 3e 90 8f 28 be
       0.11062895 -0.20980468 0.19411565 -0.16461015
000120 34 92 11 3f 98 33 4e 3d ca 7d a3 be 4c 94 ed 3e
       0.56863713 0.050342172 -0.31931907 0.46402204
000130 bc ba d0 3b de af 49 3e f6 6f 94 3e 98 4a e2 be
       0.0063699167 0.19695994 0.2899167 -0.44197536
000140 94 e1 8d 3d 2c 91 ce bd a8 bb 02 3e 41 05 b2 bd
       0.06927791 -0.10086283 0.12766898 -0.08692408
000150 a3 86 9a 3e d4 05 42 bc 28 08 77 3e fe 50 08 3d
       0.30180845 -0.01184221 0.24124205 0.033280365
000160 00 e7 8c bd 95 46 a8 be d8 14 81 3e 01 61 89 3e
       -0.06879997 -0.3286635 0.25211215 0.2683182
000170 14 24 95 3e e7 e4 3b 3e 50 78 6e be c4 34 75 be
       0.29129088 0.18349038 -0.23288083 -0.2394591
000180 4c ce f4 3d 14 19 1b be 91 27 85 3d cc 5d 58 3e
       0.119534105 -0.15146285 0.06501687 0.2112953
000190 1a dd 65 3d 9a 65 ed bd 5a c7 a1 3e b3 31 d9 3d
       0.056119062 -0.115916446 0.31597406 0.106051825
0001a0 24 51 b6 39 54 22 03 be df df 89 3e 67 ae b6 3e
       0.000347742 -0.12806064 0.26928613 0.35679933
0001b0 ed 06 6c 3e cb 65 86 3e 13 06 7c 3e 97 94 c1 be
       0.23049517 0.26249537 0.24611692 -0.37808678
0001c0 e3 63 23 be a1 be 81 be 3a e5 be bd 33 5a ea be
       -0.15956073 -0.2534075 -0.09321065 -0.45771942
0001d0 73 01 a5 3e 01 1e 37 3d 08 22 d5 3d eb 47 7d be
       0.32227668 0.04470635 0.104068816 -0.24734466
0001e0 89 da ce bc 32 01 6f be 6c 41 92 3e 58 48 88 be
       -0.02525069 -0.233403 0.28565538 -0.26617694
0001f0 34 6c cd 3e 72 3d 64 3e b6 57 17 bd 77 03 0f 3e
       0.40121615 0.22289065 -0.036948882 0.13966165
000200 67 98 42 be 91 f4 c7 bd 92 58 61 3e 8f 7f da be
       -0.1900345 -0.09763444 0.22006443 -0.42675444
000210 7c 19 10 3e 06 f4 64 be c3 e4 5c be d2 3a 48 be
       0.14072222 -0.22358713 -0.2157164 -0.19553688
000220 04 6a 97 be 51 13 ec bd 5b fe 34 3e 69 4e 0d be
       -0.2957307 -0.11527122 0.17675154 -0.13799442
000230 99 6b a3 be b0 31 f6 3d 30 ae b3 3d 2b b6 7f 3e
       -0.31918028 0.12021196 0.08773458 0.24971835
000240 9a 07 25 be 83 5c c9 be a7 28 88 be 1c 6c 0b 3e
       -0.16116181 -0.39328393 -0.26593515 0.13615459
000250 1e 0c b3 3d 22 bc e8 bd 6b be 17 3f 1c ee f0 3d
       0.087425455 -0.113640085 0.5927493 0.11764166
000260 27 94 6a 3d 59 80 85 bd b8 32 ee 3c 57 c7 15 3e
       0.057270195 -0.06518621 0.029076919 0.14626823
000270 85 95 8c be 67 0f 28 be d8 bd bf 3d a5 72 0e 3e
       -0.27457824 -0.16412126 0.09362382 0.13910921
000280 dd 72 2f 3e 25 26 a5 3e 81 db c2 3d 63 c7 01 3d
       0.1713366 0.32255664 0.09514523 0.03168429
000290 1c 05 ac be 5d e4 bb be cb a7 92 bd 45 be a2 3e
       -0.33597648 -0.36697665 -0.0716091 0.3178579
0002a0 f8 7b 07 be e4 2b 7d be 68 0b 01 be e8 38 2a 3e
       -0.13230884 -0.24723774 -0.12602007 0.1662327
0002b0 b3 ab 45 3e 56 9c 6b 3e 4e e7 b0 be d9 e2 69 3e
       0.1930378 0.23008856 -0.3455147 0.22840442
0002c0 7e 01 00 3e 58 79 00 3f ac 62 a2 bd b8 40 f8 3e
       0.12500569 0.50185156 -0.079289764 0.48486876
0002d0 90 a6 c6 bd e6 04 c4 3e af 2e b4 3b 49 4b 2d be
       -0.09699738 0.38284987 0.005498729 -0.1692325
0002e0 b1 6d 9d 3d 00 6c 3f 3e 3a a0 23 be a1 52 ca 3d
       0.076869376 0.18693542 -0.1597909 0.098790415
0002f0 72 ed 80 3e d8 77 d4 3e 4a cb 5f be c2 fc 1f be
       0.25181156 0.41497684 -0.21854892 -0.15623763
000300 5b c3 55 be d4 3e 67 be f7 bb d1 3e c8 11 b1 be
       -0.20875303 -0.22582561 0.40963718 -0.3458388
000310 65 0d 61 3e 80 3f 0a be b4 3c 55 be 50 6b 6c 3d
       0.21977766 -0.13500786 -0.20823938 0.05771953
000320 7d e6 fa 3e df 99 3c be b8 dc d6 3d 1d 96 c4 3e
       0.49003974 -0.18418072 0.104913175 0.38395777
000330 a7 35 7a 3d e1 01 0f 3f c2 26 ba 3e 74 5a 09 be
       0.061086323 0.5586224 0.36357695 -0.13413411
000340 12 5c 9a 3d 2a 29 ac bd cf 10 f0 3e 14 a3 f7 be
       0.07537092 -0.08406289 0.46887824 -0.48366606
000350 b3 91 c9 3e 58 0e c9 3e 59 de 35 3e 85 7d 92 be
       0.39368972 0.39268756 0.177606 -0.2861139
000360 56 bc 03 3f 0c 19 9d 3d b5 42 0e 3e d2 f4 90 3d
       0.5145925 0.07670793 0.13892634 0.07077946
000370 f6 a2 eb bd a5 c2 f2 3e bc e2 22 bf 73 03 9e bd
       -0.11505692 0.47414127 -0.6362722 -0.07715502
000380 a8 5f f6 3d 8d e0 8c bd 37 74 9d 3e 75 3f 8a 3d
       0.12029964 -0.06878767 0.30752727 0.06750385
000390 ef 9c 63 bc 30 99 6b 3d 9a 77 7f 3e 8f 3c b0 be
       -0.013892396 0.057519138 0.24947968 -0.34421203
0003a0 f7 37 34 3e b2 5c 39 be cf 3a ed 3e 16 08 c1 3e
       0.17599474 -0.18101767 0.4633393 0.37701482
0003b0 73 9d fe 3b 96 0a f4 3e 55 0d bd bd 85 69 00 bf
       0.0077702343 0.47664326 -0.092310585 -0.5016101
0003c0 a4 40 93 bd 9d a4 13 bf 9d 0e cc 3e bb 2d 23 bf
       -0.071900636 -0.57673055 0.398549 -0.63741654
0003d0 e7 8d df bc fb 36 03 bd c8 3c 5e be b4 77 b1 3d
       -0.027289344 -0.032034855 -0.21702874 0.0866541
0003e0 72 f3 e8 bc 20 17 71 3c ed 4d 20 bd 75 d6 c4 be
       -0.028436396 0.014714986 -0.039136816 -0.38444868
0003f0 fc a3 66 3e 5f 41 17 3f c6 3d c6 be a2 15 a5 bd
       0.22523493 0.59084123 -0.38719004 -0.08060767

lstm.weight_hh_l1 f4 [32, 8]
000000 fb ea bf 3d 07 e9 9d bd 17 a6 dc 3e e5 95 12 be
       0.09370991 -0.07710462 0.43095466 -0.14314993
000010 52 8f 98 3c 1f d6 fa 3d bf 7b ff be f6 69 1f 3d
       0.018623028 0.122478716 -0.49899098 0.03891941
000020 5a 2f 19 3d 57 18 7b 3c 43 37 3e 3e 5c ca 35 be
       0.037398674 0.015325627 0.18575768 -0.17752975
000030 c5 ff 09 3d e8 e9 26 3e 6d 0e 0c 3e 71 97 17 3d
       0.033691186 0.16300166 0.13677378 0.03700966
000040 e2 c8 91 3e 5d 11 dc 3c 0d 93 92 3b 3f 8c ae be
       0.28473574 0.026863748 0.004473096 -0.34091374
000050 9f ab 3b 3b 8c e8 01 bf ca 06 a8 3c 3e 82 31 3e
       0.002863623 -0.50745463 0.02051105 0.1733484
000060 80 af c6 3d 98 f4 94 bd 16 13 5d bc e6 4b 10 be
       0.09701443 -0.07273215 -0.01349332 -0.14091453
000070 7a 1b cb be 7d 93 90 3d 13 4b c9 be d7 ea bc 3e
       -0.396694 0.07059381 -0.3931509 0.3689792
000080 d2 9a 5e 3d 2c 13 d8 be 35 86 be 3e 50 d7 c7 be
       0.054346867 -0.42202127 0.37211767 -0.39031458
000090 e6 c3 ec be 5c e2 8a be ce 7b 4c bd 7e 01 cc bd
       -0.4624321 -0.27125823 -0.049922757 -0.09961222
0000a0 fa 3c 0d 3e 49 4b cc be 0a 72 df 3e 12 12 cd be
       0.13792792 -0.39901188 0.43641692 -0.4005285
0000b0 00 5b 6f be a1 a6 58 3d 91 5f c2 be 5b fb 3d be
       -0.23374557 0.052893285 -0.37963536 -0.18552916
0000c0 a0 39 81 3e cb 3c 2d 3e 8b 77 03 3e 44 45 fa bd
       0.25239277 0.16917722 0.12838571 -0.122202426
0000d0 26 7f 26 be f2 6b 71 be 6c 1e 0c 3e cf d6 4a be
       -0.16259441 -0.23576334 0.1368348 -0.19808505
0000e0 76 50 f1 bd 39 29 82 bd 96 11 0d be 58 6f 3b 3e
       -0.11782925 -0.06355519 -0.1377624 0.18304193
0000f0 34 6b dd be 8a 0e 42 be 2f 3f c6 be 26 39 d5 3e
       -0.43245852 -0.18950859 -0.3872008 0.41645163
000100 cc 52 a4 3e cc 5b c7 be 3b a6 8e bd 55 1a 0a be
       0.3209442 -0.38937223 -0.069653 -0.13486607
000110 32 84 88 be de 1b 50 3d b8 9d ac be f1 aa f4 3e
       -0.26663357 0.050807826 -0.3371408 0.47786668
000120 a4 bb 55 3e cf 89 6f bd 9c 57 02 be e5 07 a6 3c
       0.2087236 -0.058481034 -0.12728733 0.020267436
000130 09 a1 04 be a8 29 04 3e 57 e2 4f bd 1f 51 26 3e
       -0.12952055 0.12906516 -0.050752964 0.16241883
000140 9d e7 8e bd 33 cb aa 3d 9f 68 7f be 7f da 90 be
       -0.069777705 0.083395384 -0.24942254 -0.282917
000150 77 f7 88 3d be 0d 97 be 5d a8 ae be f9 4d 1d 3e
       0.06687825 -0.29502672 -0.34112826 0.15361775
000160 83 04 12 3e 4f b0 4e 3d fa d7 37 bd c2 cf 30 3e
       0.14259534 0.05046111 -0.044883706 0.17266753
000170 95 6c f6 be 2d fb 8a bd 4f 35 93 be 68 4a b2 bd
       -0.48129717 -0.06786189 -0.2875161 -0.08705598
000180 60 c1 7c 3e 70 88 e1 be e6 35 c9 bd af d9 c6 be
       0.24683142 -0.44049406 -0.098247334 -0.38837954
000190 ff 78 1e be cc 69 e2 be 6a 36 b2 3d 19 79 9a 3e
       -0.15475844 -0.44221342 0.08701785 0.30170515
0001a0 f6 49 d7 3d fd 85 b5 bd 67 7c 92 3e 52 f0 e8 3d
       0.10512154 -0.08863447 0.28610536 0.113739625
0001b0 be 92 bf be 45 18 b4 be 82 fe 27 3e 00 32 10 3e
       -0.37416643 -0.35174766 0.16405681 0.14081573
0001c0 c4 6e ac 3e 42 74 10 bd 45 84 1c be 9b a5 b1 bc
       0.33678257 -0.035267122 -0.15284832 -0.021685412
0001d0 60 3c 1f be 53 27 1c 3e f7 68 60 3e c7 09 04 3e
       -0.15550375 0.15249376 0.21915041 0.12894355
0001e0 72 ad 00 be 5e 50 88 be 5b 51 50 bd d1 76 13 be
       -0.12566164 -0.26623815 -0.050858837 -0.14400794
0001f0 db 1e 75 bd 9c 5e 9a be b3 11 18 3e b8 94 d3 3d
       -0.05984388 -0.30150306 0.14850502 0.103311
000200 5a 23 34 be fb ab e7 bd 2d f5 32 bd 8c ea b9 bd
       -0.1759161 -0.113120995 -0.04369085 -0.090779394
000210 aa 7e 0f be b1 b1 c2 bb c0 8a 49 3c da e6 34 be
       -0.14013162 -0.0059415926 0.012301147 -0.17666188
000220 11 36 78 be 4a c1 8a ba 2d 8a ec bd ad 78 19 3d
       -0.24239375 -0.0010586169 -0.115497924 0.0374686
000230 0b 4a 19 bc 8e d9 d4 3e f3 f9 af 3d c9 73 52 be
       -0.009356032 0.4157223 0.08592596 -0.20551981
000240 4f e7 02 3e 18 7c 60 be 91 9a 42 3e 55 68 1f bd
       0.1278355 -0.21922338 0.19004275 -0.03891786
000250 96 b6 71 3e 27 25 75 3e 78 5a 0b be e4 1b 9d 3c
       0.23604807 0.23939954 -0.1360873 0.019178338
000260 20 d7 52 bd ec ea 9a 3d 1e cb 0b be 79 db ad 3e
       -0.05147469 0.07564339 -0.13651702 0.33956507
000270 ce be 93 3e 01 37 32 3e 3f 10 9b 3c 4c 39 84 be
       0.2885651 0.17403795 0.018928645 -0.25824964
000280 2b 30 b4 be 89 47 85 3e 7b 45 31 be a7 02 63 3e
       -0.35193 0.2603114 -0.17311661 0.2216898
000290 5f 11 39 bd fb 3f 8e 3e ed 92 3d 3e ec 2b 98 bd
       -0.045182582 0.27783188 0.18513079 -0.074302524
0002a0 57 5e ab be 6c 28 df 3e 1a b0 7b 3c a2 bd bf 3e
       -0.33470413 0.43585527 0.01536181 0.37449366
0002b0 fc a6 a1 bd 3c 22 d2 bd bc 27 c9 3d 76 6b 23 3e
       -0.07893178 -0.10260436 0.09822032 0.15958962
0002c0 b4 52 20 be 6a 1d a7 be 6b 1f f3 bd ce e9 5a 3d
       -0.15656549 -0.3263963 -0.11871227 0.05344563
0002d0 8a 7d 3b 3e 40 a3 1b 3e b4 f8 78 be bc c5 9d 3c
       0.18309608 0.15198994 -0.24313623 0.019259326
0002e0 0a ab 35 be 81 26 a9 3d 84 5d 0a bd 73 70 c9 bd
       -0.17741027 0.08259297 -0.03378059 -0.09835901
0002f0 9c 38 3f 3d 2a f8 b6 be 1d c0 1d 3d ce 8b c0 3c
       0.046684846 -0.3573621 0.03851329 0.023504164
000300 eb d0 03 3f 4d 11 10 bf 7b d6 50 3e 9c 80 22 be
       0.5149066 -0.562764 0.20394318 -0.15869373
000310 19 6f 7b bd 36 76 bb bd 76 5d c5 bd d7 4d 84 3e
       -0.061385248 -0.09153406 -0.09636967 0.25840637
000320 31 9b a5 3e 2f db 14 bf 66 07 3f 3d 69 3e a8 bd
       0.32344964 -0.5814695 0.046637915 -0.08215029
000330 1b c2 2b 3d 47 0d 79 be dd 39 c1 be 0d 8a af 3e
       0.04193316 -0.24321471 -0.3773946 0.34285012
000340 eb 57 f1 3e 73 8a b2 be 7c 12 b8 3e f2 f9 21 bd
       0.4713739 -0.34871253 0.35951602 -0.039545007
000350 57 41 c0 be 03 55 b1 be a7 b6 9c be 0d 54 21 3e
       -0.3754985 -0.3463517 -0.30608103 0.15754719
000360 8d 6e 97 3c f0 f3 f5 bd f8 1c df be c1 61 b7 bd
       0.018485332 -0.12009418 -0.4357679 -0.08954192
000370 10 92 d6 be 29 c3 68 be 1a 74 c9 3c e7 28 4a be
       -0.41908312 -0.22730698 0.024591494 -0.19742166
000380 47 ef 18 3f 0c 78 c3 be 5a fa 03 bd 37 db 42 be
       0.5974011 -0.38177526 -0.032221176 -0.19028936
000390 a1 46 0b bf d3 43 04 bf 8f b6 a4 be fe 60 0c 3f
       -0.54404646 -0.5166599 -0.3217053 0.548355
0003a0 31 ae aa 3d a7 3e e2 be 10 ed bb 3e eb 6e 89 3d
       0.083340056 -0.44188425 0.36704302 0.06710609
0003b0 be 5c a5 be 83 ba 74 be 07 8b b3 3d 12 54 a1 3d
       -0.3229732 -0.23899274 0.08766752 0.07877363
0003c0 46 ce 1d bd 21 66 35 be bb 28 b8 3e 95 25 e0 be
       -0.038526796 -0.1771474 0.35968575 -0.43778673
0003d0 76 f8 88 bd c8 80 50 be 82 49 e9 bd cd e1 ef 3e
       -0.06688015 -0.20361626 -0.11390974 0.4685196
0003e0 0a 3d 0a 3f d3 40 ac be 5c c6 1f 3e 1f 23 03 bf
       0.5399939 -0.33643207 0.15603012 -0.51225466
0003f0 f5 00 fa be 40 66 99 be 3d ef e8 bd 37 4e 0e 3e
       -0.48828855 -0.29960823 -0.11373756 0.13897024

lstm.bias_ih_l1 f4 [32]
000000 9d a4 ea bd bb 96 88 3e 08 f8 bc 3e b2 ed 34 3e
       -0.11457179 0.26677498 0.36907983 0.17668799
000010 22 8b 99 3e 7f 24 a0 3e b2 aa 78 3e 0c 71 a3 3d
       0.29988962 0.31277844 0.24283865 0.07980546
000020 74 06 a3 3d 68 57 c0 3d fa f3 0b 3d 66 ab 92 3e
       0.07960215 0.093916714 0.03416822 0.28646392
000030 ec 6d 9a bd e8 f0 dd bc 7f 12 77 3e 87 9b 0f 3c
       -0.07540497 -0.027092412 0.2412815 0.008765108
000040 41 48 3d 3e 31 07 7d 3c 99 ef e5 3d 2a 4c a5 be
       0.18484594 0.015443609 0.1122734 -0.3228467
000050 c6 16 3a 3d 9d f3 c2 be fa 22 f1 3b e6 37 2a 3e
       0.045431875 -0.38076487 0.007358906 0.16622886
000060 58 b4 40 bd 9e 6e d9 bd 4c 89 0e 3f ee cf 70 3e
       -0.04704699 -0.10616802 0.5567825 0.23516819
000070 d5 a3 67 3e 0d 62 32 3d e7 72 59 3e 97 34 de 3e
       0.2262109 0.04355054 0.21235238 0.43399498

lstm.bias_hh_l1 f4 [32]
000000 57 fa 90 3e d1 43 3f 3e 28 44 35 bd 25 89 de 3a
       0.28315994 0.18678214 -0.044254452 0.0016978128
000010 5a 2e 02 be 06 e1 9e 3e b5 2d 42 be 5f d8 9b bd
       -0.12712994 0.31031054 -0.18962748 -0.07609629
000020 a2 e7 bb bc 8d eb d3 bd 46 9b 31 3e 8b e8 af 3d
       -0.0229376 -0.10347662 0.17344388 0.08589276
000030 3e 65 db 3c cc 9a af 3e 2f 2f 10 be be 5d 37 3e
       0.026781674 0.34297788 -0.14080499 0.17906854
000040 a1 eb bb 3e cc d8 75 be 1b 8a 01 be 44 b8 b7 be
       0.36703208 -0.24008483 -0.1265034 -0.3588277
000050 f8 50 02 be b3 90 da bc 85 fe 26 be 81 7b b9 3e
       -0.127262 -0.026680326 -0.16308029 0.36227039
000060 14 3f 77 3e a6 e6 b8 3e 58 39 c1 3d fb 88 2c 3e
       0.24145156 0.3611347 0.094347656 0.16849129
000070 20 51 80 3e 50 2e 07 3f c9 f5 8a 3e 16 5f 1e 3e
       0.25061893 0.5280504 0.27140644 0.1546596

head1.linear.weight f4 [8, 8]
000000 07 ba 4c 3e 1b ee 65 be 98 2f 1d bf 4e 93 e1 be
       0.19992839 -0.22454111 -0.6140075 -0.44057697
000010 ae ac 81 3d 1f 55 05 be 44 b0 89 bd 5e 5f be bc
       0.06331764 -0.13020752 -0.06723073 -0.023238834
000020 5e 7d b5 3e 3c aa 0c be 84 73 91 3e 18 3f eb be
       0.3544721 -0.13736814 0.28408444 -0.45946574
000030 5a 86 39 3d 1c 04 7b be c6 8b 10 be 9f fe a7 3e
       0.045294143 -0.24513286 -0.1411582 0.32811448
000040 ad c3 32 3e ef 8a 1e 3e 41 6b 90 be 8d 40 8b be
       0.17457457 0.15482686 -0.28206828 -0.27197686
000050 48 ae 11 3e 53 d5 7c bc ce 65 2a be e9 f0 c4 3e
       0.1422664 -0.01543172 -0.16640398 0.3846505
000060 2a 10 aa 3c 73 c6 ee bd 71 49 de ba 37 b4 76 3e
       0.02075966 -0.11658945 -0.0016959143 0.24092184
000070 9b dc 85 3e 68 c1 a4 be dc 85 ae bd d6 09 91 be
       0.2614487 -0.32178807 -0.085216254 -0.28327817
000080 1b 00 8e 3d 3f e4 7a 3e a2 29 24 bf 1b 32 62 be
       0.06933614 0.24501131 -0.64126027 -0.22089426
000090 ee a7 b5 be c6 c8 62 3e 2e b8 2f bd f5 14 9d 3e
       -0.35479683 0.22146901 -0.042900257 0.3068005
0000a0 eb bf 52 3e 18 3f d8 3d 72 bd 13 bf 1a 42 9c be
       0.20581023 0.10558909 -0.57710946 -0.3051918
0000b0 17 44 6c be fc f0 a6 3c 4f 7f b6 be 82 03 a9 3e
       -0.23072849 0.020378582 -0.35644004 0.3301049
0000c0 37 30 96 be cb 67 7f bd 6b c1 c4 3d 06 53 26 3e
       -0.2933366 -0.062354844 0.09607204 0.16242608
0000d0 fd 7c 10 3e 32 51 f1 3d e1 20 89 3e 82 de 5c be
       0.14110179 0.11783065 0.26782897 -0.21569255
0000e0 62 4d 36 be b4 a6 88 3e 53 b7 52 be cd 8e 12 3e
       -0.17802957 0.26689684 -0.20577745 0.14312287
0000f0 c4 5b 15 be 4c 2d ef 3d 4c 73 19 bc 3c 2d 94 3d
       -0.14585787 0.116785616 -0.009365868 0.0723519

head1.linear.bias f4 [8]
000000 01 87 96 3e 7b ad 2b 3e af a8 c3 3e 24 21 a5 be
       0.29399875 0.16765396 0.38214633 -0.32251847
000010 9b 26 b1 3d 44 71 8d 3e 86 63 7f be 18 93 d1 3c
       0.086499415 0.27625477 -0.24940309 0.025582835

head1.final.weight f4 [22, 8]
000000 c8 da e9 3e 6e 2c 9d 3d 79 2d a6 3e a5 01 e7 3c
       0.4567473 0.0767449 0.32456568 0.028199026
000010 7c 0e 88 3e b7 6d be 3e 1a 32 f6 bd 3f a7 49 be
       0.2657355 0.3719308 -0.12021275 -0.19692706
000020 22 73 80 be 31 28 d7 bd fd 6c d3 be 7c fa 86 be
       -0.2508784 -0.10505713 -0.4129409 -0.2636298
000030 06 68 a7 be 0c ac b1 be c0 6a 85 be 08 51 9b be
       -0.3269655 -0.34701574 -0.26058006 -0.3033526
000040 cf ee 13 bf 5c 5a eb be 6a 8e 05 bc 15 63 d3 3d
       -0.5778627 -0.45967376 -0.00815163 0.10321633
000050 65 00 e5 be 80 83 f7 bc 38 cc 9d be a8 50 8c be
       -0.44726864 -0.030214071 -0.3081987 -0.27405286
000060 6a b7 b7 be 24 9f e7 bd 8d 8a 9e bd 4b bd 38 3e
       -0.3588212 -0.113096505 -0.0774127 0.1804096
000070 ce 49 ea 3d 52 0b ed be 15 74 8b be 10 ea 24 3e
       0.114398584 -0.462977 -0.27237 0.16104913
000080 35 16 eb 3d 8b 6e f8 be 44 8d 0e 3d cb c0 a6 3e
       0.11478845 -0.48521838 0.03480269 0.32568964
000090 d1 03 6e bd 7e b4 85 be e7 f1 68 3e dd 62 fa bd
       -0.05810911 -0.26114267 0.22748528 -0.12225888
0000a0 f4 e4 2d be 5c 3a fe be fb 5d 15 be 2d ae 0a 3c
       -0.1698187 -0.496539 -0.14586632 0.008464378
0000b0 c4 2b 03 bf f8 2b 75 be 12 58 2a bd da 0f 90 3d
       -0.51238656 -0.23942554 -0.041587897 0.070342734
0000c0 c8 2f 6a 3e ba 5c ad be 39 30 b5 3d cd dd ab bd
       0.2286979 -0.33859807 0.08847088 -0.083919145
0000d0 11 0f 4c bf 44 9e 45 be f5 30 b8 3c 83 e4 ec bd
       -0.7971049 -0.19298655 0.022484282 -0.11567023
0000e0 18 ce ef bd a8 09 da be da e1 af be ec e6 2d 3e
       -0.11709231 -0.42585492 -0.34352 0.16982621
0000f0 c5 04 79 39 8f 81 be be 25 ab a3 be 46 6b 1e be
       0.00023748267 -0.3720822 -0.3196651 -0.15470609
000100 ad 4f 98 3d 21 75 5d bd 8d 06 fc 3d af e7 3a be
       0.07437072 -0.05406678 0.12305937 -0.18252443
000110 ed 6c ab be f9 96 2b 3e 95 f5 a3 3d bf d0 70 3e
       -0.3348154 0.1675681 0.080058254 0.2351713
000120 7e bf b6 be 20 f1 7b 3e 75 95 42 be 18 29 1a be
       -0.35692972 0.246037 -0.19002326 -0.15054739
000130 6a 14 9e bd cc ee 82 bd ff 7e 00 bd 44 21 82 be
       -0.077187374 -0.06393203 -0.031371113 -0.25416005
000140 5a 5a ea 3d 5a 9a 84 3d ac 2d ec 3c 15 d6 82 be
       0.114430144 0.06474753 0.028830372 -0.25553957
000150 3b fa a0 be 00 89 58 be 11 0f 76 3e b7 a7 27 be
       -0.3144091 -0.21146011 0.24029185 -0.16372572
000160 00 f7 ca 3d 50 53 bb 3e 8a 74 80 be 18 7d 14 be
       0.09910393 0.36587 -0.25088912 -0.14500844
000170 87 2e be be 28 1b f6 3d 58 d1 7d 3e 4b 28 16 be
       -0.37144873 0.120168984 0.2478689 -0.14663808
000180 e2 c8 81 be 1c 09 87 bc 9f 0e 93 be 7d af 17 3d
       -0.25348574 -0.016483836 -0.28722093 0.037032593
000190 f2 55 19 bf 90 25 ff bb 45 75 a0 be 3f 37 1c bd
       -0.5989677 -0.00778646 -0.3133947 -0.038138624
0001a0 08 f2 e5 bc df e1 3b 3e f9 3d ed 3e e1 25 3d bd
       -0.028069511 0.18347882 0.46336344 -0.046178702
0001b0 37 2d 96 bd cf cd 1f bd 26 b0 4f bb a1 84 5b be
       -0.07332843 -0.039014634 -0.0031690686 -0.21437313
0001c0 3c 1a e9 bd 61 46 58 be bc e5 b0 be 09 47 5c be
       -0.11381957 -0.21120597 -0.34550273 -0.21511473
0001d0 3a 9d 91 bc 67 f8 d9 bd 87 7d 9f 3e 3d 97 46 3e
       -0.017775167 -0.10643082 0.31150457 0.1939363
0001e0 3a 73 ac 3e f9 b8 01 3d f6 16 29 be 24 56 ee bd
       0.3368166 0.031670544 -0.16512665 -0.11637524
0001f0 d3 af 6d 3d 52 92 7d bd 58 ab 4b be ec 15 f4 bd
       0.058029007 -0.06190712 -0.19889581 -0.11918244
000200 62 89 67 be 46 d9 57 3e 36 a4 cc 3d 62 b2 92 bd
       -0.22611001 0.21078977 0.09992258 -0.0716293
000210 1b 98 a3 be b1 46 4f be c1 1f 63 bd a4 c5 13 be
       -0.31951985 -0.2024181 -0.055450205 -0.14430863
000220 0c 83 aa be 68 ae e7 be 8d 71 18 bf ce 32 1f be
       -0.33303106 -0.4525025 -0.59548265 -0.15546724
000230 aa 17 34 bf 2f 1e b5 be e4 c8 a5 be 72 49 58 bd
       -0.7034861 -0.3537459 -0.3237983 -0.052804418
000240 24 99 2b bd 04 32 a2 3d ce c3 aa bd 2e b9 d6 ba
       -0.041894093 0.07919696 -0.08338128 -0.0016382092
000250 94 62 4e be 09 28 fb 3d 19 9e a6 be 65 ab 19 be
       -0.20154792 0.122634955 -0.32542494 -0.15006788
000260 57 b1 ba be 8e 1f 85 be a9 22 80 3d b1 01 4d be
       -0.36463425 -0.26000637 0.06256611 -0.20020176
000270 92 1b 2f bd d2 2e 99 bd 0e e5 88 3e 92 f2 85 be
       -0.042750902 -0.074796334 0.26737255 -0.2616163
000280 6d b2 fa be a8 b6 fd bd a3 52 48 be 84 d8 44 be
       -0.48964253 -0.123883545 -0.19562773 -0.19223219
000290 0d 67 c2 be 9d 41 e0 be 03 4f 13 3e eb ab 8f be
       -0.37969247 -0.4380006 0.1438561 -0.2806085
0002a0 d5 c8 c5 be 59 65 f1 be 39 71 d5 be dc 1f a4 3e
       -0.38629785 -0.47147635 -0.41687945 0.32055557
0002b0 37 e5 6c be c2 2e 2f bf 5c d4 3e 3e 79 8a 24 be
       -0.23134314 -0.6843072 0.18635696 -0.16068448

head1.final.bias f4 [22]
000000 cb c1 25 3d 6c e4 e6 be 0b bc a1 be 53 07 11 bf
       0.04046802 -0.45096147 -0.31588778 -0.566518
000010 ac 43 e0 be a7 25 d9 bd 29 b7 5d 3e 7e 22 0d be
       -0.4380163 -0.10602885 0.21651901 -0.13782689
000020 0b 21 59 3d 43 78 48 3e 1d 5f d3 be a6 41 17 3e
       0.053010028 0.19577126 -0.41283503 0.14771137
000030 4e 52 03 3e 5e 72 77 3e 56 c0 14 3e 6f 57 e1 3b
       0.12824365 0.24164721 0.14526495 0.006876878
000040 cb f3 aa 3d 14 3c e6 bd f4 48 af be 32 c3 ba be
       0.08347281 -0.11241928 -0.34235346 -0.36477047
000050 10 3b 97 be ed 5e c2 be
       -0.2953725 -0.37963048

head2.linear.weight f4 [8, 8]
000000 8d 80 01 3f 02 e5 9a be 18 49 1c bd 96 36 6c be
       0.5058678 -0.30252844 -0.038155645 -0.23067698
000010 be 8d 0e bf 2f f6 99 be 80 66 91 be 25 c5 2a 3d
       -0.5568503 -0.30070636 -0.28398514 0.041691918
000020 94 03 8a 3e 44 cc c4 bd 1f 32 af 3d b0 3b a4 3e
       0.26955855 -0.09609273 0.08554482 0.32076788
000030 13 1a aa 3e 69 5a a5 3c 87 9a 30 be 6b 49 13 be
       0.33223018 0.020184712 -0.17246448 -0.14383475
000040 bf ee c6 3c e2 0c 8c 3e 78 9c 57 3e 58 ca 0a be
       0.024283765 0.2735358 0.21055782 -0.1355375
000050 4a 43 af 3d ca 51 22 be e3 3d 51 3e 86 4e 6f 3d
       0.08557756 -0.15851513 0.20433764 0.058424495
000060 9f 5b 08 3e 5e fa 20 be 90 01 02 3f 15 b3 90 bc
       0.133162 -0.15720508 0.50783634 -0.017663518
000070 10 5c bc be a3 92 56 be 33 d4 dc bd 8d 4a 18 3e
       -0.36788988 -0.20954375 -0.10782661 0.14872189
000080 b1 30 62 be 57 2e 80 3e 8b 28 20 be 02 0e 11 be
       -0.22088887 0.25035354 -0.15640466 -0.141655
000090 92 17 07 be c1 21 c7 3e fc 08 9a 3e 4b 3e e5 3d
       -0.13192585 0.3889294 0.3008498 0.11193522
0000a0 88 f3 1f 3d d7 3b d6 be 6c f6 f0 bb 43 cf 92 bd
       0.03905061 -0.4184253 -0.0073535945 -0.07168438
0000b0 50 e6 96 bc 8c 0d 67 be b5 3b df 3d c4 c7 f5 3e
       -0.018420368 -0.22563761 0.1090006 0.48003972
0000c0 da e5 34 3e b8 c1 bd be e7 c9 92 be 68 47 d7 3d
       0.17665806 -0.37061858 -0.28669664 0.105116665
0000d0 e0 6d d7 bd e8 81 7c be cd ac 36 3e d5 68 bc 3e
       -0.10519004 -0.2465893 0.17839356 0.3679873
0000e0 70 36 50 bd 26 54 12 3e 29 22 3e 3c 69 f4 d6 3d
       -0.050833166 0.14289913 0.011604824 0.10495836
0000f0 57 9b 72 3e d7 8b 9b 3e db 97 93 bd c6 d0 75 bd
       0.2369207 0.30380127 -0.072066985 -0.060013555

head2.linear.bias f4 [8]
000000 f4 d6 f8 3d 4f e2 bb bd 60 8a 20 3e 2d c3 a7 3e
       0.12150374 -0.09174024 0.15677786 0.32766095
000010 e0 ea ae bd fc e6 02 3e 5b 0c a3 3d a8 64 66 be
       -0.085408926 0.12783426 0.07961341 -0.22499335

head2.final.weight f4 [27, 8]
000000 48 3b 42 3e cc ff 3b 3d f1 1c 50 be c1 08 11 be
       0.18967927 0.045898244 -0.2032354 -0.14163496
000010 4f e4 fe bd 67 89 77 3e 8a 46 b9 3e aa 42 01 be
       -0.1244589 0.24173509 0.3618663 -0.12623087
000020 f2 6a 4a bf e2 59 ba 3d ad ec a0 be 85 a1 f0 be
       -0.79069436 0.09099175 -0.3143057 -0.4699823
000030 8c 75 08 3d b6 fb 23 bf 84 8b 0c bf 68 cc 51 be
       0.033315226 -0.64055955 -0.54900384 -0.20488131
000040 c5 dc 3c bf e0 2e 4c 3e 8c 23 de be da 24 65 be
       -0.7377437 0.19939756 -0.43386495 -0.22377339
000050 e6 6c 6e be dc 90 af be 56 8a 2b bf 4b 23 d4 bb
       -0.23283729 -0.34290206 -0.6700796 -0.006473934
000060 a4 9a 2b bf a4 7b c4 3d bf a0 e1 3d e0 d0 5a be
       -0.6703284 0.09593895 0.11016988 -0.21368742
000070 be 1b 6a 3e 62 dd 0e bf 24 a7 e3 be 1b 0c e8 3d
       0.22862145 -0.55806553 -0.44463456 0.11330434
000080 f4 98 ca be 66 ce 4a 3d 5c 26 3b 3e 95 99 eb be
       -0.3956982 0.049513243 0.18276352 -0.4601561
000090 a0 4b 5b bc a8 a9 73 be 8f 9d 05 bf 7e 49 a5 bd
       -0.01338473 -0.23795187 -0.5219354 -0.08070658
0000a0 00 08 cc be 8c 03 ca 3d fe 01 d1 3c bd 3e 78 bc
       -0.39849854 0.09863958 0.025513645 -0.015151677
0000b0 9e c9 a2 be e2 48 07 be d9 9d 3f be 34 6a 31 3d
       -0.31794447 -0.13211396 -0.18712558 0.043314174
0000c0 36 74 ea be d7 a0 14 be d7 3b 86 3e 81 b6 96 be
       -0.45791787 -0.1451448 0.2621753 -0.29436114
0000d0 91 85 2a bd cf 00 0a bd 24 e6 7e bd c1 dd 94 3d
       -0.041631285 -0.033692177 -0.062231198 0.07268859
0000e0 8b 81 40 bd cf e3 96 3e c3 5f 03 3e 91 8d a0 be
       -0.04699854 0.2947068 0.12829499 -0.31358007
0000f0 c2 b9 49 be 34 5a e6 be 1e 25 e7 be fb a4 95 3e
       -0.19699767 -0.44990695 -0.45145506 0.29227433
000100 16 e8 75 bd 08 a0 20 3e 87 bd 34 bd ad 95 2d 3e
       -0.060035788 0.15686047 -0.04412606 0.16951628
000110 51 bd c4 bd 4c f5 15 3e ca e3 0c bf ab 7b 0e be
       -0.09606422 0.14644355 -0.5503508 -0.13914363
000120 df be 8a be 39 08 ef 3d 51 be 41 3e 53 3b 8b be
       -0.27098748 0.1167149 0.18920256 -0.27193698
000130 70 d1 82 bd d0 ca 2b be bc 41 4c be ff 90 04 3d
       -0.06387603 -0.16776586 -0.1994695 0.03236484
000140 af 35 40 3e 79 d1 55 be fc cc 92 3e e0 c1 26 3e
       0.18770479 -0.20880689 0.28672016 0.16284895
000150 11 50 46 be 68 64 39 3e dc 3a af bd af 19 0c 3e
       -0.1936648 0.18104708 -0.085561484 0.13681673
000160 ad f0 2c be da d8 6b 3e a2 68 83 be c4 15 9a bd
       -0.16888686 0.23031941 -0.25665766 -0.07523683
000170 1b a1 0d be 51 72 e4 bc 03 a3 03 3e 49 8e d1 3d
       -0.13830988 -0.027886542 0.12855153 0.10232217
000180 bb cc 37 bd b9 6d 8c be de 2d 0a 3e a8 de f1 3e
       -0.04487298 -0.27427462 0.1349406 0.47240186
000190 0c 0b 98 be 19 23 6f bd 50 13 b0 bd b7 d5 03 3e
       -0.29695928 -0.05838308 -0.085974336 0.12874494
0001a0 46 db ce b9 55 18 60 3e bd 5b 86 be 1e 05 96 3e
       -0.00039454753 0.21884282 -0.26241866 0.2930078
0001b0 59 18 78 be b6 17 0d 3d 69 b7 df bc 4e f8 cd bd
       -0.24228038 0.03444644 -0.027309136 -0.10057126
0001c0 92 26 8b 3d a1 a6 87 be ac e9 00 be 5b cd cd bc
       0.06794466 -0.26494315 -0.12589139 -0.025122335
0001d0 d3 97 80 be 98 90 62 be d2 fb 4d be 77 31 e4 3d
       -0.25115833 -0.2212547 -0.20115593 0.11142247
0001e0 86 1e 91 3e 3d a5 97 bd 39 09 e1 3d ff d8 86 3e
       0.283436 -0.074045636 0.10988087 0.2633743
0001f0 22 5b 3c be 23 ff cb bb 7e 5d a3 3c 4d fa 01 bd
       -0.1839414 -0.006225483 0.019942041 -0.031732846
000200 a6 6a 95 be f8 a3 06 3e 9f fb 62 bd 0a 1a e0 be
       -0.2918293 0.13148487 -0.055415746 -0.43769866
000210 1f ec 81 3e fb 7c ed bd da b9 f9 bd f1 e2 07 be
       0.2537546 -0.11596104 -0.121936515 -0.13270165
000220 6e 21 d4 3e df e3 33 3e 13 ef 73 bd ae d8 9e 3e
       0.41431755 0.17567395 -0.05955417 0.31024688
000230 ee 30 95 be f7 84 5f be 95 e9 21 3d 37 76 72 be
       -0.29138893 -0.21828066 0.0395294 -0.23677908
000240 10 b5 ae 3d ce a5 da bd 23 28 ed 3d 08 59 34 3e
       0.08530629 -0.10676156 0.11579921 0.17612088
000250 4c 7d c1 bc 5c ef e5 bd a4 21 91 3d 1a 1b 62 3e
       -0.023619317 -0.11227295 0.070864946 0.22080651
000260 bf 69 67 3d d0 f6 7b bd dc 10 e7 bd 03 22 ae be
       0.05649733 -0.061514676 -0.112825125 -0.34010324
000270 58 74 68 3e bd 86 97 be 51 14 02 3b 8e 3d c7 bc
       0.22700632 -0.29594985 0.0019848535 -0.024321344
000280 1c 73 f7 3d 18 de 97 3e c0 0d 98 bc b0 e9 37 3c
       0.12082502 0.29661632 -0.018561244 0.011225149
000290 dc f4 7f 3e 28 a1 b4 bd 37 53 a5 be cd b5 62 3e
       0.2499575 -0.088198006 -0.3229005 0.22139664
0002a0 c6 76 ab be c0 33 6f 3d a2 2c 8b bc 6e 3a eb be
       -0.33489054 0.058398962 -0.016989056 -0.45943016
0002b0 3c 37 8f bd 9d 9f e2 be 3f a6 64 be f3 72 9f bd
       -0.06992957 -0.442624 -0.22329043 -0.07785597
0002c0 38 03 2e 3d 91 ed 52 3e e1 7a 08 3e 0b 0f da bd
       0.04248354 0.20598437 0.13328125 -0.106474005
0002d0 59 d7 45 3e f1 41 1e be eb c1 91 be 3a b8 55 3d
       0.1932043 -0.15454842 -0.2846826 0.052177645
0002e0 c4 17 0e bf b3 11 74 be 01 d7 7b be 90 ef 09 bf
       -0.55505013 -0.23834877 -0.24593736 -0.5388117
0002f0 f1 fa 3b bd f6 eb 02 bf b0 ec 22 bf 14 0f a2 be
       -0.045893613 -0.511413 -0.63642406 -0.3165213
000300 5f 0d 16 be e6 c5 93 3d 05 42 18 bd 66 03 c1 bd
       -0.14653538 0.072154805 -0.037172336 -0.09424476
000310 cc 5e f9 bd 04 54 00 bf c2 21 a2 be 87 69 55 3e
       -0.12176284 -0.501282 -0.3166638 0.20841037
000320 7e 56 69 be 1d 36 63 3e d1 ef 38 be ab c5 43 be
       -0.227869 0.22188611 -0.18060233 -0.19118373
000330 0c ee 07 be d9 a4 20 bf 01 fa f2 be 23 b2 9e 3e
       -0.13274401 -0.6275154 -0.47456363 0.30995283
000340 ac 60 21 bf 3a 5f 3d 3d a4 bf a0 be 11 97 b1 be
       -0.63038135 0.046233393 -0.3139621 -0.34685567
000350 a2 4a 99 3e ea 3d 35 bf f2 75 1d be eb fd 36 be
       0.29939753 -0.707976 -0.15377024 -0.178703

head2.final.bias f4 [27]
000000 be 2e 11 bd db d3 10 bd f6 f1 9d be 9a 34 bc 3c
       -0.035444967 -0.03535829 -0.30848664 0.022974301
000010 d0 45 64 be f5 a0 a7 be d3 ca a9 3d e1 39 bb be
       -0.22292256 -0.32739988 0.08290639 -0.36567596
000020 09 89 68 be 71 1d 68 bd 83 4b 87 bd 7a 9f 95 be
       -0.22708525 -0.056668703 -0.066061996 -0.29223233
000030 0d ea 94 bd b9 87 6a 3e b1 d3 ea bd 46 d4 49 3c
       -0.07271204 0.22903337 -0.11466158 0.012318676
000040 36 1b 0e be 6f 2c 14 bd 24 15 a5 be 1d 30 08 be
       -0.13877568 -0.036175188 -0.32242692 -0.13299604
000050 d6 8b 1e be e5 50 69 3d 99 58 14 3e 63 5a ec 3c
       -0.1548303 0.056961913 0.14486922 0.028851693
000060 f4 d0 a7 bd 46 a2 3f bd 0c 91 d2 3d
       -0.081941515 -0.046785615 0.10281572

head3.linear.weight f4 [8, 8]
000000 69 61 d5 be c2 97 a7 bc 70 e8 e1 3d eb bf 29 3e
       -0.4167588 -0.020458106 0.11030662 0.16577117
000010 7b 10 45 be a6 b0 4d be cd ff 63 3e 5e 8d 79 bd
       -0.19244568 -0.20086917 0.22265549 -0.060925834
000020 70 d7 ae bd 69 b1 2f 3e d6 27 94 be 7b 3f 87 3e
       -0.08537185 0.1715752 -0.28936642 0.2641562
000030 ec 20 40 3d 27 ec a2 3e 4d fd a7 be 96 e6 62 bd
       0.046906397 0.31820795 -0.3281044 -0.055395685
000040 ee 5f 7f 3e 26 05 1a bf 9a 5b 8e bd 36 c3 00 bf
       0.24938938 -0.60164106 -0.06951065 -0.5029787
000050 cd 01 dc be ff e4 e8 bd 03 7b 6e be ff f6 c9 3e
       -0.42970124 -0.113718025 -0.23289113 0.39446256
000060 d6 89 17 3e a5 7c 8d be 11 f7 16 bd d1 b5 81 3e
       0.14798674 -0.2763416 -0.036856715 0.25334027
000070 c7 37 5e 3e be 78 6b 3e 26 04 57 be 05 ad 55 be
       0.21700965 0.22995278 -0.20997676 -0.20866783
000080 bc 52 7a 3e 6f 55 17 bf 3e a8 d2 3d c1 4c 96 be
       0.24445623 -0.59114736 0.10285996 -0.29355434
000090 d9 8a 60 be 9c 6a 80 bd 8b 2f 97 be 2c ac 45 3e
       -0.21927966 -0.06270334 -0.2952846 0.1930396
0000a0 53 7e 1b 3e 2a 2f 90 bd 22 16 36 3e ea 3f ae 3d
       0.15184908 -0.07040246 0.1778188 0.085082844
0000b0 81 a2 52 be ce e8 5e 3e a2 c0 ea bd c4 dc 8f 3d
       -0.20569803 0.21768495 -0.11462523 0.070245296
0000c0 4a 0a 8d 3e b8 60 ee 3d ff 07 32 3d db c7 9c 3c
       0.27546912 0.116395414 0.043464657 0.019138267
0000d0 a6 b2 33 3e 11 7c 93 3e 0f d1 9c be 7b 0b b7 3c
       0.17548618 0.28805593 -0.3062825 0.022344342
0000e0 cc 9a ea 3d fa 48 cf bb a7 02 7a 3e d8 6b 3c bb
       0.114553064 -0.006325838 0.24415074 -0.0028750803
0000f0 f9 3f 86 bd 5d d0 91 3e d1 0f fd bd a3 5e 43 be
       -0.065551706 0.2847928 -0.12356532 -0.1907907

head3.linear.bias f4 [8]
000000 6b 45 1e be 33 23 69 bc 91 b6 b7 3e 82 54 9d be
       -0.15456168 -0.014229584 0.35881475 -0.30728537
000010 27 a7 c8 3e 92 d0 63 3e 3a 2e 76 3e 9b 0b 91 be
       0.39190027 0.22247532 0.24041072 -0.28329167
